models/GTransCYPs_2C9.pth (torch, 434651 bytes, 38 tensors)

conv_layers.0.lin_key.weight f4 [64, 64]
00000000: 0c8c be3d e90f f4bd 4aec a83d 4820 12bd
00000010: 2cc4 523d 160c 51bd f6e0 bdbc c164 eabd
00000020: d461 3e3d 7c02 1a3d 8770 a93c f8d1 9abd
00000030: da55 a83d 8fc3 e73d 97d5 d13d 90ac c0bd
00000040: 90a9 eebd 9629 983d ba1d c83d 4375 e93d
00000050: a9e0 5fbd e758 dd3d 530e f5bd e1e9 813c
00000060: fca2 94bd 36af b63d c600 a0bd 4bd7 0dbe
00000070: 500c 923d 0402 fbbd 9301 89bd 345e c6bd
00000080: e6e3 993d 0585 9cbc f600 a23c ab1f 043e
00000090: 03f2 b7bd 00e8 fdbd 992a 98bd cc66 c33c
000000a0: 5435 723d ea7e bcbd fb0c 3fbd 0233 9abc
000000b0: fe53 c5bd a862 513d 0cc3 a5bd e884 e23d
000000c0: 90ff 35bc 3675 8f3d 2d90 ae3d cfb2 a3bc
000000d0: 3b6d b8bd 1abd be3b e46d ee3c 6bbc d93c
000000e0: 7806 af3b 4124 ec3d c1eb e3bd bb58 0c3d
000000f0: daee 823c d3df c03d cdd3 0f3c 4c13 afbd
00000100: 22b9 a33d 521e 74bc f352 513d 18eb f73d
00000110: b638 f0bd 6eea 25bc 3779 223d 2a31 033c
00000120: 30ac 19bb 7d96 943c be7f 1ebd ac3b bd3d
00000130: ad19 19bd 442c 6abd 595e a73c b694 c13c
00000140: de2b cf3d 6162 ad3d a134 e63d a34a 833d
00000150: dbc9 0bbd a735 5abd f8d1 92bd 4f04 6cbd
00000160: 8602 dbbd 05d3 d9bd b79e 9f3d 8f02 bd3c
00000170: 3862 f23c 4e54 72bd 8368 a83d 3ead b7bd
00000180: cce4 f5bd 631f 603d 29e1 923d 068f 113d
00000190: ec0f ad3d 6095 95bc 8570 973c cbff 22bc
000001a0: 6749 253d 4e6c ecbc a588 ad3b decd 2abd
000001b0: 9882 bb3d 17a6 8abd 22d6 13bc c8c9 c03b
000001c0: 0568 75bd e720 293d b5ed 7b3c 0c32 033d
000001d0: db51 523d 6764 013e 45cc 823d 986a 1d3d
000001e0: fc99 693d f588 9fbc d274 023e a6d1 35bd
000001f0: 3c43 cd3d 06e7 1bbd 427b 92bc f782 a1bc
00000200: 20b4 b3bd 0895 793c 74ef 103d 5018 be3d
00000210: 6ce3 aebc 6ac9 8cbc 309a de3d 88a5 21bd
00000220: a340 ef3c 1376 5e3d 2515 5ebd 9acb 893c
00000230: 0b45 303c 1431 5cbd ef06 3c3c b329 edbd
00000240: 451a 79bb a9eb 07bd 8a75 083e e591 d33d
00000250: 5429 ecbd 0c16 ecbd 0dc6 713d c2b0 ddbd
00000260: 7744 df3d 0a1b 8fbc 941d bcbd 182b c43c
00000270: c6d0 c43d 8a64 053d d6b5 cf3d 4d28 9cbd
00000280: 0b03 f13d 76cb 3d3d 0559 b6bd cfa4 18bd
00000290: c383 d33c ea41 ac3d 5562 e03c 8f89 0ebd
000002a0: e724 eebc 464c 9ebd a58d f4bd 6c4f 383d
000002b0: e7a1 91bd 96ec 1b3d ea46 bbbd 44d3 bcbd
000002c0: eac5 9e3d 652f 6e3d ec41 2bbd 733c c43c
000002d0: 1257 e7bb 076c 3fbd 6d61 df39 d233 51bd
000002e0: bbfc c6bc b44d 243c 69c9 d53d 9a3f f5bd
000002f0: 6b26 e43d 1829 c0bd f457 e13c 72b7 003e
00000300: 9b73 d2bd 0985 723c f07b 873d fe79 a63c
00000310: cc95 cc3d 678d c5bc 8487 6ebd 8d34 90bd
00000320: 785b 9cbb 4cb2 1bbd b1c6 ba3d 630e f9bd
00000330: 71e0 b7bd d7ac abbd 83b5 163a 65ac ebbd
00000340: 68b3 26bb f4d2 5fbd 36ae c83d 0c83 afbc
00000350: dae8 653d fc80 c8bd 4281 a5ba f23a 9abd
00000360: 1167 29bd 837e dbbd f260 aa3d 0e7b 8cbd
00000370: 00e6 683d 0964 b8bd 35fc c2bd b980 833d
00000380: 8bc3 25bb e2e9 fd3c 866f 03be d948 febc
00000390: 216b 2a3d 89d9 e83d 6b26 a7bd c69d f03d
000003a0: 2690 d7bd 4a4d be3d e829 773b 49cc c6bd
000003b0: 112d 81bd 21f3 683c b84f ebbd a3db 5dbd
000003c0: 7ba4 4ebd 7a67 e13d 8907 d23d cdf7 fb3d
000003d0: a57d d3bd d588 513c d603 e33d b0e9 993d
000003e0: 0923 b0bd 5696 08bd 350c e7bd eb2f b4bc
000003f0: b80d f43c 34ce 9f3d 81f8 44bd 0b85 8bbd
0.093040556 -0.11917097 0.082481936 -0.035675317 0.051456615 -0.051036917 -0.023178559 -0.114449985
0.046480015 0.037600026 0.02068354 -0.075595796 0.082195 0.11316597 0.10245817 -0.09407914
-0.11653435 0.07429807 0.09771295 0.11399319 -0.054657612 0.108079724 -0.11965623 0.015858592
-0.07257649 0.089201376 -0.078126475 -0.13851659 0.07131255 -0.12256244 -0.066897534 -0.096859366
0.07514171 -0.019106397 0.019775849 0.12902705 -0.08981707 -0.12397766 -0.0743 0.023852728
0.05913289 -0.092038944 -0.04664324 -0.01882315 -0.09635161 0.051119477 -0.08093843 0.11060506
-0.011108294 0.07004778 0.08523593 -0.019982724 -0.09005209 0.0058208825 0.029105134 0.026579103
0.0053413473 0.115303524 -0.11128951 0.034264307 0.015983034 0.09417691 0.008778525 -0.085486025
0.07994296 -0.014899807 0.051104497 0.121053874 -0.11729567 -0.010126693 0.03966638 0.008007327
-0.002344858 0.018138165 -0.038696043 0.09239897 -0.037378002 -0.05717112 0.02043073 0.023630481
0.10115789 0.0846603 0.11240507 0.0641072 -0.03412805 -0.053273823 -0.071689546 -0.057621296
-0.10693841 -0.10635952 0.07793944 0.02307251 0.02958785 -0.05916243 0.08223059 -0.0896859
-0.1200653 0.054717433 0.07171852 0.03553679 0.084503025 -0.018259704 0.01848627 -0.009948681
0.040353205 -0.028860237 0.0052958303 -0.041700236 0.09155768 -0.067699604 -0.009023221 0.005883429
-0.059913654 0.041291144 0.015376498 0.03203015 0.051347595 0.12635957 0.063866176 0.038431734
0.057031617 -0.019474486 0.12739876 -0.04438939 0.100225896 -0.038062118 -0.01788104 -0.01971577
-0.087745905 0.015233286 0.03538461 0.09281981 -0.021348678 -0.017185885 0.10869253 -0.039464504
0.029205626 0.054311823 -0.054219384 0.016820718 0.010758649 -0.053757742 0.0114762625 -0.11580219
-0.0038010043 -0.033183727 0.13326088 0.103305615 -0.1153132 -0.115276426 0.059026767 -0.108247295
0.109017305 -0.017468948 -0.09185329 0.02394633 0.09610133 0.032566585 0.10142104 -0.07624874
0.117681585 0.046336614 -0.08903698 -0.03726655 0.025819665 0.084110096 0.027390638 -0.034799155
-0.02907033 -0.07729392 -0.11941079 0.044997618 -0.071109585 0.038067423 -0.09144385 -0.09219983
0.07752593 0.058150668 -0.041810915 0.023954606 -0.00705994 -0.046733882 0.00042606462 -0.05107481
-0.024290433 0.0100282915 0.104388066 -0.11975022 0.1114014 -0.09382838 0.02750776 0.12569979
-0.10275956 0.014802226 0.06615436 0.020321842 0.09989509 -0.024115277 -0.058234707 -0.07041273
-0.004771646 -0.038011834 0.09119929 -0.12160947 -0.08978356 -0.08382576 0.0005749093 -0.11507491
-0.0025436524 -0.05464454 0.09798853 -0.021424793 0.056130268 -0.09790227 -0.0012627023 -0.07530774
-0.041358057 -0.107174896 0.08319272 -0.06859408 0.05685997 -0.09003455 -0.09520761 0.06421036
-0.0025293555 0.030995313 -0.12835512 -0.031040596 0.041606072 0.113696165 -0.081616245 0.11748843
-0.10525541 0.092920855 0.0037714187 -0.09706933 -0.06307424 0.014218123 -0.114898145 -0.05416454
-0.05044983 0.11006065 0.102553435 0.123031236 -0.10326699 0.012788971 0.11084716 0.075152755
-0.086004324 -0.033346497 -0.11281625 -0.021995505 0.029791698 0.07803002 -0.048088554 -0.06812485

conv_layers.0.lin_key.bias f4 [64]
00000000: 6a04 fe3c 603e 2cbd 7d86 af3d 9470 833b
00000010: 52a7 1a3d 7470 f7bd 6dc7 afbc 00bc 933d
00000020: d1e5 a63d 782d 39bc 2bc6 e13c ba95 18bd
00000030: a8f6 73bc 45cd db3d fb6f 77bd ffa9 2bbb
00000040: 4771 4d3d 44de f5bd 0e6c 633c 37c4 463d
00000050: 8c79 f33d e89e 65bc eb3e e93d 904a a43d
00000060: 73b1 a43c a53a 9cbd 3e84 8cbc 298c 3abc
00000070: 8ba6 5e3c d410 57bd d9ab ec3c 60b8 64bd
00000080: d41e 34bd 6514 843d 7e98 d53d 2c30 a8bd
00000090: 2197 58bd 4b72 113d b77b 0c3d 6733 ad3d
000000a0: b550 dc3c 5b59 ad3b a7a6 aa3c 2d4c b1bc
000000b0: 8d5b c13c c2d8 23bd 6bcc c9bd eda6 c93b
000000c0: fbd5 4e3d 1906 d8bd 3afe e63d 8490 6abd
000000d0: 92ac 6abd 2d3b 49bd 2516 4cbd cffa d9bc
000000e0: cc3d 27bd b860 8cbd b102 803d 19f3 6ebd
000000f0: 82db cf3d 1cb6 46bd 2c4e c7bd 22cf c7bd
0.031007964 -0.042051673 0.085705735 0.004011223 0.037757225 -0.120819956 -0.021457398 0.072135925
0.08149303 -0.0113023445 0.027560314 -0.037252165 -0.01489035 0.107325114 -0.060409527 -0.0026193855
0.050156858 -0.120052844 0.013880743 0.04852697 0.118884176 -0.014014937 0.11388954 0.08022034
0.020104146 -0.07628373 -0.017152902 -0.011385956 0.013589512 -0.052506283 0.028890537 -0.055839896
-0.043974712 0.064492024 0.10429476 -0.08212313 -0.052878503 0.03550939 0.03429767 0.0845707
0.026893953 0.005290193 0.02083142 -0.021642769 0.023603225 -0.04000164 -0.09853443 0.0061539323
0.050497036 -0.10548038 0.112789586 -0.057266727 -0.057293482 -0.0491287 -0.049825806 -0.026608853
-0.04083042 -0.06854385 0.06250513 -0.058337305 0.1014929 -0.048513517 -0.09731707 -0.09756304

conv_layers.0.lin_query.weight f4 [64, 64]
00000000: b93e 90bd 0102 dabd 8bef d43d e672 0c3d
00000010: 06e6 9f3d 1923 4c3c 9d07 46bd b25a 36bd
00000020: a345 b23d 748c d7bd 7157 0cba fb20 63bd
00000030: a360 963d 24fd 77bd 6a48 d83d 53bc 0b3d
00000040: d233 f43d 1cc3 bb3d 7e62 86bd 4ef3 ccbd
00000050: 9650 d4bd f140 803c 8487 d83c 4eb0 693d
00000060: 4d96 47bc b364 54bd 2c9f ac3d ce11 763d
00000070: 90d3 98bd aa91 f83d 3e19 18bd da1f 313d
00000080: d616 cdbc b1b9 333d 4b5a 823d 7921 e53c
00000090: 0c73 e0bc a5c0 ac3d beb9 e8bd 5959 813d
000000a0: 99eb 55bc c597 d7bd 56e2 d43d f351 723d
000000b0: 5449 8ebd a757 693c 33e1 8f3d 444b 9dbd
000000c0: dd7c b33d 91df 73bd 9cf0 65bd e238 ee3d
000000d0: da96 7b3d 0cf6 d93d 9aa8 8d3d 01a5 24bd
000000e0: 0500 90bd c06e 063b 66ab e1bd 97fe e7bd
000000f0: c883 b1bd 3fe4 73bd 29b6 773c 086f 80bd
00000100: 1f39 8fbd 65de 0bbd 1f8a 003d f89a 903d
00000110: 00cb d5bd 5fa4 32bd 3dab 92bc f83b 8abb
00000120: f2bf e3bb f267 f93d 9fe1 0dbc e36f e33d
00000130: d134 ae3d 76bd 62bc befd d63d cd0d 163d
00000140: 49c5 cc3d f7f3 ccbd b5bc 8dbd 33c2 6a3c
00000150: 0c41 cb3d 1ef6 c63d da3e 023d 10a5 5dbd
00000160: 5854 3cbd 2e31 2b3d 53da a2bc b15b 04bb
00000170: 695a e73d 508a 30bd ba05 063d 10f1 9b3d
00000180: 68d5 0cbd 2aff 833d 9d52 6dbd 4e1b 9abd
00000190: 06d6 0fbd ba79 813d 038b 673d 06be 8e3d
000001a0: 2079 923d e654 ec3d c4fa 123d 1950 323d
000001b0: 458e 0dbe ad27 fa3d 7463 64bb 3e25 833d
000001c0: 640d 463d 1df5 883d 2ffc b73d c916 f5bd
000001d0: 275b e6bd 4d40 b4bd ca1c 9e3c 5963 e0bb
000001e0: ad61 b5bd aae8 e13d e238 ebbd a045 c8bd
000001f0: d7c5 98bd eca9 c23d a6cb b1bd f4c2 df3d
00000200: cfff e83c 7519 043d b27f 8cbd 6ad1 58bd
00000210: 5112 9d3c 98cc b5bc 31f5 afbd 60e2 9d3d
00000220: fc7a be3d 3258 ee3b 5ed0 ccbd fc5f e8bc
00000230: 650b 0c3d 322a 6fbd 025f bcbd a36a 4d3d
00000240: 9f10 6ebd 350e b8bd 56ac c63c f9d1 893b
00000250: fafc a53d 7444 d63d 5706 773d 42c4 083d
00000260: 4018 543d 1fb3 78bd bd14 203d 49a5 1ebd
00000270: f2e8 0abe 213f 7c3d 90e2 9f3c a072 d93d
00000280: 64fd c3bd da2e 5abd b144 763d 24c4 c6bd
00000290: 62b8 cc3d ccc5 32bd 5a12 99bd d885 c9bd
000002a0: 4c42 013e 076f 63bc 99bc 4fbc 2a81 5abd
000002b0: 9cd4 aabc 45f4 843d 247a d33d 457d 2e3c
000002c0: 6727 cfbd 493d 53bc 058a 28bd 77ae 86bd
000002d0: 3cc7 813d 992c 9fbc 6238 b13d 3832 8ebd
000002e0: b2b3 ac3d b83f 173d f857 87bd 15b2 a63d
000002f0: ef7c 553d cdb7 be3d 9a5b 7fbd 2182 933d
00000300: 9388 8d3c 1c7e 883c 5e8c f2bd 7f80 d1bb
00000310: f530 e53d 8966 043d 2964 43bd 2e75 f4bd
00000320: eb46 fd3c d78a 4c3d 5b73 e83c 7fa6 d0bd
00000330: 46c2 bdbd 2536 a1bd a38b cabd 73dd b8bd
00000340: a580 053c b647 f23d 6e56 6fbd c2a4 db3c
00000350: b5c0 113d 6fa9 1a3d 5d47 833d 55d9 bf3d
00000360: a787 d23d 7e40 c5bd d838 b4bd e0fc 4b3d
00000370: 567f c5bd 483b 843c 8b59 a43c 8f4a 4abd
00000380: 3bd4 0e3d 1f20 0a3d 2063 c63d a8df 783d
00000390: 010f 12bd ba03 843c 4d40 543d 8eb0 143d
000003a0: 0af8 023d 221d 29bd 33b9 b9bd 6801 d63d
000003b0: f525 5e3d bfff 3d3d ccc6 433d aede b0bd
000003c0: b616 f53d 00b1 d1ba 2f14 78bd 767e 49bd
000003d0: 13df 0e3d 1384 a1bb 4ffc 653d cfb6 6fbc
000003e0: 053c 91bd 64c5 94bd 889a 6bbd d0d8 abbd
000003f0: f93b 133d f204 5abd 6ccc 2ebc 57de d23d
-0.070432134 -0.106449135 0.10397252 0.034289263 0.07807545 0.01245954 -0.048347104 -0.044520088
0.087046884 -0.10524836 -0.0005353606 -0.055451375 0.07342651 -0.060544148 0.10560687 0.034115147
0.119239464 0.091680735 -0.06561755 -0.10007344 -0.10366933 0.015655966 0.026431806 0.057052903
-0.012181831 -0.051853847 0.08428797 0.060075574 -0.07462227 0.12137158 -0.037133448 0.043243267
-0.025035303 0.04387826 0.06364878 0.027970063 -0.027398609 0.084351815 -0.113635525 0.0631587
-0.013056659 -0.105269946 0.10394733 0.059160184 -0.0694758 0.014242089 0.07025375 -0.076803714
0.0876405 -0.05953938 -0.056137666 0.11631943 0.06142316 0.10642633 0.06916924 -0.040196422
-0.07031254 0.002051279 -0.1101902 -0.11327856 -0.086677134 -0.059543844 0.015119114 -0.062711775
-0.06993317 -0.03414764 0.031381723 0.07060808 -0.1043911 -0.043613788 -0.017903918 -0.0042185746
-0.006950372 0.12178029 -0.008659749 0.11105325 0.08506168 -0.013839116 0.10497616 0.036634255
0.09998567 -0.1000747 -0.06920759 0.014328527 0.09924516 0.09714912 0.03179822 -0.054112494
-0.045978874 0.04179495 -0.019879496 -0.0020196254 0.11296541 -0.043100655 0.032720305 0.076143384
-0.034383208 0.06445153 -0.057940114 -0.07524739 -0.035116218 0.063220456 0.056529056 0.06969838
0.07152009 0.115396306 0.03588368 0.04353342 -0.13823803 0.12214599 -0.0034849318 0.06403588
0.048352614 0.06687377 0.08983647 -0.119672365 -0.11247855 -0.08801327 0.019300837 -0.0068477807
-0.08856521 0.11030705 -0.11485459 -0.09778905 -0.0745961 0.09505066 -0.08681421 0.10925856
0.028442292 0.03225084 -0.068602934 -0.052934088 0.019173773 -0.022192284 -0.085916884 0.07709193
0.09300801 0.0072736973 -0.100006804 -0.028366081 0.034190554 -0.05838985 -0.09197809 0.050150525
-0.05812132 -0.08987085 0.024252098 0.004205939 0.08104892 0.10462275 0.06030878 0.03339029
0.05178094 -0.0607177 0.039082278 -0.038731847 -0.13565424 0.061583642 0.019517213 0.10617566
-0.09569815 -0.053267337 0.060124103 -0.097053796 0.09996106 -0.043645665 -0.074742034 -0.09839982
0.12622947 -0.013881451 -0.0126792425 -0.053345837 -0.020853333 0.06491903 0.10326031 0.010649984
-0.10114937 -0.0128930295 -0.04114725 -0.06576245 0.06336829 -0.019430446 0.08653332 -0.06943172
0.08432712 0.036926 -0.066085756 0.08139435 0.0521211 0.09312401 -0.062343217 0.072025545
0.017277038 0.016661696 -0.11843179 -0.0063934918 0.111909784 0.032324348 -0.047702942 -0.11936413
0.030917605 0.049937095 0.028375318 -0.101880066 -0.0926557 -0.078716554 -0.09889915 -0.09026613
0.008148347 0.11830084 -0.058432035 0.026811961 0.03558417 0.03775924 0.06410096 0.09367625
0.1027978 -0.096314415 -0.087999046 0.049801707 -0.09643428 0.016141549 0.020062229 -0.04938751
0.034870367 0.03372204 0.09686875 0.06076017 -0.03565884 0.016115058 0.051819135 0.03630119
0.03197483 -0.04128755 -0.09068527 0.10449487 0.054235417 0.046386477 0.04779701 -0.08636223
0.119672224 -0.0015998185 -0.060566124 -0.04919287 0.03488071 -0.0049290746 0.056148823 -0.014630987
-0.07091526 -0.07264212 -0.05752042 -0.08390963 0.035945866 -0.053227372 -0.010668855 0.10296314

conv_layers.0.lin_query.bias f4 [64]
00000000: 66e4 143c a962 a63d eac4 90ba d77f 0cbd
00000010: b44d 213d ebc9 53bd b31f 933d 2fa7 d53d
00000020: b698 1dbd d63f 0bbd 5d59 c93d 117f e3bd
00000030: e5ce d83d b306 debd e6b6 623d 97f0 14bd
00000040: 3004 993d 0c1e f23d 4763 eabb 0c81 f93d
00000050: 81aa e43d 1d0c 05bc d22f e3bd b0da e03d
00000060: 83c4 743d 6dde 7fbc 0464 6b3c 5e9a ff3d
00000070: f4df 5cbd 6d99 dbbd fd2c 503d cc4e be3c
00000080: d1f0 003e 9de7 953c d59c 12bd 4cdc 0abe
00000090: 4c59 90bc 50b6 83bd 160a 583a 4f8b 4dbd
000000a0: 9b41 ad3c acec a13d 17a3 973d 0dcb b73d
000000b0: 7447 753d 0367 febc d82b 28bd 2b3f 1b3d
000000c0: ffe0 98bd 9e7e a9bd 4506 013d 5cb6 c83d
000000d0: e319 233d 8162 8fbd da60 a23d 1a28 38bd
000000e0: abd1 083e 565c 32bd 5e20 02bd 01c7 a03d
000000f0: 5932 94bd 94d8 f63c 0da5 8fbd 7a13 a8bd
0.009087658 0.08124287 -0.0011045013 -0.034301605 0.039380744 -0.051706236 0.071837805 0.10432278
-0.038475715 -0.033996426 0.09831498 -0.1110822 0.10586337 -0.108411215 0.055350207 -0.036362257
0.07471502 0.11822137 -0.007152948 0.12182817 0.111653335 -0.008120564 -0.110931054 0.10979211
0.05975772 -0.015616995 0.014367107 0.12480615 -0.053924516 -0.10722623 0.050824154 0.023230933
0.12591864 0.018298918 -0.035794098 -0.13560599 -0.017620705 -0.06431258 0.0008241249 -0.050181683
0.021149447 0.0790647 0.07404154 0.08974276 0.059882596 -0.03105498 -0.041057438 0.03790204
-0.074647896 -0.082761034 0.03150012 0.09800407 0.03981961 -0.0700121 0.07928629 -0.04496012
0.13361232 -0.04354509 -0.03176915 0.07850457 -0.072361656 0.03013257 -0.07013903 -0.0820684

conv_layers.0.lin_value.weight f4 [64, 64]
00000000: 1f7c 8b3c 5cd8 fcbd bb83 dcbd a05f 873d
00000010: bdb4 9fbd 7962 983d 414f 2f3d 200a b7bd
00000020: 794c 23bd d099 4c3d f391 b9bd c7d2 a9bd
00000030: 1dea c1bd 6bb1 fdbd f98e e83d 4bdd 343d
00000040: d8c3 bb39 3d33 c6bd 5f9f db3b fe03 f5bd
00000050: 2b03 74bd 56c2 bdbd d092 5b3b ebd4 e13c
00000060: 39e4 01bd 172e 9c3d 31a4 f93d ec6e 9a3d
00000070: 4d75 63bd d80a adbd f48f 3a3d 9659 4b3c
00000080: 5277 d43b c6ff c3bd 6dda 823d c11b dc3b
00000090: d438 c03d 44b2 9a3d b933 edbd 813e 00be
000000a0: 2cb2 74bc a55c d73d 3b67 06bd f524 62bc
000000b0: 8d73 45bd 3b7a 8dbd 82c2 083d e8fc 8a3d
000000c0: ce3b a53b a1d4 44bd b346 04bd 4c5e 29bd
000000d0: 90e1 2b3d b796 103b c111 24bd a510 8ebd
000000e0: 6084 8dbd c4de 183d ba27 b4bd 43d4 ab3d
000000f0: 86e3 b73d 28e7 943d 222f f83d 8975 b6bc
00000100: 0ac6 7fba ef9b d1bc fbb3 f4bd cca2 fe3c
00000110: bc82 02bd 8162 84bd 6a2d 8dbd 2272 2c3b
00000120: 1384 babd 1c5a 953c ec0c aebc 3339 91bd
00000130: 265b d93d 3007 8bbc 71c6 c23d da2c 57bd
00000140: e1d8 bfbd e65a 383d 3823 39bc e58d e4bd
00000150: 32c3 6bbd f22a e13d 4b58 ea3d 4d54 793d
00000160: 9349 e23b 96f7 09bd af5d fc3d 7dd8 963d
00000170: f2a7 543d 4b69 673d 9c0c adbd 8f22 e93d
00000180: 9711 9dbd 70b5 b0bd f81c 4cbd 511a 34bd
00000190: afac c3ba e419 b03d cb12 a5bd 273a ee3c
000001a0: b5a5 163c 1fa4 92bd 00ab b2bd ca40 9c3c
000001b0: 72ab 8bbd 3f20 813d 1db9 903d afcd b2bd
000001c0: e3f3 8dbd 8db4 da3d 7e93 443d 6d95 e93d
000001d0: 993c 7c3d acfe a2bb 7d9c ab3d fbda 67bd
000001e0: 8059 e8bc 3036 d8bd 1e41 2ebd c164 933d
000001f0: af12 c2bd 4a9e 22bd ae1d 323d 88cc bf3d
00000200: d9d6 14bd 200a e2bb 4052 fabc 3cb1 e53d
00000210: 8877 4e3b 70e4 dcbd c526 e83c 8357 883d
00000220: 5db7 4c3d d93f 1dbe 120f 353c 7bfc dfbc
00000230: b331 df3d 542c b4bd 5c0d b23d 2672 88bd
00000240: 98ba 2ebb 49d6 fbbd 26f2 da3d fcd6 173c
00000250: e053 60bd 2f20 043d 431c b4bd 23bb 123d
00000260: ce30 dd3d 0bdd 003e e58a 403d f165 d03d
00000270: 7415 4e3d f8fc 2c3d 6ce3 ea3d dc54 ca3d
00000280: 979f 463c 37bd ddbd c6ff 02bd d0b6 223b
00000290: 14c2 ad3d 1f36 3bbd c913 fbbc 1b0e 483d
000002a0: 6bfc ccbc 5f9c 0e3d 798e 853d 1870 9bbc
000002b0: eefb b73d 14c9 8c3d 89ac d43d f8d2 ad3d
000002c0: 6328 12be c6c2 8fbd 723a 8b3d 1863 b239
000002d0: 441e 213d f6ff 4f3d fca5 a63d ccc0 c0bc
000002e0: dcec 06bd 0ce8 d03b a01e bb3d 52d0 f53d
000002f0: 8622 c8bd 586d 013e 6bf8 e3bc 46c9 ac3d
00000300: 439b ebba 3f45 593d 694d f1bc 303b 9ebd
00000310: 5ba8 a03d 5e20 893d 3e01 b3bc 7843 513d
00000320: 5fe1 353c c57f 7bb9 ebb4 dc3d 7ec5 393d
00000330: 414f f7bd ac6e b93c f161 1abc 7098 d43d
00000340: 07d6 8dbd fb34 a7bc 2816 babd eb4d ecbd
00000350: 5c64 153b f5de 443d 7b8d 163e 1c8b 9c3d
00000360: 4166 a83c 4ba3 ee3c ab03 a2bd 294d c43d
00000370: 42b2 ebbd f843 b33c d5cf b43d cb84 243d
00000380: 0770 fcbd 775d 88bd 62b2 97bd d152 a7bc
00000390: 0834 9f3c 7476 c63d 7bc7 d7bd 02cd 213d
000003a0: a589 d1bd bc20 4d3d 21b9 41bb b6c6 3d3c
000003b0: c0ac c93a b757 993d f15c b33d f53f 2a3b
000003c0: 35c8 943c 611e c93d c430 f0bd 36b3 08bd
000003d0: de92 353d d076 863d 731c d33a a5b6 9cbd
000003e0: 72a7 043d 3498 3b3c a9c7 813c 7de9 de3d
000003f0: 2861 4bbc c6be d1bd 572b bdbd 6168 e2bd
0.017026959 -0.12345955 -0.10767313 0.06610036 -0.07798145 0.07440657 0.04280019 -0.08937478
-0.039867852 0.049951375 -0.09061041 -0.08292156 -0.09468482 -0.123873554 0.11355395 0.044156354
0.00035813334 -0.09677742 0.006702348 -0.11963652 -0.059573334 -0.09265582 0.0033504255 0.027567348
-0.03171179 0.076259784 0.1218952 0.07540688 -0.05553179 -0.08449334 0.04554744 0.012411496
0.0064839507 -0.09570269 0.06389318 0.0067171757 0.09385839 0.07553533 -0.11582131 -0.12523843
-0.014935058 0.105157174 -0.032813292 -0.013802757 -0.0482059 -0.06908079 0.033388622 0.06786519
0.0050425297 -0.04805434 -0.032293987 -0.041349694 0.04196316 0.002206249 -0.040055994 -0.069367684
-0.06910014 0.03732182 -0.0879664 0.08390095 0.089789435 0.07270652 0.12118365 -0.022272842
-0.0009756988 -0.02558705 -0.11948391 0.031083487 -0.03186296 -0.06464101 -0.06893428 0.0026313146
-0.091072224 0.018231444 -0.021246396 -0.07090988 0.10613088 -0.0169712 0.09510506 -0.05253301
-0.09367538 0.045008563 -0.011299901 -0.11159877 -0.0575592 0.10994519 0.11442622 0.06087141
0.0069057434 -0.033683382 0.12322556 0.073655106 0.051917978 0.0564969 -0.08449671 0.11383545
-0.076693706 -0.086283565 -0.049832314 -0.04397041 -0.0014928783 0.08598688 -0.08060225 0.029080464
0.009194781 -0.0716021 -0.08724022 0.019073863 -0.0681981 0.063049786 0.070665576 -0.08730637
-0.06931283 0.106789686 0.047992222 0.11405454 0.061581228 -0.004974207 0.08379457 -0.05660532
-0.02836299 -0.105572104 -0.04254257 0.07196952 -0.0947622 -0.039701737 0.043485336 0.09365183
-0.036337707 -0.0068981797 -0.030556798 0.112154454 0.0031504352 -0.107857585 0.0283388 0.066573165
0.049979556 -0.15356387 0.011050956 -0.027342072 0.10898151 -0.087975174 0.08693954 -0.06662397
-0.0026661512 -0.12296731 0.106907174 0.009267565 -0.05476749 0.032257255 -0.08794453 0.035823
0.108003244 0.12584321 0.04700746 0.10175694 0.050313428 0.042233437 0.114691585 0.09879467
0.01212301 -0.108271055 -0.031982206 0.0024828203 0.08484283 -0.04570591 -0.030649083 0.048841577
-0.025022706 0.034817096 0.06521315 -0.018974349 0.08983599 0.0687429 0.10384471 0.08487505
-0.14273219 -0.07019572 0.06798257 0.00034024636 0.039335504 0.050781213 0.08137128 -0.023529433
-0.03294073 0.0063753184 0.09136701 0.120026246 -0.0977221 0.12639368 -0.027828416 0.08436827
-0.0017975349 0.053044554 -0.029455857 -0.07726133 0.07844611 0.06695627 -0.021851178 0.051089734
0.011101096 -0.00023984823 0.10776695 0.04535436 -0.12075663 0.02263578 -0.009422765 0.10380638
-0.06925588 -0.020411005 -0.09086257 -0.11538299 0.0022795415 0.04806419 0.14702408 0.076437205
0.020556571 0.029130599 -0.07910856 0.0958503 -0.11508609 0.021882996 0.08828703 0.040165704
-0.12326055 -0.06658452 -0.07407071 -0.020425232 0.01943399 0.09690562 -0.10536095 0.03950215
-0.10231332 0.050080046 -0.0029559808 0.011583021 0.0015386567 0.074874334 0.087579615 0.0025978063
0.018161872 0.098202474 -0.11728051 -0.033374034 0.044329517 0.065656304 0.0016106501 -0.07652024
0.03238625 0.011449862 0.015842276 0.10884378 -0.012413301 -0.10241465 -0.09236782 -0.11055065

conv_layers.0.lin_value.bias f4 [64]
00000000: 3f9a c0bd 31da b73d 739e 8e3d 31d7 0c3d
00000010: 023a 0fbd 8d2a 763d 2f86 043c 71ed a73d
00000020: 2373 7cbd 4cce d53c eb9c e8bd 277d 12bb
00000030: 3c4b 943d 986f 273d c6ec babc f3f0 d23c
00000040: 4514 3b3d 7003 9bbc 8aa1 b6bc aa85 bbbd
00000050: 312d a93d 4171 b63d a0a7 c6bd 7f21 acb8
00000060: 7e4a 71bd d98e 0f3e baec b53d c8aa b13d
00000070: 6d7e 39bd fc5b ff3c 7040 843d 7bc6 a4bc
00000080: 4a73 ccbd feb9 963d cbf7 af3b 706c 1ebd
00000090: 29a4 853d 7612 80bd 0b3f 4cbb e51d c6bd
000000a0: cb6e 923c 7c99 00bc 4f81 5abc b401 a9bc
000000b0: b172 9bbd 6bd1 9ebd d1bd afbd a63e 833a
000000c0: c814 88bd 0046 0b3e 3db9 613d 815e b73c
000000d0: bf08 e0bd 6d7a 083e b9d7 0e3e ee9d a43d
000000e0: 338a 093e 71c7 a7bd 558d 773c 2d47 68bd
000000f0: 4b82 9cbd 44d4 c03d 1e20 a43b 4692 c23d
-0.0940442 0.089771636 0.069638155 0.03438491 -0.03496743 0.060099173 0.0080886325 0.08199585
-0.06163324 0.026099347 -0.11358055 -0.0022352429 0.07240912 0.04087791 -0.02281798 0.02574966
0.045673627 -0.018922538 -0.022293825 -0.09156354 0.08260573 0.0890832 -0.09699941 -8.207838e-05
-0.058908932 0.14019336 0.08883043 0.08675152 -0.045286585 0.031171791 0.06457603 -0.020114174
-0.09982927 0.07359694 0.0053701154 -0.038677633 0.06525452 -0.06253521 -0.0031165506 -0.09673671
0.017875096 -0.0078490935 -0.013336494 -0.020630695 -0.07590235 -0.07754787 -0.085811265 0.0010013178
-0.06644589 0.13600922 0.055108298 0.02238393 -0.10939168 0.13327952 0.13949479 0.08037935
0.13431625 -0.08192337 0.01510938 -0.056708504 -0.07642039 0.094154865 0.0050087115 0.09500556

conv_layers.0.lin_edge.weight f4 [64, 42]
00000000: 03b2 613d e5fb f23d d59a e13d 7fb2 34bc
00000010: 1d85 84bd 2e80 76bd 72e1 833d e3fc 5d3d
00000020: c5e7 a2bb 8867 f4bd 7b72 4f3d d056 bebd
00000030: d65f 1cbc 327e ab3d 1a62 03be a61f aabc
00000040: 709d a23d bd40 8bbd 8994 a13d 6a57 ccbd
00000050: b8dd 953d 6548 9e3d 9ba3 52bd 99dd ed3d
00000060: 077a d13d 3845 de3d e60d 9bbd 7262 b8bd
00000070: 6902 a03d b048 e2bd 9ee0 2abd 3712 a73d
00000080: 4528 8e3d 6c76 79bd c292 e73d 4d3b fbbd
00000090: ea09 fdbd 725f 5dbd a586 9f3d 5407 7b3d
000000a0: a3b5 be3d 5468 12bd 0756 153e 9091 853d
000000b0: 2f67 663c 4ebd d83c 9dfc b6bd d59d 88bd
000000c0: db7c 2e3e 157d 28bc 6e51 fc3d e96c 1cbc
000000d0: 5e36 1fbe bd06 ca3d 2144 803d bc1d 95bd
000000e0: 54a5 dcbd 68ea ddbd 7a60 1ebe 5a5d 103a
000000f0: 8f4a 39bd ce3d 7f3d b204 e53d d9c8 c3bd
00000100: a3ad e7bd 47da 21bd 1176 363d 96de c63d
00000110: a2f9 a0bd 339a 1fbe 34c9 523d e381 7c3d
00000120: 902f fabd b408 cdbd cc90 8dbd 8aa0 d0bd
00000130: 2cb1 b1bd 5867 383d 2d88 103e 41ce b1bd
00000140: c687 95bd 20ad 6f3d 56d7 cf3d 1e1d 92bd
00000150: 2e94 fa3c ff0f d0bd fc89 05be 8ed3 0c3e
00000160: 9e02 323d fff5 b43d a6cf 5b3d 540b 263d
00000170: 0045 893d 845e 11be 2fcb 753d 9f14 03be
00000180: 54d4 d03d f6e3 193d 94f3 203d 8727 8fbd
00000190: 19a2 ce3d 092e a93b 6c2d f93d 3a8e 6a3d
000001a0: 2654 ea3d b4fa 493d c7f7 02be 2089 7fbd
000001b0: ccd0 9e3c 5ea4 08bd 4a32 ccbd c49f 7d3d
000001c0: 2a80 e33c 6554 fd3d 20d5 afbd c5ee ce3b
000001d0: 0d26 693d bba8 09bd 59f9 6fbd 5f22 a1bd
000001e0: b7dc ebbb 07b3 5abd 73d9 483c 3276 a73d
000001f0: 1008 11be a3dc 83ba 7005 38bc d67b 493d
00000200: ddd6 8c3d 4efd e5bd ef3e aebd fd5e c7bd
00000210: be73 0b3e 48b0 f53d bed8 e13d f7a0 0b3e
00000220: 5648 10be 6aaa 963c 7a2a 08be f35e e63c
00000230: 4951 01bd 6d33 3e3c ab41 1e3e a8a8 5c3d
00000240: b2bb 18be 18d7 243d d323 cfbd 93e5 80bd
00000250: d6ea b53d 0d39 00be 2c99 d8bd d55a 113e
00000260: 5a0c 5f3b f3f0 acbd 7be4 ef3c 5d8e 1a3e
00000270: fcf8 b63d 665f 9bbd 5edf babd 97f1 013e
00000280: 873b 023d e1fd a63d 36ad 05be 436f 463b
00000290: 7026 b0bd adb8 d13d 5f85 523d 7fea 8c3d
000002a0: 3325 773d 56b5 953b d7e2 15be f010 06be
000002b0: 1bf3 43bd ff3f 9d3d 7a29 7bbd fe77 bfbd
000002c0: 1ef8 96bd aad7 b93c cd1e e0bb a4fe 083e
000002d0: d9aa ef3d 7a04 da3d 6d13 2ebd 29d8 d1bd
000002e0: 120b cf3d d233 dc3c 70fb 293e 870e 1cbe
000002f0: d3f0 22bc 3e85 96bc 1753 a9bb 6c00 cebd
00000300: 0ebc 16bd dab1 db3d e277 12b9 b23f aebd
00000310: 45bd 9cbd 6eff 6dbd ad56 9c3d 4352 0dbe
00000320: e42f 4dbd 4fed e73d 29a0 0cbe eb43 173c
00000330: ade1 7b3d 0fa5 813d b398 813d ab04 383d
00000340: 092d e23d 0e79 ea3d e5cc f73c 89fd cc3d
00000350: 48c8 0a3e 3e04 ebbd dad1 ca3c feb9 57bd
00000360: a7c3 973d 8aee 79bd e8fc b9bb e733 8b3d
00000370: 184c 57bd 097b 09be 9cbc bbbd 2b74 203c
00000380: d487 80bd 5b69 05be a59b 973d 08bc 543d
00000390: 05a9 d1bc 87d5 e4bd 744b d13c 0dc7 00be
000003a0: 357b 82bd e220 f7bd 7686 f0bd bf2f d5bd
000003b0: c80d cb3c 3300 98bd bcce ed3d 2ad8 773d
000003c0: 295b 1dbe 999d 80bd 32eb 0f3e 5f64 133d
000003d0: ae99 02bd a87c 0ebd 8ac5 d2bd 8136 903d
000003e0: c90e 1aba c3e7 0e3e 074f 6cbd 7049 143e
000003f0: 431b febd 2fc0 973d 297b 023e e8ff e23c
0.055101406 0.11864451 0.1101586 -0.011028885 -0.06470702 -0.060180835 0.06439485 0.05419625
-0.0049714767 -0.119338095 0.050646286 -0.09293902 -0.009544333 0.08373679 -0.12830392 -0.020767044
0.07940185 -0.06799457 0.07889659 -0.099776104 0.0731768 0.07728652 -0.051425558 0.11614532
0.10228353 0.10853046 -0.0757101 -0.09003152 0.0781296 -0.1104902 -0.041718118 0.08157771
0.069412746 -0.06090395 0.11307289 -0.1226717 -0.123554066 -0.054046102 0.07789353 0.061286286
0.09311988 -0.035744026 0.14583598 0.065219045 0.014062687 0.026457455 -0.08934901 -0.06670729
0.17039816 -0.010283728 0.12320219 -0.009547451 -0.15548083 0.098645665 0.062629946 -0.07281062
-0.10773721 -0.10835725 -0.1546649 0.00055070745 -0.04523712 0.0623148 0.11182536 -0.09559793
-0.113124155 -0.039514806 0.04454619 0.09710424 -0.07860114 -0.15586166 0.051461414 0.061647307
-0.12216103 -0.100114256 -0.069123834 -0.101868704 -0.08676371 0.04502043 0.14114447 -0.08681918
-0.07301287 0.058514714 0.10148494 -0.0713446 0.030588236 -0.10159301 -0.13040918 0.13752577
0.043459527 0.088359825 0.053664826 0.040538147 0.06702614 -0.14196211 0.060008224 -0.12800835
0.101967484 0.037570916 0.039294794 -0.06989961 0.100895114 0.0051629585 0.12166867 0.057264544
0.11441831 0.049311355 -0.12789832 -0.062386632 0.019386671 -0.033359878 -0.099705294 0.061919942
0.027771074 0.123696126 -0.08585572 0.0063150846 0.056921054 -0.03360818 -0.058587406 -0.07867884
-0.007197942 -0.05339339 0.012258875 0.08176841 -0.14163232 -0.0010060262 -0.011231765 0.049190365
0.068769194 -0.11229955 -0.085080974 -0.097349145 0.13618371 0.119965136 0.110276684 0.13635622
-0.14090094 0.018391807 -0.13297454 0.028121447 -0.03157166 0.011608941 0.15454738 0.05387178
-0.1491535 0.040244192 -0.10114255 -0.06293788 0.08882682 -0.12521763 -0.1057609 0.14194806
0.0034034462 -0.08444395 0.029283753 0.1509337 0.08934209 -0.07586555 -0.09124635 0.12689815
0.03179505 0.08153892 -0.13054356 0.003027872 -0.08601081 0.10240302 0.051396724 0.06880664
0.06033821 0.004568736 -0.14637314 -0.13092399 -0.047839265 0.07678222 -0.061318852 -0.093490586
-0.07371543 0.022685844 -0.0068396092 0.13378388 0.117025085 0.10645385 -0.042498995 -0.102463074
0.10109533 0.026880179 0.16599822 -0.15239917 -0.009945112 -0.018374082 -0.005167376 -0.10058674
-0.036800437 0.10727282 -0.00013968305 -0.08508243 -0.07653288 -0.058104925 0.076337196 -0.13800912
-0.0500945 0.1132456 -0.13732971 0.0092325015 0.061494518 0.063303106 0.06327953 0.044926327
0.11043746 0.114488706 0.030249069 0.100092955 0.13552964 -0.114754185 0.024758268 -0.05266761
0.074103646 -0.061018504 -0.0056759007 0.06797009 -0.052562803 -0.1342584 -0.09166834 0.009793322
-0.06275907 -0.13028471 0.07402734 0.051937133 -0.02559329 -0.111735396 0.025548674 -0.12575932
-0.06371156 -0.12066819 -0.117443964 -0.104094975 0.024786845 -0.07421913 0.11611697 0.060508884
-0.15366806 -0.06280059 0.14054564 0.035984393 -0.03188484 -0.03478685 -0.10291584 0.07041646
-0.0005876837 0.13955598 -0.057692554 0.14481139 -0.124075435 0.07409703 0.12742294 0.027709916

conv_layers.0.lin_skip.weight f4 [64, 64]
00000000: 3d9d 543d 6b49 083d d1f7 de3d c566 46bd
00000010: 5839 41ba d91a b5bd d903 afbc e0ef e03d
00000020: 7a19 21bd 57ab f23d e890 b03d d538 32be
00000030: 7060 983d 79cf bcbd 7dcd 8ebd 4ab5 63bd
00000040: bfbe ac3d 2a09 fc3c 9dd8 463c 8d2d 44bc
00000050: 013e ab3c c2cd cabd f94a 883d 806b 6b3d
00000060: cc0f 61bd e89b ba3a 6499 87bd 1358 af3d
00000070: fd4e 60bd b2e6 fcbc bb14 263d f481 20bd
00000080: 7768 bebd a2eb 9e3c 7140 a4bb f6cf da3d
00000090: 87df 36bb a73a 00be ca35 a03d 8ef1 30bc
000000a0: fc1a 35bd cc37 a73c 4466 c8bd d5bb 943d
000000b0: 19b7 913d b057 8dbb 1e25 583d 4677 5dbd
000000c0: dc36 babd 619b 30bd cb7d 34bc 8027 88bb
000000d0: 77ca ab3d be71 f83d 044b b43d 62d6 5fbd
000000e0: d0c0 0c3d 9932 aabc 7280 bfbd 4d71 7b3d
000000f0: c848 f4bd 6ff6 02bc 989b 9f3d e4c1 ce3d
00000100: 1463 9b3c 1557 95bd f0af 90bd 6e3f abbc
00000110: 7dad b13d f7a9 32bd 7721 9a3d 9071 d2bd
00000120: 2432 363d 6229 15bd 3620 f2bc 0dcb 25be
00000130: b1a7 80bd 6e4c 49bd 8c52 96bd a6b0 b83d
00000140: 69ae 15bd fc34 1a3d 2024 e1bb 9299 01be
00000150: 4caa 8c3d 086e 14bd 9ce1 febd 5d50 d73d
00000160: 37c7 abbd 1cfc 05be 84d4 99bd 3f27 533d
00000170: 363b 7abd c003 bf3d b35f a7bd c85c 8b3d
00000180: 9935 d33d 83f5 09bd efcb b13d 54d5 64bd
00000190: b971 9c3d 07d2 6dbd 8238 f93a f938 6cbd
000001a0: 843b f8bd e4c0 84bd 453e b93d d015 e7bc
000001b0: f4e2 51bb 0847 69bd 0f15 59bd c0dd febd
000001c0: edad 8fbb 9c7d b4bd 4e80 553d cf34 a23d
000001d0: 3aba 2e3d afff e33d 32ba 233d c9aa 19bd
000001e0: ea0e 813d fbb1 bf3d 893d 51bd 649d 14be
000001f0: 5bec e23d 6557 c5bc 0a55 733c 679d bfbd
00000200: da9e 003e f8af 253d 48e7 bd3d 18a1 d1bd
00000210: 97d5 f83d e4f3 d33d ace6 debc 14e8 6c3d
00000220: 8f2b b53d e400 d8bd e120 c7bc 5612 aebd
00000230: a298 cdbc 6a8a 2bbd 5236 243d 9d8e f5bd
00000240: f777 ecbc 2775 d3bd 1227 0fbd bd02 df3d
00000250: 1035 bd3b e67e 263d 6f23 e4bd 03da 96bd
00000260: 332a 893d a419 f83d 1e5e a2bd df73 80bd
00000270: 2a95 9e3d 07c2 173d 9e1b dc3d 7971 c43c
00000280: f6bd 103d 206b 103d 5d15 053d 8e79 24bd
00000290: 3722 e03d b4dd 403d 25bd 26bd 7102 503c
000002a0: ed1a 9e3d 941c 833d d9a7 59bb 9a0f c5bc
000002b0: df54 c93c 315b cfbc 1a09 bdbd 4b78 83bd
000002c0: da74 21bc f5d9 39bd bf62 d2bd 97ad e13d
000002d0: f22d 1bbd b03d e4bd 2be6 f2bd dfca e03d
000002e0: 36ef 9abd 3831 853c 1eff 803d ab2a 3abc
000002f0: 70e7 9c3d 8e54 1bbd 32f0 0abc d528 7dbd
00000300: e529 42bc 2d7b 9abd 3baf 9d3b b94e 563c
00000310: cb3d c7bd 0f3b 8b3d 7b93 833d 4b15 843d
00000320: 2d0c 8c3d 9a31 943d 476b 95bd b7fa 66bd
00000330: 90fd e3bd 9e4f eabd e04a babd 16b7 22bd
00000340: 1032 ecbd b916 2c3d f0ed 5bbd 1c35 a63a
00000350: 6200 75bd 1540 213d 0c3b dbbd 22e5 893b
00000360: 6478 f23c 48f2 e2bc 378b 86bd 555c 88bd
00000370: ddce 0a3d 96c4 ca3b e950 cdbd 7aa4 d23d
00000380: 40af 7cbd 50da 0e3d 6864 efbd 9054 0dbd
00000390: 2046 8c3d db7f 95bb c5b4 723d 6aa7 dbbd
000003a0: 0b33 073d 689a bcbd 552a d6bd 2af8 43bd
000003b0: 332c 963d 8f84 a73d 38da 0a3d c6ea b13d
000003c0: 42ba 0abd 0909 7cbd 770f f3bd 34e3 32bc
000003d0: 3128 9c3d bbbc 4cbd 1253 dabd cb73 a5bc
000003e0: 120d 373d 1cce 5e3d d7d0 e63d c953 b93d
000003f0: fb29 a6bc 6323 e8bd 83fd c2bd e094 a23d
0.051907767 0.03327314 0.10887111 -0.048437852 -0.00073709106 -0.088430114 -0.02136414 0.109832525
-0.039330937 0.11849087 0.08621389 -0.17404492 0.07440269 -0.0921926 -0.069727875 -0.055592813
0.084348194 0.030766089 0.012136606 -0.011973751 0.02090359 -0.099025264 0.06654925 0.057475567
-0.054946706 0.0014237138 -0.06621054 0.08561721 -0.05476283 -0.030871723 0.040547114 -0.039186433
-0.09297269 0.019399468 -0.005012565 0.10684197 -0.0027904229 -0.12522374 0.078227594 -0.010799779
-0.044215187 0.020412348 -0.097851306 0.072623886 0.07115001 -0.0043134317 0.052769773 -0.054068826
-0.09092495 -0.04311693 -0.0110163195 -0.0041550994 0.083882265 0.121310696 0.088033706 -0.05464781
0.034363568 -0.02077608 -0.09350671 0.06138735 -0.119279444 -0.007993325 0.07793349 0.100955755
0.018968143 -0.07292 -0.070648074 -0.02090427 0.086756684 -0.043619122 0.07525914 -0.102755666
0.04448141 -0.03641642 -0.029556375 -0.16190739 -0.062819846 -0.049145155 -0.07339963 0.09018068
-0.036543284 0.037648186 -0.0068707615 -0.12656239 0.06868419 -0.036237746 -0.12445375 0.10513375
-0.083876066 -0.13084453 -0.07511237 0.0515511 -0.061091624 0.09326887 -0.0817255 0.06804806
0.10312957 -0.033681404 0.08681475 -0.055867508 0.076388784 -0.058061626 0.0019014033 -0.05767152
-0.12120727 -0.064821035 0.0904508 -0.028208643 -0.0032026144 -0.056952506 -0.0529986 -0.12444639
-0.0043847472 -0.088130206 0.052124314 0.07920229 0.04265807 0.11132752 0.03997249 -0.03751639
0.06301673 0.09360119 -0.051084075 -0.14513165 0.110802375 -0.024089525 0.014851818 -0.09356194
0.12560597 0.04045102 0.09272629 -0.10235804 0.12150114 0.10349253 -0.027209602 0.057838514
0.08846199 -0.10547045 -0.02430767 -0.08499591 -0.025097195 -0.04188005 0.040090866 -0.11990092
-0.028865797 -0.103250794 -0.03494937 0.10889194 0.005774148 0.040648364 -0.11139571 -0.07365801
0.06697502 0.121142656 -0.07928108 -0.06272101 0.077432945 0.037050273 0.10747455 0.02397989
0.03533741 0.035258412 0.032491077 -0.040154986 0.10944026 0.047086433 -0.040707726 0.012695895
0.077199794 0.06401935 -0.0033211617 -0.024055291 0.024576603 -0.025312038 -0.092302516 -0.064194284
-0.00985452 -0.045373876 -0.102727406 0.11019438 -0.037885614 -0.111445785 -0.11860307 0.109761946
-0.07565157 0.01625882 0.0629866 -0.011362712 0.07661331 -0.037922435 -0.008480119 -0.06180652
-0.011850809 -0.07543025 0.004812149 0.013080292 -0.09728583 0.06798374 0.06424614 0.06449374
0.0683826 0.07236023 -0.07295852 -0.056391444 -0.111323476 -0.11440967 -0.090963125 -0.039725386
-0.11532986 0.042013858 -0.05369371 0.0012680623 -0.05981482 0.039367754 -0.10704622 0.004208223
0.029598422 -0.02770342 -0.06569522 -0.06658236 0.033888686 0.0061879857 -0.10025198 0.10285278
-0.06169057 0.034876168 -0.11689073 -0.034504473 0.06849313 -0.0045623607 0.059254427 -0.10725291
0.033007663 -0.09209138 -0.10457293 -0.04784409 0.07332649 0.081795804 0.033899516 0.086873576
-0.033869036 -0.061532054 -0.11868184 -0.010918427 0.076248534 -0.049984675 -0.10660376 -0.020196816
0.0446902 0.05439578 0.11270302 0.09049184 -0.02028369 -0.113348745 -0.0952101 0.07938552

conv_layers.0.lin_skip.bias f4 [64]
00000000: 54fb ab3d 4034 013e ba10 7d3d 7d7e e83d
00000010: 27e2 2b3d a5c7 cd3d 4f36 e8bc 2546 a0bd
00000020: 1721 1bbd 3e03 13be 702c 093c c77c 38bd
00000030: cb18 bebd 1a7e 3fbd 9b40 54bd dd79 b13d
00000040: 4259 1d3d 8013 75bd ea30 223d 5ea4 8b39
00000050: 0c19 e2bd 8dfc c93d c603 d8bd c285 c43c
00000060: 6e74 c4bd befc b63d fe24 473b 9657 14bd
00000070: 0cb8 32bd 8b06 043e 1185 6d3d d326 83bd
00000080: ea73 a83d f3d8 38bd 7f69 e13c e2d1 7b3d
00000090: 43ab eb3d 945a 4cbd c0f7 913d d52e d8bd
000000a0: e7ad ebbc a09b eebb 46fd d73c 19b3 dbbb
000000b0: 4a07 2fbd f14f fcbd 2636 f73d 915c 983d
000000c0: 4753 d33d 6a86 bc3d acce eb3c 6019 ad3d
000000d0: 5505 a8bc 52c3 123e fc60 0ebd 6271 a03d
000000e0: ac40 e53d f359 de3d fe89 35bd 00bd a1bd
000000f0: aeae 97bd 1a59 95bd 05e2 0bbe 7ce3 cc3d
0.083975464 0.12617588 0.06178353 0.11352251 0.041963723 0.10047845 -0.028346209 -0.07825879
-0.037873354 -0.14356706 0.008372411 -0.045040872 -0.09282073 -0.04675112 -0.051819425 0.08665822
0.0384152 -0.05983305 0.03959743 0.0002663461 -0.110399336 0.09862623 -0.10547595 0.023989562
-0.0959252 0.089349255 0.003038704 -0.03621634 -0.043632552 0.12893121 0.05798823 -0.064038895
0.08225234 -0.045128774 0.027516125 0.061479457 0.11507275 -0.04989107 0.07127333 -0.105558075
-0.028769447 -0.0072817355 0.026365887 -0.0067046997 -0.04273156 -0.12319935 0.12070875 0.07439531
0.10318618 0.09205325 0.028785072 0.084521055 -0.020510355 0.14332321 -0.03476046 0.07834126
0.11193976 0.10857 -0.044321053 -0.07897377 -0.074063644 -0.072923854 -0.13660438 0.10004327

conv_layers.0.lin_beta.weight f4 [1, 192]
00000000: 6208 abbc 65d8 b4bc e761 01bd 475d 6dbc
00000010: 4aea 7bbd dd83 b83d 1488 eeba 3391 9bbb
00000020: 0bff 81bc 0083 713d db80 ceba d3bd d3bd
00000030: 5ebe 0dbd e32f 313d a27d 973c c705 633d
00000040: 7345 b4bc 24f0 163c 9182 5e3d 665a 5cbd
00000050: a218 bcbd 2116 8dbd d0b6 fa3b 9711 993d
00000060: 8b47 2bbd c8e3 cfbc 27c0 5a3d dbb2 393d
00000070: 1eac 913d 25b3 ac3c 05cb 4b3c 9e0f 913c
00000080: 07f9 06bd 5662 0dbd adf0 d83b f2bb 00bd
00000090: 811e c4bb 66ca 403d cf4d 93bd cfe3 a13b
000000a0: a554 ef3b fe99 f3bc f33d 76bd 23b8 c5bc
000000b0: 8412 f3bc cefa 2abc 7f90 aebc 6925 23bd
000000c0: 221d 27bd 42cd 84bd 9998 0dbd 7a9e 85bd
000000d0: 3f42 30bd d7b5 0b3d 8487 45bd 4d1f 7b3d
000000e0: b44c 4ebd 5a44 2b3c 7c67 80bc 54d8 7dbd
000000f0: 4628 9b3d 2fd0 5e3c b034 223d 020f 46bd
00000100: ff52 503d 1d28 85bd 1dd1 9739 2c61 8c3d
00000110: 48bd 223d ee09 5dbd 0b98 3abd 73cb 903d
00000120: 4aa2 96bd 47ae 3abc 60d1 78bd 7d2e e4bd
00000130: 5d6d 9bbd 17bf 93bd 918a c7bd c5e7 f0bc
00000140: 1f7d 723d 1d97 12bc 26b6 83bd 9be8 74bd
00000150: 0911 a53c b665 21bd a924 563c a513 0b3d
00000160: dcc8 0c3d 667e 6e3b 44be 2bbd b5f2 533d
00000170: ee80 3d3c 8bab d13c 0a17 d53c 0bdb 95bc
00000180: b9b4 bdbc b2e0 01bd e791 723d e142 51bc
00000190: b079 2c3d f745 b9bd 5803 8ebd 4258 a53d
000001a0: 2278 c53c 598d bd3c 4386 3ebc 8cde db3c
000001b0: 9e43 343c e960 3ebd b8d1 c3bd 81ea 08b9
000001c0: f784 463d 5f16 88bd 9c7d 383d a059 79bc
000001d0: de31 f23d dddf a63c eb66 483c 09a1 ffbc
000001e0: 6ce0 8b3d 2e57 2fbd 580b 82bb 6662 12bc
000001f0: 20cf a13c 7c6c 46bc 1bc2 103d 3f7a a33d
00000200: 36e6 4f3d cc95 dabb 5b15 4fbd 85e6 11bd
00000210: de25 79bc 5420 5bbc 88da b43a 881e 26be
00000220: c1a8 673d 4b91 663d d81c a33d da47 e53d
00000230: 5c59 523d 1626 0e3d 9052 cc3d 7c25 c4bd
00000240: 88a6 31bd cf12 b63c 87af 9f3d eba9 ee3c
00000250: 3263 b6bd 5e74 3b3d efa6 be3b be8b e3bd
00000260: 4c21 a53d d46b bdbd 2ae4 b2bc ba70 75bc
00000270: a50e c23d 09fb 513c cd40 12bd c9c3 d83d
00000280: 468d 0b3d 4643 98bd 305f 2bbd fc42 323d
00000290: 01db 9fbd e721 343d c506 32bd 03bb 02bd
000002a0: 6bfc 17bd d746 66bd f542 ef3b 6ce6 bdbc
000002b0: 8c84 573d bfd8 e6bc 6b82 2c3c ec97 db3c
000002c0: 10d5 6b39 6d60 97bd 8802 3b3d 04a2 ab3b
000002d0: 898a 70bd 4fa4 5cbd b69b 44bc 4f5a 923c
000002e0: a2ca 00bb 82bb 4fbc 03bc 943d 2601 0cbd
000002f0: ba55 073d 8544 92bd cfc8 7ebd 9bf2 8bbd
-0.02087802 -0.022075841 -0.031587508 -0.014487571 -0.061502732 0.09009526 -0.0018198513 -0.0047475337
-0.015868684 0.058962822 -0.0015754955 -0.103389405 -0.034605376 0.04325856 0.018492524 0.05542543
-0.022005772 0.009212527 0.054323737 -0.05379715 -0.09184386 -0.068889864 0.0076511875 0.07474058
-0.041816276 -0.02537717 0.053405907 0.045336585 0.07112907 0.021081517 0.01243854 0.017707642
-0.032952335 -0.03451761 0.0066204877 -0.03142924 -0.0059850817 0.047068022 -0.07192575 0.004940487
0.0073037916 -0.029736515 -0.060117673 -0.024135655 -0.029671915 -0.010435773 -0.021309135 -0.0398306
-0.040799268 -0.06484462 -0.034569357 -0.06524368 -0.043031927 0.034108963 -0.04822494 0.061309148
-0.05036612 0.010453308 -0.015674345 -0.061973885 0.07576041 0.0135994395 0.039601028 -0.048354156
0.0508604 -0.065017916 0.00028956766 0.068544716 0.039731294 -0.053964548 -0.045555156 0.07070055
-0.07355173 -0.01139409 -0.06074655 -0.111416794 -0.07589219 -0.07214182 -0.09743226 -0.029407391
0.059201356 -0.008947161 -0.064312264 -0.059792142 0.020149725 -0.03940364 0.013070264 0.03395428
0.034371242 0.0036391257 -0.0419295 0.051745135 0.011566384 0.025594493 0.026011962 -0.018292924
-0.023157464 -0.031708427 0.059221175 -0.012772293 0.042108238 -0.09046548 -0.069342315 0.080734745
0.024105135 0.023138689 -0.01162869 0.026839517 0.011002449 -0.04647914 -0.09561485 -0.0001305733
0.04846665 -0.06644892 0.045041665 -0.015219122 0.11825918 0.020370418 0.012231569 -0.031204717
0.068299145 -0.04280775 -0.0039686374 -0.008934593 0.019752085 -0.012110826 0.035341363 0.07982301
0.050756656 -0.006670689 -0.050557476 -0.03562023 -0.015206782 -0.013374407 0.0013798038 -0.16222584
0.05655742 0.056290906 0.07964486 0.11195345 0.05135475 0.03470429 0.09976685 -0.09577462
-0.043371707 0.022225766 0.07797151 0.029133758 -0.08905639 0.045765273 0.00581824 -0.11110638
0.080629915 -0.09249082 -0.021837313 -0.014980489 0.094754495 0.012816199 -0.03570633 0.10584218
0.034070276 -0.074347064 -0.041838825 0.043520913 -0.078054436 0.043977644 -0.043463487 -0.03191663
-0.03710596 -0.056219902 0.007301683 -0.023181163 0.05261664 -0.028179524 0.010529141 0.02680584
0.00022490718 -0.07391439 0.04565671 0.0052378196 -0.058725867 -0.053867634 -0.012000015 0.017865328
-0.0019652029 -0.012678983 0.07262423 -0.034180783 0.03304074 -0.07141975 -0.062203225 -0.06833383

transf_layers.0.weight f4 [64, 64]
00000000: 59d4 3fbd 6415 813d 7413 bc3c c0a6 5cbd
00000010: fb0e c33c 0545 9abd 9d3c 6abc 536f d83d
00000020: 89bc af3d 9267 883c 07fe 29be 470b 693d
00000030: 6e9d 8ebc 361e 293d c023 2c3c aaf0 53bd
00000040: b03b 993d db9b 113e fb8b 083d 3f7e a73d
00000050: 217f a13d 23cd 09be f107 883c 74b3 2ebd
00000060: 983e 6bbd 7c50 e9bc 918c 50bd 2b6c 883d
00000070: b872 b13d bede 0fbd c815 dfbd 1164 d23d
00000080: dd9f f53d cb59 4dbd 53a4 8f3c 225a 1f3e
00000090: 8075 e9bd c21f 7f3d c312 c03d f66e 5a3d
000000a0: 4f8f f03d 4a24 aa3d 563d eebd 2359 0ebd
000000b0: 6ec3 103e 1ba6 f93b f1de f63d d697 acbd
000000c0: ee34 d8bd 9f7c 613d 4196 8bbd 1422 0ebe
000000d0: 4b1b ed3d bffd 71bd 8d4a b0bc ba97 9b3d
000000e0: 1f2b 98bd f5f8 89bd 8e8e a23b ae37 5d3d
000000f0: ecbc 243c 8938 7abd 8163 0dbe 77ff 1c3d
00000100: 0fa7 b9bd 431a 2a3d 83b6 a13d d6fd 0abd
00000110: af2e ed3d 7e8f febc 9d37 7e3d dddb 1dbd
00000120: 4d7c cb3b deaf e83c 2575 adbd 39fb c4bd
00000130: 73a5 e6bc 1fdf 75bd cd97 b33d 5018 d93d
00000140: 66a2 59bd 0203 61bd 7532 1ebe fa0d a93d
00000150: bb86 4a3d 0ea0 ef3d bdc4 013d cdca d73d
00000160: 2081 c33d 6190 f83b 38d3 8bbc 00c6 c13d
00000170: 1723 bd3d c0c9 ad3d a337 0fbd bf6a 95bd
00000180: 6c99 6abc 62e3 ef3d 3fca 6cbd 1de8 5a3d
00000190: d7d2 563c 164b b6bd e333 19bc 94fb fc3d
000001a0: 6747 d6bd b318 bdbc df6a 5b3d a4e7 91bd
000001b0: b33d 923d 6d83 82bd 9f6d 553d 3155 e93b
000001c0: cc39 f63d 3d20 59bd a35e 9dbd 8140 6a3d
000001d0: e73d a3bd 895c 073e 650b ce3d f9cc 053e
000001e0: 1335 883d bc34 e4bd ffd3 6f3c 5a75 cc3c
000001f0: 9507 32bd d1ef 36bd d6b5 73bd ee57 d3bc
00000200: 602b 4f3d 2081 e6bd 40f2 7f3d ebae 43bd
00000210: 6217 c83c 1de1 ca3d afb1 4ebd e87a 32bd
00000220: 82b1 bbbd 52e4 6abd d7f7 593c 3387 173d
00000230: f40d ce3d 09ec 65bd cc27 cabd 9ae5 c73d
00000240: 5713 243d 1ec1 013e 286e 923d 37eb b6bc
00000250: 9a9a 6bbd 03c8 b8bb a062 00be f181 843c
00000260: 265d f83d c8ca cebd be81 debc 9295 2f3e
00000270: fd08 f2bd b4c5 7b3d def9 3ebd 609f 31be
00000280: 96be 5f3c 3ea6 75bc 1ba4 203c 47fc c9bd
00000290: bdc4 6cbd a3a7 0a3e 7004 72bd 74a8 dd3d
000002a0: c947 c23c 6763 1dbc 7b44 f3bb e30b d8bb
000002b0: bd26 cb3c ee99 713c 72d5 203d c2a9 d4bd
000002c0: bf4c d93c d051 153e abfe 03be 1668 853d
000002d0: a84c 1e3b 0448 2f3d bf3b ae3c 2297 b23b
000002e0: 437d f0bd 2392 d73d 4d81 433d 06e7 9dbb
000002f0: d426 64bb 5c5f 083e 5735 aa3d 8a25 acbd
00000300: 19a7 be3c 6c1a 26bc b47e 9cbd a666 f93c
00000310: fec7 4fbd 4cd2 22bc 4bad ccbc 7f23 3fbd
00000320: 4f8e 9e3d 9875 93bd 0df7 f43d 4915 6cbc
00000330: d65a ec3c e058 19bd 6515 f1bc c4f9 d7bd
00000340: 7c3c 9abd 84d2 b73d 9e94 8ebd a005 333d
00000350: ad9f b6bd f710 a63b bb33 483c 2ad8 a5bc
00000360: 7f60 3dbd afc7 f33c 7bb9 b73d ad39 b0bd
00000370: b524 46bd 5075 073d a846 bb3c 8fe8 e23d
00000380: 3aae 973d 0379 5ebc f0c2 e43c 6f95 b43d
00000390: 190c a2bd bfe6 afbc d423 71bd 1e5c b43d
000003a0: 8667 2dbb cd96 1b3c 0010 d43c a671 193d
000003b0: 79c0 7abc bf9a b0bb f0a6 c53d a2c2 ab3d
000003c0: 75ed a23c f392 05be e776 02be fa11 ffbc
000003d0: 4890 9abd 99b6 85bd 8488 b23c 0cec 43bd
000003e0: 0f9a b3bd a8e5 933d 2572 90bd fe7a 68bc
000003f0: e189 f73d c633 b83d 541c bdbd 7e4a 41bd
-0.04683337 0.06302908 0.022958495 -0.053869963 0.023810854 -0.07532696 -0.014296678 0.105681084
0.08580882 0.016650949 -0.1660081 0.05689552 -0.017409053 0.041288577 0.01050657 -0.051743187
0.074820876 0.1421961 0.03333662 0.081783764 0.07885576 -0.1345716 0.01660535 -0.04265161
-0.05743274 -0.02848076 -0.050915305 0.066612564 0.08664459 -0.035124533 -0.10892826 0.102729924
0.11993382 -0.05013446 0.01753441 0.15561727 -0.113993645 0.062286146 0.093785785 0.053328477
0.11746084 0.08307703 -0.11632793 -0.034752976 0.1413705 0.0076186783 0.120542414 -0.08427398
-0.105569705 0.05505049 -0.06815768 -0.13880187 0.11577471 -0.05907988 -0.021519924 0.07597299
-0.074301 -0.06736938 0.0049608415 0.05400818 0.010054808 -0.061089072 -0.13807489 0.038329568
-0.09065067 0.04152895 0.078961395 -0.033933483 0.1158117 -0.031074282 0.062064756 -0.038539756
0.006209886 0.028404173 -0.08469609 -0.096182294 -0.028155064 -0.060027238 0.08769188 0.1060034
-0.05313339 -0.05493451 -0.15448935 0.08254619 0.049444895 0.1170045 0.031681765 0.10536728
0.09546113 0.0075855707 -0.01706849 0.09461594 0.092352085 0.084857464 -0.03496517 -0.07295751
-0.014318805 0.11713292 -0.057810064 0.053444017 0.013111792 -0.0890104 -0.00935075 0.12352672
-0.10462838 -0.023083067 0.053568717 -0.0712426 0.071406744 -0.06372724 0.052106496 0.0071207513
0.12022743 -0.05300926 -0.07684066 0.057190422 -0.07970791 0.13218893 0.10060767 0.13066472
0.06650748 -0.11142871 0.014637946 0.024958301 -0.043464262 -0.0446623 -0.059499584 -0.025798764
0.050578475 -0.112550974 0.062486887 -0.047774237 0.024425212 0.09906218 -0.05046242 -0.043574244
-0.09164716 -0.05734665 0.0133037185 0.03699417 0.10061255 -0.056133304 -0.09870872 0.0976059
0.040057506 0.12671325 0.07149917 -0.022328956 -0.057520486 -0.0056390776 -0.12537622 0.016175242
0.12127142 -0.10097271 -0.027161475 0.171469 -0.11818121 0.06146784 -0.04662501 -0.17345953
0.013656279 -0.0149932485 0.009804751 -0.09862571 -0.05780481 0.13540511 -0.059086263 0.108231455
0.02371587 -0.009606219 -0.007423935 -0.006593214 0.024798745 0.014746172 0.039266057 -0.10383941
0.026525853 0.1458199 -0.12890117 0.065139934 0.0024154577 0.04279329 0.021268724 0.0054501453
-0.11742642 0.1052592 0.047730733 -0.0048188 -0.0034813182 0.13317627 0.08310955 -0.084055975
0.023273038 -0.010138135 -0.07641354 0.030444454 -0.050727837 -0.009937834 -0.024984976 -0.04666471
0.07741987 -0.072001636 0.11961184 -0.014409372 0.028851908 -0.037438273 -0.029429147 -0.10545686
-0.07531068 0.089756995 -0.0696194 0.043706536 -0.089171745 0.0050679403 0.012219365 -0.020244677
-0.046234604 0.029758302 0.089709245 -0.08604751 -0.04837485 0.033070862 0.02286084 0.11079513
0.07406278 -0.013578656 0.027924985 0.08817565 -0.07912464 -0.021472333 -0.05887206 0.088066325
-0.002645941 0.009496403 0.025886536 0.0374619 -0.015304678 -0.005389541 0.096509814 0.08386733
0.019888619 -0.13044338 -0.1274067 -0.031136502 -0.07547051 -0.06528968 0.021793611 -0.047832534
-0.08769619 0.07221538 -0.07053021 -0.01418948 0.12086845 0.0899425 -0.09233919 -0.047190182
