models/GTransCYPs_2D6.pth (torch, 434651 bytes, 38 tensors)

conv_layers.0.lin_key.weight f4 [64, 64]
0.09039924 -0.036613386 -0.06269436 0.10297404 -0.093978904 0.09344639 0.08717364 0.111844584
0.11622726 0.12285449 -0.039785895 0.05689283 -0.020472534 0.01605527 0.10812623 0.07190023
-0.016602483 0.035847135 0.08174276 -0.0354236 0.09097095 -0.0544487 0.0102485735 0.11229916
-0.052173167 -0.029772956 -0.0024804405 -0.11583264 0.08861035 -0.034052595 0.106979124 0.100667216
-0.03842609 0.041648727 -0.028116511 0.045140598 -0.10703092 -0.028939834 0.11293509 -0.1274738
-0.022548229 -0.09938251 -0.115649514 0.11452099 0.055581767 0.00454941 0.09918292 0.09205935
0.12204534 0.120863564 -0.047958873 -0.027466932 -0.12494865 -0.11728899 -0.06411022 0.08170484
-0.09217238 -0.11546815 0.049446255 0.049632825 -0.014788684 0.04070193 0.0987575 -0.06776726
0.091284834 -0.07587634 -0.10126251 0.055405833 0.07140335 -0.104594 -0.104340196 0.04639958
-0.118380025 0.06938497 -8.0888385e-05 0.08033639 -0.097191885 -0.00063799985 -0.038691238 -0.10216663
0.06922662 0.013763082 0.08621491 -0.08840639 0.07604917 -0.09782191 0.056963433 -0.08309643
0.09960385 0.1101084 0.12236587 -0.046299603 0.054987367 -0.114090264 -0.08993617 -0.07009471
0.115875185 -0.031750843 -0.109197386 -0.051653277 -0.008267088 -0.07250896 0.10111539 -0.013745376
-0.045324754 -0.05762706 -0.054698426 -0.008297785 0.048190493 -0.0026682876 -0.03792445 0.08448495
-0.034135044 0.02713013 -0.095648564 0.042785056 -0.09922267 0.08376835 0.0056234477 -0.08448031
0.09847261 -0.08617539 -0.06372589 0.06624328 -0.026521489 0.05934847 0.013107438 0.03995605
-0.103479154 -0.13580164 -0.09464615 0.09173175 0.055003174 -0.11535358 0.07423942 -0.06356198
-0.050386686 -0.10528922 -0.010412902 0.024123099 -0.023481542 -0.05127794 -0.007867151 -0.075838454
-0.003859017 -0.037207182 0.052447103 -0.13286917 0.05338653 -0.036311556 0.005957521 0.12009439
-0.110425435 0.080977194 -0.038408045 -0.05721019 0.09312541 0.077977344 0.085944355 -0.047269497
-0.06046321 -0.11506471 -0.11474 -0.10085381 -0.08299422 -0.13663258 -0.0008756179 0.0499536
0.12034026 0.027132222 0.0032210848 0.073460154 0.055723142 -0.033261903 0.049955264 0.023282913
0.036538884 -0.035879634 0.045386966 -0.08946721 -0.05441866 0.05963762 -0.008189872 0.09829477
0.01790229 -0.055157695 -0.058944676 0.054154683 0.070649244 -0.0100690285 0.0041604475 -0.08561302
-0.07200933 0.039594717 0.090773836 -0.098474056 0.036176946 -0.12014564 -0.03207652 -0.022392882
0.110147044 0.09588869 0.08298162 -0.006109542 0.08136917 0.037156884 -0.07311736 0.08338361
-0.023980057 -0.00018248375 -0.083349004 0.026438294 -0.0060190354 0.057395227 0.12330609 -0.1034608
0.061060816 -0.058349088 -0.051315997 -0.10384377 0.09591587 0.05403114 -0.00033716328 -0.013213289
0.059537057 -0.108869925 0.012546483 -0.10225024 -0.10385699 -0.10433101 0.11141695 -0.085929
0.041036002 0.0011494542 -0.028273601 0.013535916 0.010555518 -0.015542251 -0.0023363342 -0.0023272538
-0.06092012 0.0046817055 0.03335223 0.041400567 -0.03659606 -0.06859988 -0.093035236 -0.019900657
0.06399025 -0.002662154 -0.008850426 0.013848489 -0.10814353 0.06980146 -0.076046415 -0.099053055
00000000: 3d23 b93d ebf7 15bd e765 80bd 0ee4 d23d
00000010: 0378 c0bd d260 bf3d 1888 b23d c60e e53d
00000020: 8f08 ee3d 239b fb3d 89f6 22bd 7508 693d
00000030: 04b6 a7bc 5786 833c 4971 dd3d 6e40 933d
00000040: ee01 88bc 72d4 123d c068 a73d 5618 11bd
00000050: fa4e ba3d 9a05 5fbd a2e9 273c 1afd e53d
00000060: 88b3 55bd 6ae6 f3bc e38e 22bb aa39 edbd
00000070: 5879 b53d bc7a 0bbd df17 db3d 9d2a ce3d
00000080: ad64 1dbd db97 2a3d 9954 e6bc 59e5 383d
00000090: 0733 dbbd 3b13 edbc 834a e73d 7e88 02be
000000a0: 10b7 b8bc 0f89 cbbd a7d9 ecbd fb89 ea3d
000000b0: b5a9 633d 3813 953b 6a20 cb3d 9d89 bc3d
000000c0: e8f2 f93d 5187 f73d 8670 44bd 5502 e1bc
000000d0: 14e5 ffbd 3635 f0bd 384c 83bd de54 a73d
000000e0: dfc4 bcbd 917a ecbd 2888 4a3d ca4b 4b3d
000000f0: 3d4c 72bc 11b7 263d 5f41 ca3d 90c9 8abd
00000100: 8bf3 ba3d 0e65 9bbd b862 cfbd 3af1 623d
00000110: eb3b 923d 6135 d6bd 50b0 d5bd 7c0d 3e3d
00000120: 3a71 f2bd b519 8e3d 9fa2 a9b8 6887 a43d
00000130: 8a0c c7bd 723f 27ba b47a 1ebd bd3c d1bd
00000140: b0c6 8d3d 8d7e 613c 7191 b03d 690e b5bd
00000150: abbf 9b3d db56 c8bd 7d52 693d 762e aabd
00000160: 1afd cb3d 8380 e13d f59a fa3d a7a4 3dbd
00000170: 6f3a 613d 28a8 e9bd 7430 b8bd d18d 8fbd
00000180: f84f ed3d 2c0d 02bd e1a2 dfbd 6392 53bd
00000190: ae72 07bc 947f 94bd 9615 cf3d 4934 61bc
000001a0: 73a6 39bd 5a0a 6cbd 750b 60bd 6ff3 07bc
000001b0: 6563 453d 70de 2ebb ab56 1bbd 7206 ad3d
000001c0: 30d1 0bbd 0240 de3c 65e3 c3bd 623f 2f3d
000001d0: 4135 cbbd be8e ab3d e644 b83b 0304 adbd
000001e0: 02ac c93d b97c b0bd b882 82bd 8faa 873d
000001f0: 9843 d9bc 6217 733d 94c0 563c f5a8 233d
00000200: e1ec d3bd 960f 0bbe d7d5 c1bd dbdd bb3d
00000210: 024b 613d 7f3e ecbd d60a 983d c92c 82bd
00000220: 4562 4ebd e0a1 d7bd e09a 2abc ce9d c53c
00000230: 5d5c c0bc d108 52bd 39e5 00bc 3151 9bbd
00000240: 90e7 7cbb 8f66 18bd c6d2 563d db0e 08be
00000250: d6ab 5a3d 6dbb 14bd 4f37 c33b 0cf4 f53d
00000260: bb26 e2bd 5fd7 a53d c151 1dbd 3b55 6abd
00000270: 89b8 be3d 96b2 9f3d 9803 b03d a99d 41bd
00000280: 45a8 77bd 0ca7 ebbd cefc eabd 718c cebd
00000290: e0f8 a9bd 69e9 0bbe b989 65ba 259c 4c3d
000002a0: f474 f63d 6544 de3c d618 533b 4772 963d
000002b0: f33d 643d a23d 08bd e49d 4c3d cfbb be3c
000002c0: cca9 153d 86f6 12bd afe7 393d 963a b7bd
000002d0: 1ae6 5ebd 9446 743d d02e 06bc c54e c93d
000002e0: d3a7 923c 09ed 61bd f96f 71bd 4dd1 5d3d
000002f0: 8db0 903d 91f8 24bc 5d54 883b e155 afbd
00000300: a179 93bd 122e 223d a2e7 b93d c4ac c9bd
00000310: 472e 143d eb0e f6bd ab62 03bd 4771 b7bc
00000320: c694 e13d 4a61 c43d 45f2 a93d 8e32 c8bb
00000330: e1a4 a63d d131 183d 8ebe 95bd 07c5 aa3d
00000340: d371 c4bc 1c59 3fb9 e2b2 aabd 1f95 d83c
00000350: 543b c5bb 4217 6b3d e787 fc3d 42e3 d3bd
00000360: e81a 7a3d 74ff 6ebd b930 52bd 0bac d4bd
00000370: 8a6f c43d c24f 5d3d 4ac5 b0b9 8d7c 58bc
00000380: 21dd 733d 32f7 debd c48f 4d3c 9368 d1bd
00000390: f9b2 d4bd 7fab d5bd 922e e43d 8bfb afbd
000003a0: 5e15 283d 48a9 963a 0a9e e7bc bfc5 5d3c
000003b0: 0df1 2c3c eda4 7ebc 2f1d 19bb d784 18bb
000003c0: 6087 79bd fe68 993b 599c 083d a493 293d
000003d0: c0e5 15bd 187e 8cbd 4289 bebd b406 a3bc
000003e0: 520d 833d 8877 2ebb 6101 11bc c6e4 623c
000003f0: 5b7a ddbd 11f4 8e3d 39be 9bbd 54dc cabd

conv_layers.0.lin_key.bias f4 [64]
-0.096952625 0.1212464 -0.0070367865 0.09439597 0.09740792 0.111431144 0.03707064 -0.06277246
0.052342568 0.062214576 -0.08379125 0.059397884 -0.013220823 0.035731733 -0.08885584 -0.028604513
-0.11932698 0.028966427 0.005486465 0.023936804 -0.00066158676 -0.03837197 -0.011099724 -0.04406598
-0.03331134 -0.06951861 0.007442889 7.624549e-05 0.028397154 0.11714689 0.015057213 -0.07687994
-0.10192644 -0.07165684 -0.10737614 0.08501296 -0.013327244 0.10495465 -0.06837617 0.109440014
0.030901317 -0.09968413 -0.077843495 -0.03699974 -0.03865767 0.045289572 -0.107421055 -0.111460865
-0.03997813 0.014801689 0.028512875 -0.015645903 -0.10148935 -0.11477193 -0.023672905 -0.029197464
0.022344453 0.060001023 -0.05794327 0.08834978 0.050502423 0.04991865 -0.014315578 0.08219179
00000000: 198f c6bd 0850 f83d d894 e6bb ad52 c13d
00000010: ce7d c73d 0336 e43d 62d7 173d d98e 80bd
00000020: 2965 563d b6d4 7e3d bf9a abbd 324b 733d
00000030: 279c 58bc 705b 123d 0dfa b5bd 0354 eabc
00000040: b461 f4bd 004b ed3c cec7 b33b 1e17 c43c
00000050: 566e 2dba ed2b 1dbd 9edb 35bc 877e 34bd
00000060: 7971 08bd c65f 8ebd 7ae3 f33b fce5 9f38
00000070: 26a1 e83c b5ea ef3d 87b2 763c 3b73 9dbd
00000080: cfbe d0bd d2c0 92bd 06e8 dbbd 461b ae3d
00000090: 835a 5abc 77f2 d63d ce08 8cbd 1622 e03d
000000a0: c224 fd3c 3127 ccbd 696c 9fbd 0a8d 17bd
000000b0: 8157 1ebd 8f81 393d 92ff dbbd 9845 e4bd
000000c0: 1cc0 23bd c982 723c d593 e93c d62b 80bc
000000d0: a6d9 cfbd 8c0d ebbd aeed c1bc 852f efbc
000000e0: b70b b73c a2c3 753d ec55 6dbd bbf0 b43d
000000f0: a1db 4e3d 8077 4c3d e38b 6abc 2b54 a83d

conv_layers.0.lin_query.weight f4 [64, 64]
0.0061691455 -0.00725076 -0.05090031 0.0946402 0.06086183 0.09427413 -0.0076546543 0.051100247
0.06992319 -0.08803587 -0.061828747 0.0014417915 0.12086445 0.026885541 -0.00016212047 0.120902665
-0.02492295 -0.11617916 -0.11891475 0.07532188 -0.0053740926 0.013062155 0.067592874 -0.046856716
0.12941138 0.011513153 0.019685412 0.10732191 -0.016045207 0.11174317 0.07208158 -0.062146533
-0.09538213 0.07494778 0.05738699 -0.07152163 0.11325136 -0.04106431 -0.007739813 0.12684338
-0.08247613 0.12820442 0.057804234 -0.03066377 0.09275051 0.0037701845 -0.002052334 0.07065819
0.054020643 0.0030380648 -0.022086121 0.08392374 -0.07662986 0.12874557 -0.013507179 0.071598284
-0.055387124 0.0962512 0.0037709256 -0.045744885 -0.0028008586 -0.0156551 -0.021798547 0.0045606624
0.0886244 -0.044335645 0.08709648 -0.035657253 0.027242225 0.080790624 0.08202556 -0.107451186
0.11182628 0.07260663 -0.04814687 0.009116257 -0.10593521 -0.0027925968 0.03572086 -0.031221915
-0.01633901 -0.12291455 0.061598483 0.06745557 0.10337766 -0.03838938 0.022709081 -0.09467123
0.040229935 0.12894528 0.08115768 0.041416004 0.011017899 0.11535261 0.04947673 -0.097704485
0.05999758 0.09427243 -0.022064108 0.049911678 0.069967665 0.040516436 0.11632849 -0.053995706
-0.08123464 -0.04403029 -0.033191774 0.002714857 0.029834567 0.06232459 0.085441 0.02466404
-0.020450398 -0.0029523044 0.010167842 -0.08628699 -0.056279022 -0.0017322911 0.09972797 -0.017118962
0.11281117 0.05061127 -0.037524212 -0.09018654 0.018367657 -0.034202352 0.07840315 -0.1192944
0.011575 0.067828245 0.090329476 0.0059162695 -0.07906554 0.09803702 -0.03601687 0.08191886
-0.08949785 0.013615896 -0.012292375 -0.044946436 0.12922892 0.009547315 -0.044063393 0.13426514
0.10165517 0.0073235705 0.051406875 -0.11985811 0.07963619 -0.06720399 0.06981245 -0.09908938
-0.025684543 -0.0620048 -0.090191044 0.041430518 -0.113128185 0.008801985 -0.017550765 0.044089753
-0.08395802 0.026266856 0.03269164 -0.101811305 0.08429574 -0.1006472 0.11678104 0.014633529
-0.08966718 0.084737934 0.052573614 -0.1114184 -0.082871936 0.07704467 -0.09839148 -0.086933635
-0.11810046 0.052513435 -0.11113008 -0.019310482 -0.0074289767 -0.04418389 0.04131025 -0.021100152
0.08841768 -0.032505102 0.010353645 0.038520683 0.0051886467 -0.11406093 -0.109795846 -0.02163828
0.053552732 0.00136381 0.09857393 0.0054928875 0.109532595 0.035047676 -0.027094338 -0.07021975
-0.008411195 0.09185835 -0.094563685 -0.016023314 -0.04334936 0.075063564 0.097549364 -0.08567288
0.056162063 -0.00764797 -0.08755481 -0.060160376 -0.0074352454 0.033012617 0.032196175 -0.112072505
-0.006727517 -0.08444878 0.070372276 0.05178761 -0.08421825 -0.07316968 -0.034635272 -0.06709986
0.106089376 -0.05777806 0.08687322 0.05771691 -0.08965272 0.045651685 0.029536165 -0.0010687006
0.013404438 -0.061887026 0.1120102 0.061554875 0.049254864 -0.036102217 -0.0999738 -0.05169568
0.0076695937 0.008554888 0.06472511 -0.035592444 -0.116428874 0.08697357 -0.0795976 -0.06625598
-0.025539394 -0.02054852 -0.08781516 -0.011260515 0.0631066 0.07729213 -0.05229239 0.08366171
00000000: 8b26 ca3b c997 edbb d87c 50bd b9d2 c13d
00000010: 414a 793d cc12 c13d e5d3 fabb 7e4e 513d
00000020: e433 8f3d 264c b4bd 2440 7dbd 7ffa bc3a
00000030: c887 f73d 113f dc3c e2fe 29b9 d19b f73d
00000040: 372b ccbc 57ef edbd 9489 f3bd 5c42 9a3d
00000050: 2819 b0bb a602 563c 226e 8a3d d4ec 3fbd
00000060: 6b84 043e aaa1 3c3c 4d43 a13c 97cb db3d
00000070: 3d71 83bc 9ad9 e43d 829f 933d 5d8d 7ebd
00000080: b557 c3bd 397e 993d 9f0e 6b3d ef79 92bd
00000090: 54f0 e73d 0d33 28bd 429e fdbb 3be3 013e
000000a0: 3fe9 a8bd 0548 033e 22c4 6c3d 9632 fbbc
000000b0: fbf3 bd3d 3315 773b 7380 06bb 3eb5 903d
000000c0: c044 5d3d 451a 473b f4ed b4bc 36e0 ab3d
000000d0: 1ef0 9cbd e1d5 033e 374d 5dbc 1fa2 923d
000000e0: 9cdd 62bd 591f c53d a221 773b fd5e 3bbd
000000f0: 9c8e 37bb 203f 80bc de92 b2bc 9c71 953b
00000100: b680 b53d 4b99 35bd a45f b23d 570d 12bd
00000110: 162b df3c 8e75 a53d 04fd a73d 5e0f dcbd
00000120: 2d05 e53d c9b2 943d a735 45bd 5a5c 153c
00000130: 8ff4 d8bd 0004 37bb 0950 123d 1ac5 ffbc
00000140: 63d9 85bc a0ba fbbd b14e 7c3d 2526 8a3d
00000150: abb7 d33d 2f3e 1dbd 6508 ba3c fde2 c1bd
00000160: 25c8 243d 3b0a 043e ff35 a63d d4a3 293d
00000170: 6b84 343c fd3d ec3d 1da8 4a3d 4a19 c8bd
00000180: 06c0 753d e711 c13d cabf b4bc 3070 4c3d
00000190: 354b 8f3d 90f4 253d a23d ee3d 9a2a 5dbd
000001a0: 595e a6bd 1b59 34bd 19f4 07bd beeb 313b
000001b0: 9f67 f43c 1248 7f3d b1fb ae3d 3e0c ca3c
000001c0: 9887 a7bc 737b 41bb 0597 263c 3cb7 b0bd
000001d0: d584 66bd 0b0e e3ba 2e3e cc3d 113d 8cbc
000001e0: 8b09 e73d c34d 4f3d fdb2 19bd b8b3 b8bd
000001f0: c577 963c c417 0cbd d591 a03d 9f50 f4bd
00000200: 12a5 3d3c 89e9 8a3d a9fe b83d 44dd c13b
00000210: 1ded a1bd a2c7 c83d 6d86 13bd 13c5 a73d
00000220: a64a b7bd 3515 5f3c f565 49bc c119 38bd
00000230: 9654 043e 576c 1c3c d17b 34bd cd7c 093e
00000240: 9630 d03d 90fa ef3b 0490 523d 2b78 f5bd
00000250: 4c18 a33d 3fa2 89bd d4f9 8e3d 5fef cabd
00000260: 6468 d2bc bff8 7dbd 15b6 b8bd 0cb3 293d
00000270: c0af e7bd 3336 103c 9fc6 8fbc 7597 343d
00000280: 2ff2 abbd 972d d73c abe7 053d 7282 d0bd
00000290: 3fa3 ac3d 1f20 cebd e62a ef3d 78c1 6f3c
000002a0: 6da3 b7bd 158b ad3d 6e57 573d 552f e4bd
000002b0: c3b8 a9bd 99c9 9d3d 7981 c9bd 430a b2bd
000002c0: a7de f1bd 5418 573d 2b98 e3bd 0431 9ebc
000002d0: c66e f3bb 2bfa 34bd f034 293d 3ada acbc
000002e0: 5414 b53d 1224 05bd 56a2 293c ddc7 1d3d
000002f0: 8605 aa3b c798 e9bd a5dc e0bd c342 b1bc
00000300: 1c5a 5b3d dfc1 b23a 21e1 c93d aefd b33b
00000310: a052 e03d 278e 0f3d f2f4 ddbc 5fcf 8fbd
00000320: 1ccf 09bc 3b20 bc3d 9baa c1bd 5343 83bc
00000330: 198f 31bd edba 993d f6c7 c73d 4375 afbd
00000340: 310a 663d d39b fabb f04f b3bd ba6a 76bd
00000350: 5ca3 f3bb 3d38 073d 23e0 033d 4586 e5bd
00000360: 8172 dcbb 7bf3 acbd 571f 903d 3f1f 543d
00000370: 9e7a acbd fcd9 95bd b7dd 0dbd a76b 89bd
00000380: 6345 d93d b0a8 6cbd 96ea b13d 9168 6c3d
00000390: d89b b7bd 43fd 3a3d d4f5 f13c a413 8cba
000003a0: 4a9e 5b3c 407d 7dbd 9b65 e53d f720 7c3d
000003b0: 78bf 493d ebdf 13bd 10bf ccbd d9be 53bd
000003c0: 3751 fb3b cd29 0c3c 998e 843d 62c9 11bd
000003d0: 4372 eebd 331f b23d 1104 a3bd 37b1 87bd
000003e0: fe37 d1bc 5f55 a8bc 6fd8 b3bd 067e 38bc
000003f0: 083e 813d 564b 9e3d 8c30 56bd d556 ab3d

conv_layers.0.lin_query.bias f4 [64]
-0.12086373 0.055788 -0.13568589 0.06514839 -0.04887572 -0.09427891 0.03764736 -0.0045939437
0.11494581 -0.09036217 -0.057117406 0.042974055 0.065941155 0.069011614 0.013149265 -0.12034992
0.09336868 0.03594186 -0.03301727 0.011695954 0.08967927 -0.06808931 -0.01020261 0.0703142
-0.015245587 0.07252243 0.015855193 -0.037835643 -0.13475102 0.03288484 -0.09014542 0.028815432
-0.03164442 -0.11914327 -0.0039012516 -0.017079925 -0.019340187 0.0203662 -0.0074760187 0.036775626
-0.11880476 -0.08419125 -0.05592787 0.008444885 0.10060863 -0.033785462 0.017226337 -0.06375214
0.123782255 0.091863275 0.08332505 -0.0069032926 -0.026323661 -0.0861427 0.015552689 -0.031050833
0.11910921 -0.05094729 -0.04270743 -0.04686701 -0.08003255 0.068813786 -0.11294855 -0.1036924
00000000: 6787 f7bd f581 643d 3ef1 0abe 856c 853d
00000010: e831 48bd 4d15 c1bd 1e34 1a3d cb88 96bb
00000020: b568 eb3d cd0f b9bd f1f3 69bd 9005 303d
00000030: 280c 873d f655 8d3d 0470 573c 057a f6bd
00000040: 1438 bf3d c637 133d 1e3d 07bd 63a0 3f3c
00000050: c4a9 b73d 6872 8bbd d928 27bc e400 903d
00000060: a0c8 79bc a486 943d c0e2 813c 8cf9 1abd
00000070: 2cfc 09be 41b2 063d 299e b8bd 570e ec3c
00000080: 949d 01bd 6301 f4bd 24ac 7fbb 33eb 8bbc
00000090: 506f 9ebc 04d7 a63c 64f9 f4bb 0aa2 163d
000000a0: e94f f3bd 766c acbd 9f14 65bd 6a5c 0a3c
000000b0: e60b ce3d a062 0abd 3f1e 8d3c 7b90 82bd
000000c0: 8d81 fd3d d022 bc3d 53a6 aa3d 0435 e2bb
000000d0: b8a4 d7bc 956b b0bd b5d0 7e3c 515e febc
000000e0: 88ef f33d 1bae 50bd fced 2ebd 9ff7 3fbd
000000f0: 1be8 a3bd 3eee 8c3d 9251 e7bd ae5c d4bd

conv_layers.0.lin_value.weight f4 [64, 64]
0.035286285 0.030325327 -0.02083366 0.063313745 -0.026962603 0.057911556 -0.051995568 -0.08801175
0.030611875 0.030494688 0.039608512 -0.051381703 -0.03886666 0.053289704 0.101383306 0.11018621
0.11981154 -0.106781565 -0.10969889 0.14049381 0.0232584 0.09756187 0.09581207 -0.07241516
-0.105049126 -0.0754264 -0.052219834 0.09191806 -0.08483552 -0.052540764 0.072629295 -0.05648872
0.0074974955 0.059250746 -0.057327997 -0.016312419 -0.074161075 -0.0075929263 0.07041381 -0.10002826
0.07004511 0.07372118 0.065934144 0.0651065 0.0232106 0.09785011 0.04198768 -0.10617584
-0.065309145 -0.059808917 -0.094523445 0.046479147 0.06428289 -0.026596801 0.13204902 -0.017845673
0.12992424 0.047661465 -0.0585064 -0.0011782718 -0.047523268 -0.07423941 -0.093391135 0.09929449
0.07128072 -0.119839005 0.009203771 -0.03643963 -0.07183192 -0.08914113 0.030634742 -0.11630013
0.109391965 -0.098368 -0.053953744 0.038725644 0.012854768 0.01737471 0.05059151 -0.013139779
0.12100027 -0.11399558 0.05788096 -0.00015301134 0.0042648534 0.11403805 -0.050368134 0.015135354
-0.043646842 0.116506845 -0.032754682 0.08420403 -0.06386354 0.094319746 0.10876284 0.108035184
-0.09357549 0.09221723 -0.117020436 -0.02935438 -0.08823328 -0.0039698905 -0.030680787 0.0032367865
0.07186451 0.057695962 -0.02497953 -0.01591385 0.071260735 0.06616027 -0.069663264 0.077403866
0.06429034 -0.01871392 -0.086572215 0.00776159 0.024146521 -0.07432861 -0.11283042 -0.11924781
-0.018063413 0.062670924 0.1294134 -0.10229544 0.039729394 0.033918034 0.08741073 -0.12414638
0.09671263 -0.027177913 -0.06404982 -0.079613805 0.08057929 0.12096079 -0.060048886 0.11850106
0.024952339 0.036064673 0.06480309 0.092026114 0.09175688 0.04861713 0.028173741 0.054127578
-0.06100063 0.05847295 0.060263887 0.08677968 -0.10598305 -0.116763145 0.040826593 -0.06448374
-0.09033357 0.03630307 -0.04252578 0.11248535 -0.051686894 0.016874244 -0.07113857 -0.071111105
-0.10468479 0.08692182 -0.04604202 -0.0058509912 0.042085253 0.009300645 0.11078313 -0.04682737
0.074509464 -0.087660514 -0.06318752 -0.04928579 -0.063963294 0.10564196 0.03324382 0.105897486
0.11265608 -0.0012224746 -0.048954077 0.11758117 0.1030677 0.09326843 0.0064722025 0.057690427
-0.08547456 -0.11654077 0.07197299 0.032145936 0.009498788 0.03169373 -0.025647584 0.01945949
-0.053881206 -0.05473221 -0.01923646 -0.043392498 -0.04623849 0.028621616 -0.014101339 -0.07506841
0.120777875 -0.027252397 -0.031047087 -0.07824921 0.11715211 0.04265348 0.07887003 -0.038445238
0.015308698 0.02945086 -0.060953043 -0.0669608 0.10990579 -0.05293026 0.08020648 0.095142245
0.06642419 0.08164561 -0.021472473 -0.06674975 0.0485569 -0.046899643 -0.124887705 0.06711635
-0.046978693 -0.003122 -0.04142711 0.056656964 -0.13350922 0.09290149 -0.023503415 0.00053505297
0.06463989 0.060693003 -0.028877243 -0.021066695 0.057991147 0.10773748 -0.1074211 -0.105689034
-0.050385963 -0.1115144 0.14302728 0.06814818 0.07121729 -0.08243441 -0.10129347 -0.08300641
0.07776167 -0.097894356 -0.08025661 0.04984456 -0.06927718 0.044623464 -0.08981323 0.08089595
00000000: 5a88 103d d26c f83c 5aab aabc a3aa 813d
00000010: ade0 dcbc ab34 6d3d 4ef9 54bd 813f b4bd
00000020: c1c5 fa3c ffcf f93c 893c 223d 9f75 52bd
00000030: a632 1fbd 4e46 5a3d 0da2 cf3d 4fa9 e13d
00000040: c15f f53d 4bb0 dabd d0a9 e0bd 9cdd 0f3e
00000050: 6688 be3c 85ce c73d 1e39 c43d 664e 94bd
00000060: ff23 d7bd 2879 9abd 77e4 55bd 893f bc3d
00000070: 3fbe adbd fc34 57bd abbe 943d b760 67bd
00000080: 8dad f53b e9b0 723d c3d0 6abd 9fa1 85bc
00000090: c3e1 97bd 15ce f8bb 1e35 903d 9edb ccbd
000000a0: d073 8f3d 21fb 963d 7b08 873d 8f56 853d
000000b0: 2824 be3c a365 c83d 46fb 2b3d b872 d9bd
000000c0: cdc0 85bd 32fa 74bd 8295 c1bd eb60 3e3d
000000d0: bfa6 833d 89e1 d9bc dc37 073e 1731 92bc
000000e0: dc0a 053e ab38 433d 68a4 6fbd 3e70 9aba
000000f0: c2a7 42bd d50a 98bd da43 bfbd e95a cb3d
00000100: a0fb 913d 276e f5bd 6acb 163c b941 15bd
00000110: 9d1c 93bd a08f b6bd b6f5 fa3c c32e eebd
00000120: e508 e03d 2975 c9bd 9afe 5cbd c89e 1e3d
00000130: ce9c 523c 6855 8e3c 0b39 4f3d 3a48 57bc
00000140: fdce f73d 8476 e9bd 9614 6d3d ab71 20b9
00000150: 2fc0 8b3b c88c e93d d14e 4ebd 47fa 773c
00000160: 08c7 32bd 249b ee3d c629 06bd 2a73 ac3d
00000170: e3ca 82bd b62a c13d 0dbf de3d 8d41 dd3d
00000180: 82a4 bfbd 63dc bc3d 69a8 efbd 9978 f0bc
00000190: a6b3 b4bd db15 82bb 4656 fbbc 4420 543b
000001a0: b32d 933d 9a52 6c3d dfa1 ccbc c35d 82bc
000001b0: 26f1 913d 097f 873d 9dab 8ebd eb85 9e3d
000001c0: a7aa 833d ef4d 99bc c64c b1bd f054 fe3b
000001d0: edce c53c 9939 98bd a313 e7bd 3238 f4bd
000001e0: b9f9 93bc 9d59 803d f284 043e 4680 d1bd
000001f0: 4abb 223d a3ed 0a3d 6604 b33d 7540 febd
00000200: 4511 c63d 37a4 debc 8d2c 83bd 900c a3bd
00000210: c106 a53d 4aba f73d d2f5 75bd afb0 f23d
00000220: d968 cc3c 8db8 133d 7cb7 843d 3078 bc3d
00000230: 08eb bb3d c122 473d 9ecc e63c e1b4 5d3d
00000240: ccdb 79bd 5581 6f3d 44d7 763d 8bb9 b13d
00000250: a40d d9bd 8421 efbd c939 273d 0d10 84bd
00000260: cf00 b9bd 87b2 143d 832f 2ebd b85e e63d
00000270: a3b5 53bd db3b 8a3c 19b1 91bd b3a2 91bd
00000280: fb64 d6bd 1104 b23d 8f96 3cbd acb9 bfbb
00000290: 9661 2c3d bc61 183c 44e2 e23d 0ece 3fbd
000002a0: 6b98 983d 5b87 b3bd 7568 81bd e6df 49bd
000002b0: 30ff 82bd d05a d83d ac2a 083d c8e0 d83d
000002c0: 3bb8 e63d 713b a0ba 1284 48bd 65ce f03d
000002d0: 2915 d33d 8503 bf3d c514 d43b cc4c 6c3d
000002e0: 490d afbd edac eebd 9366 933d 75ab 033d
000002f0: cea0 1b3c 49d1 013d e21a d2bc 8269 9f3c
00000300: 8ab2 5cbd e22e 60bd c895 9dbc 55bc 31bd
00000310: 9264 3dbd e177 ea3c 4d09 67bc 77bd 99bd
00000320: 645a f73d 6b40 dfbc 7656 febc 1f41 a0bd
00000330: 72ed ef3d 6ab5 2e3d 9c86 a13d c178 1dbd
00000340: 55d1 7a3c ee42 f13c e6a9 79bd be22 89bd
00000350: 4916 e13d 66cd 58bd 4c43 a43d f0d9 c23d
00000360: 6809 883d d035 a73d 0ae7 afbc 18b4 88bd
00000370: 9ae3 463d d719 40bd 20c5 ffbd 4c74 893d
00000380: bb6c 40bd 789a 4cbb 79af 29bd 2211 683d
00000390: a4b6 08be 2343 be3d 3c8a c0bc cc42 0c3a
000003a0: eb61 843d 3a99 783d f88f ecbc 1094 acbc
000003b0: 2088 6d3d 78a5 dc3d 98ff dbbd 7e73 d8bd
000003c0: 8361 4ebd a961 e4bd be75 123e 4691 8b3d
000003d0: 5fda 913d 5fd3 a8bd f372 cfbd 44ff a9bd
000003e0: 8341 9f3d d67c c8bd 945d a4bd cf29 4c3d
000003f0: 32e1 8dbd 18c7 363d 00f0 b7bd c7ac a53d

conv_layers.0.lin_value.bias f4 [64]
0.05720437 -0.0459529 0.07805271 -0.032895993 -0.018401064 -0.11480864 -0.11997153 0.0017898845
-0.15277982 -0.07844656 -0.0013811069 -0.1128435 -0.09909307 -0.007104075 0.026932811 -0.016680796
-0.00039075463 0.124616094 -0.109803885 -0.012799786 0.08645033 -0.10187717 0.046809368 -0.1441364
-0.06340169 -0.07501732 0.07642053 -0.040000632 -0.06519778 0.157514 0.025986157 -0.076535605
0.028442016 -0.06547619 0.030905154 0.07337939 -0.00010980379 0.013635871 0.03853184 0.014792177
0.04880464 0.0060859 0.14597695 0.080278076 -0.050214805 0.006698829 -0.009330798 0.12330829
-0.03138111 0.027029524 -0.060822763 0.110953726 0.03228684 -0.06235374 0.110860154 -0.0065797153
-0.0545934 -0.059714075 -0.050546203 -0.0066940174 -0.11885972 -0.032682117 -0.05791856 -0.017825505
00000000: 214f 6a3d 1c39 3cbd 19da 9f3d f3bd 06bd
00000010: d4bd 96bc cb20 ebbd a2b3 f5bd 8f9a ea3a
00000020: 5072 1cbe 97a8 a0bd 4206 b5ba 7e1a e7bd
00000030: 4ff1 cabd 4dc9 e8bb 33a2 dc3c 2aa6 88bc
00000040: 33de ccb9 b936 ff3d dce0 e0bd 32b6 51bc
00000050: df0c b13d faa4 d0bd 2ebb 3f3d 7e98 13be
00000060: bfd8 81bd aea2 99bd 5e82 9c3d b4d7 23bd
00000070: 6a86 85bd 5a4b 213e ece0 d43c b3be 9cbd
00000080: 3bff e83c 6118 86bd ce2c fd3c ef47 963d
00000090: 7646 e6b8 fd68 5f3c 90d3 1d3d e35a 723c
000000a0: 60e7 473d 3b6c c73b fb7a 153e d568 a43d
000000b0: 0aae 4dbd da81 db3b 34e0 18bc 0f89 fc3d
000000c0: 7b89 00bd 056d dd3c 4a21 79bd b53b e33d
000000d0: 353f 043d a366 7fbd a60a e33d a79a d7bb
000000e0: 549d 5fbd bf96 74bd 8909 4fbd 7d59 dbbb
000000f0: ba6c f3bd afdd 05bd 033c 6dbd cb06 92bc

conv_layers.0.lin_edge.weight f4 [64, 42]
-0.13028254 0.11975255 -0.10849063 0.055826172 0.12844762 -0.052859947 -0.021976322 -0.0070517585
0.1349695 -0.01836909 -0.06867243 -0.025050722 -0.01964004 -0.1354372 -0.081940584 -0.061250824
0.051803626 0.098013096 0.024775526 0.0502243 0.113453336 -0.04056751 0.16250809 -0.042858247
0.02004938 -0.10343569 0.026178453 0.12395489 -0.11759773 -0.11168836 -0.08364273 -0.12691723
-0.026643228 -0.1388691 -0.1452245 -0.057269294 -0.023491783 -0.040452432 0.024620533 0.028334353
0.08248568 -0.08950863 -0.043378074 -0.141066 -0.12821229 -0.025331927 -0.057318844 0.057562217
-0.091514185 0.07767891 -0.053673003 0.04115168 -0.050454717 -0.070909746 -0.115287945 0.14600569
-0.045486324 -0.09395369 -0.065132044 -0.099687174 -0.10384226 -0.020946313 -0.12230279 0.047279436
-0.047865845 -0.055213492 0.14176321 0.07818261 -0.015319961 -0.033468347 0.005491294 0.08462615
0.10855394 -0.13082509 0.0925728 -0.07643455 0.0570433 0.08810234 0.082617804 -0.13739717
-0.044193204 -0.023016712 0.008072904 0.07798976 0.078746974 -0.11366381 0.1103033 -0.020022811
0.037488844 0.051255737 -0.049375217 0.08310222 -0.01497522 0.11674965 -0.06692083 -0.049498655
-0.14775129 0.092060596 -0.093475044 -0.01761199 -0.07880073 -0.032432385 -0.0071949605 0.010726876
0.11777942 -0.076517634 0.077639915 -0.03208926 0.05311296 0.0843347 0.06298139 0.13503678
-0.11559404 0.035743363 0.0646071 -0.008935554 -0.08885246 0.03486855 -0.14613014 -0.14153755
0.039380006 -0.05635169 -0.088967256 0.08439577 0.014730964 -0.07643238 -0.06450536 -0.119144194
0.027311105 0.1436169 -0.045925446 -0.098360814 -0.09866852 -0.0499026 0.011675659 0.0023562831
0.06990937 -0.014441112 -0.051328532 0.123242855 0.1197719 0.081935264 0.075976886 -0.093302906
0.023947537 0.08652165 0.12954754 0.089341156 0.09299328 -0.02696723 0.089224756 -0.0566834
-0.13612624 -0.05254212 0.022080058 0.1466503 0.0483173 -0.029644493 -0.10247742 0.08502911
0.046659905 0.0576985 -0.013385555 0.07014722 -0.012738826 -0.114254124 0.13175537 -0.15006201
-0.06323008 0.0070783263 -0.07148002 -0.07138526 0.05317398 -0.123256095 -0.109965555 0.12053546
-0.046183538 -0.03559578 -0.10303174 -0.13540128 -0.034536205 -0.13738732 -0.05832235 -0.12121535
0.093312874 0.10272302 -0.0036000982 0.04614952 0.06999744 0.084837355 -0.020984361 -0.015607629
0.07327341 -0.101777226 -0.056138795 -0.02250734 0.0959993 -0.07283878 -0.13030076 0.11674277
-0.088423 -0.01574709 0.10115911 -0.14624095 0.13340688 0.08526823 0.121542305 -0.002743282
-0.13055627 -0.10344463 -0.13495643 0.0559625 0.050931662 0.14376925 -0.07415864 0.05420933
0.07986911 0.06472405 0.031631265 -0.13078877 -0.10025137 0.065072455 0.12421132 0.08973696
-0.031026123 0.086938925 0.026245762 0.028633151 -0.09461619 -0.112509064 0.14787109 -0.048859373
-0.022150831 0.06269725 0.13525914 -0.016577283 0.13037868 -0.0131447185 -0.086860836 0.023912255
0.07164607 0.021791577 -0.13430358 -0.12455442 -0.07516609 0.07024713 -0.035315268 -0.08703688
-0.036775626 0.09281825 0.10807154 0.11848699 -0.023746885 -0.1440428 -0.0875693 -0.074431
00000000: c968 05be d340 f53d 5630 debd fca9 643d
00000010: c687 033e ac83 58bd b007 b4bc 7012 e7bb
00000020: 7235 0a3e c67a 96bc 22a4 8cbd 2c37 cdbc
00000030: 26e4 a0bc 0db0 0abe 77d0 a7bd 25e2 7abd
00000040: 0a30 543d 17bb c83d 0bf6 ca3c ffb7 4d3d
00000050: 395a e83d 1e2a 26bd 8568 263e 218c 2fbd
00000060: 993e a43c 17d6 d3bd 3274 d63c 10dc fd3d
00000070: 14d7 f0bd debc e4bd e14c abbd 97f6 01be
00000080: e642 dabc b433 0ebe bbb5 14be 3593 6abd
00000090: d771 c0bc 73b1 25bd 00b1 c93c 721d e83c
000000a0: 41ee a83d 4d50 b7bd 35ad 31bd 9b73 10be
000000b0: 154a 03be e784 cfbc 2ac7 6abd 5cc6 6b3d
000000c0: ca6b bbbd 1f16 9f3d 39d8 5bbd aa8e 283d
000000d0: 9ba9 4ebd 2139 91bd 161c ecbd 8482 153e
000000e0: de4f 3abd cb6a c0bd f363 85bd ca28 ccbd
000000f0: 40ab d4bd 9a97 abbc e379 fabd 15a8 413d
00000100: fa0e 44bd 8b27 62bd 602a 113e 341e a03d
00000110: 9300 7bbc 1b16 09bd 50f0 b33b 7a50 ad3d
00000120: 8751 de3d 03f7 05be cf96 bd3d b889 9cbd
00000130: 3ca6 693d 006f b43d 8633 a93d d8b1 0cbe
00000140: ef03 35bd 8b8d bcbc 3744 043c 18b9 9f3d
00000150: 1846 a13d 92c8 e8bd b2e6 e13d e106 a4bc
00000160: e78d 193d 89f1 513d ab3d 4abd 7f31 aa3d
00000170: a05a 75bc 711a ef3d ca0d 89bd 1abf 4abd
00000180: 1d4c 17be 448a bc3d d86f bfbd 0547 90bc
00000190: 4762 a1bd d2d7 04bd b4c3 ebbb c7bf 2f3c
000001a0: 5636 f13d 47b5 9cbd ad01 9f3d 0770 03bd
000001b0: fa8c 593d acb7 ac3d 63fc 803d 1547 0a3e
000001c0: 91bc ecbd a267 123d ba50 843d 6e66 12bc
000001d0: 47f8 b5bd 53d2 0e3d 24a3 15be 38ef 10be
000001e0: ee4c 213d 08d1 66bd 7734 b6bd b1d7 ac3d
000001f0: 245a 713c 9488 9cbd 631b 84bd df01 f4bd
00000200: 8abb df3c 4f10 133e 521c 3cbd 6571 c9bd
00000210: b912 cabd ab66 4cbd 434b 3f3c df6b 1a3b
00000220: a52c 8f3d 6a9a 6cbc de3d 52bd c066 fc3d
00000230: f84a f53d adcd a73d c599 9b3d 9815 bfbd
00000240: a02d c43c 4332 b13d 1ca8 043e 7ff8 b63d
00000250: 4373 be3d 61ea dcbc 78bb b63d da2c 68bd
00000260: ad64 0bbe 6836 57bd 3de1 b43c 7f2b 163e
00000270: 5ce8 453d 02d9 f2bc aedf d1bd be23 ae3d
00000280: 751e 3f3d 4355 6c3d 164f 5bbc 58a9 8f3d
00000290: 82b6 50bc 11fe e9bd e1ea 063e dba9 19be
000002a0: c67e 81bd 4ef1 e73b 1e64 92bd 6f32 92bd
000002b0: f6cc 593d b16d fcbd 9f35 e1bd 4cdb f63d
000002c0: f32a 3dbd e1cc 11bd 4e02 d3bd a2a6 0abe
000002d0: d675 0dbd 43af 0cbe 6be3 6ebd c13f f8bd
000002e0: d21a bf3d 7260 d23d a0ef 6bbb 4707 3d3d
000002f0: d15a 8f3d 35bf ad3d 65e7 abbc 24b7 7fbc
00000300: 5f10 963d 9470 d0bd cbf1 65bd 5061 b8bc
00000310: 489b c43d 802c 95bd 906d 05be d516 ef3d
00000320: 1e17 b5bd 0b00 81bc 822c cf3d 30c0 15be
00000330: d09b 083e 1ca1 ae3d 2ceb f83d a2c8 33bb
00000340: 8bb0 05be c7da d3bd 0532 0abe ef38 653d
00000350: b89d 503d 3f38 133e 7ce0 97bd 9a0a 5e3d
00000360: 6a92 a33d 0b8e 843d c98f 013d 7eed 05be
00000370: 9750 cdbd b544 853d 8162 fe3d 03c8 b73d
00000380: 7f2a febc 090d b23d 5a01 d73c 1290 ea3c
00000390: 22c6 c1bd 276b e6bd 856b 173e c420 48bd
000003a0: a975 b5bc 6a67 803d 5f81 0a3e 15cd 87bc
000003b0: fd81 053e f25c 57bc 18e4 b1bd a2e3 c33c
000003c0: 2dbb 923d 4084 b23c e186 09be 6316 ffbd
000003d0: aef0 99bd badd 8f3d bea6 10bd 6440 b2bd
000003e0: 0aa2 16bd 7f17 be3d 9d54 dd3d 4fa9 f23d
000003f0: d488 c2bc f57f 13be 8857 b3bd 486f 98bd

conv_layers.0.lin_skip.weight f4 [64, 64]
-0.048264053 -0.037735075 0.05889634 0.13451874 -0.07895845 -0.10207241 0.1252678 -0.054805603
0.11077917 -0.10457702 0.00016463122 0.058261644 0.1001153 0.07386177 0.115100995 -0.062272813
-0.03388837 0.10673626 0.060309924 -0.09844563 -0.0010651065 -0.05007206 0.052893173 0.00074306875
0.00035141778 0.033064228 -0.011656586 0.09780611 -0.09690714 -0.11391099 -0.09032602 -0.06889874
-0.04446345 0.087348126 -0.026822567 0.08014153 -0.016968919 -0.060592216 0.11442252 -0.07518439
-0.055252012 0.056255676 -0.08123165 -0.052772183 -0.036301453 0.038024303 0.1318702 -0.061155073
-0.027827483 0.07912494 0.033578463 -0.12809922 -0.090080425 -0.12659149 -0.05551393 -0.09819053
-0.082142636 0.047552615 -0.065715924 0.10432748 -0.04710318 0.031751852 -0.032392927 0.13701735
0.12290401 -0.06688554 0.027552387 0.053247523 -0.026728787 0.0711583 -0.014043626 0.024529358
0.056439467 -0.086143084 0.12702353 -0.10544559 0.059806217 0.026662724 0.0671378 0.013489735
-0.10830363 -0.008774575 0.0457037 -0.03928572 -0.10681124 -0.023723535 -0.02700955 0.07655356
0.08364189 0.010549461 -0.08985448 0.07147431 0.022097444 -0.02694039 -0.10301568 -0.069085106
0.10803707 0.010633601 0.09074466 -0.027771238 0.11976324 0.024089145 -0.0024242676 -0.03602913
-0.009454046 -0.09490465 -0.033095986 -0.07401709 -0.12822588 0.07582613 0.00085072586 -0.017515648
0.0742222 -0.066662475 -0.030059645 0.0734956 -0.03356548 -0.08749305 0.06934119 0.0012615878
0.09996688 0.089297704 -0.115018696 0.015572823 -0.11880573 0.06729679 0.05558519 0.06530764
0.047162477 -0.054668248 -0.08239639 0.025821807 0.12763871 0.0028964565 -0.03428646 -0.06887026
0.003570207 -0.017322494 -0.13368599 0.028285561 -0.04195894 -0.11786388 -0.02190862 0.014407799
-0.118642375 0.099313885 0.074311756 0.1220576 -0.024712512 0.030121861 -0.017146733 -0.050750464
-0.037932154 -0.040327772 0.055579543 0.046774507 0.037839625 -0.019930728 0.08911784 -0.10141316
0.109549865 0.076765716 -0.089967005 -0.027876478 -0.10932723 0.113061644 -0.057677977 -0.06685841
0.03781347 0.033320058 -0.096444376 -0.10380031 0.022790262 -0.016261304 -0.024842937 0.10430275
0.01781065 0.052564297 -0.1065829 -0.015417564 -0.058355696 0.04513919 0.034870442 0.03951856
0.044415794 -0.013749196 -0.047837887 -0.11470194 -0.060970783 -0.050825186 -0.12324612 -0.12990832
0.10139996 0.12941173 -0.0074468516 -0.08416317 -0.058367893 -0.09809459 -0.10361194 0.109712064
-0.003944671 -0.0054968894 0.08098336 -0.09840844 -0.081881076 -0.07478328 -0.062325966 -0.05527928
-0.054424293 -0.035573594 -0.11247535 -0.06994852 0.12482355 0.082740426 0.10046321 -0.120555125
-0.070235625 -0.062489234 -0.051763047 -0.017346762 -0.0738499 0.0018011791 0.056874957 -0.115586
-0.048597477 -0.0449931 0.08631629 0.06633017 0.0077871927 0.08570299 -0.015727414 0.10434897
-0.071239784 -0.040992256 0.016212665 -0.046704054 0.06731464 -0.08543034 -0.049442977 -0.047020897
0.086709805 -0.0108167 0.11933034 0.12126631 0.04778399 -0.071813814 -0.07426543 0.06767757
0.07607922 -0.04506305 -0.048038613 0.08359322 -0.09479444 0.07283562 -0.102730624 -0.06414056
00000000: 87b0 45bd 1890 1abd 4a3d 713d 48bf 093e
00000010: f8b4 a1bd 570b d1bd 3446 003e d77b 60bd
00000020: 31e0 e23d 7a2c d6bd dba0 2c39 c3a3 6e3d
00000030: 4009 cd3d d744 973d 12ba eb3d c711 7fbd
00000040: 88ce 0abd 8a98 da3d 8a07 773d dd9d c9bd
00000050: 0b9b 8bba 5c18 4dbd 83a6 583d 80ca 423a
00000060: 7f3e b839 5b6e 073d 44fb 3ebc 924e c83d
00000070: 4077 c6bd 2a4a e9bd d9fc b8bd c81a 8dbd
00000080: 4e1f 36bd 93e3 b23d 00bb dbbc 3e21 a43d
00000090: 6702 8bbc 8b2f 78bd 5b56 ea3d 46fa 99bd
000000a0: ef4f 62bd 5a6c 663d c85c a6bd a527 58bd
000000b0: d5b0 14bd 5fbf 1b3d fb08 073e be7d 7abd
000000c0: 76f6 e3bc 420c a23d 9289 093d 712c 03be
000000d0: 167c b8bd 33a1 01be 9362 63bd 1e18 c9bd
000000e0: 663a a8bd 88c6 423d 1296 86bd a5a9 d53d
000000f0: 44ef 40bd 3b0e 023d 72ae 04bd 474e 0c3e
00000100: 19b5 fb3d 49fb 88bd 8bb5 e13c 131a 5a3d
00000110: 54f6 dabc 71bb 913d 3d17 66bc cbf1 c83c
00000120: 122d 673d c96b b0bd 7512 023e dcf3 d7bd
00000130: 5df7 743d c96b da3c 8b7f 893d 0d04 5d3c
00000140: 4bce ddbd 3cc3 0fbc ce33 3b3d 10ea 20bd
00000150: dabf dabd dc57 c2bc 2243 ddbc 1dc8 9c3d
00000160: 704c ab3d a5d7 2c3c a005 b8bd 1f61 923d
00000170: b305 b53c 18b2 dcbc e3f9 d2bd 7e7c 8dbd
00000180: 8a42 dd3d 8e38 2e3c 56d8 b93d 8280 e3bc
00000190: 6e46 f53d 9956 c53c 76e0 1ebb 4893 13bd
000001a0: 25e5 1abc 5e5d c2bd a88f 07bd 4696 97bd
000001b0: a54d 03be bb4a 9b3d 3f03 5f3a fa7c 8fbc
000001c0: cf01 983d 5686 88bd a53f f6bc dc84 963d
000001d0: f57b 09bd 8e2f b3bd c102 8e3d dd5b a53a
000001e0: 70bb cc3d b7e1 b63d ec8e ebbd 2725 7f3c
000001f0: 6b50 f3bd e6d2 893d 4cad 633d 03c0 853d
00000200: 712d 413d d0eb 5fbd 70bf a8bd 4188 d33c
00000210: b9b3 023e 7ad2 3d3b f66f 0cbd da0b 8dbd
00000220: 22fa 693b e7e7 8dbc fbe4 08be 1fb7 e73c
00000230: 23dd 2bbd 9e62 f1bd b579 b3bc b00e 6c3c
00000240: c6fa f2bd 1465 cb3d c330 983d 56f9 f93d
00000250: e571 cabc 1fc2 f63c 4e77 8cbc b8df 4fbd
00000260: bf5e 1bbd bc2e 25bd 60a7 633d a096 3f3d
00000270: b9fd 1a3d c445 a3bc 6a83 b63d b4b1 cfbd
00000280: ae5b e03d 5837 9d3d 9f40 b8bd 365d e4bc
00000290: f4e6 dfbd dd8c e73d be3f 6cbd 10ed 88bd
000002a0: 4ce2 1a3d 9d7a 083d a184 c5bd 4295 d4bd
000002b0: a5b2 ba3c 6d36 85bc 6a83 cbbc ae9c d53d
000002c0: a4e7 913c a94d 573d 2348 dabd f399 7cbc
000002d0: 6206 6fbd dfe3 383d 4fd4 0e3d 37de 213d
000002e0: 56ed 353d 4f44 61bc a9f1 43bd dae8 eabd
000002f0: 80bc 79bd 122e 50bd 7668 fcbd b006 05be
00000300: c8aa cf3d 8284 043e b804 f4bb bd5d acbd
00000310: 2c13 6fbd d1e5 c8bd 7f32 d4bd b8b0 e03d
00000320: 4c42 81bb 401f b4bb 9bda a53d 5d8a c9bd
00000330: 44b1 a7bd fa27 99bd 8349 7fbd 876c 62bd
00000340: 02ec 5ebd 9eb5 11bd 7a59 e6bd 2b41 8fbd
00000350: 7da3 ff3d d073 a93d a8bf cd3d 9be5 f6bd
00000360: b2d7 8fbd b6f4 7fbd 7d05 54bd cc1a 8ebc
00000370: 9e3e 97bd 8b15 ec3a b7f5 683d 5ab8 ecbd
00000380: 260e 47bd af4a 38bd 98c6 b03d 1dd8 873d
00000390: b52b ff3b 0d85 af3d c7d6 80bc eab4 d53d
000003a0: 2ae6 91bd 7fe7 27bd 6cd0 843c c04c 3fbd
000003b0: 42dc 893d 1af6 aebd b884 4abd fc98 40bd
000003c0: e994 b13d 8738 31bc 7763 f43d 795a f83d
000003d0: 25b9 433d 1f13 93bd 7918 98bd 8a9a 8a3d
000003e0: 6ccf 9b3d 0894 38bd 23c4 44bd ec32 ab3d
000003f0: 9623 c2bd d72a 953d 6f64 d2bd 205c 83bd

conv_layers.0.lin_skip.bias f4 [64]
-0.037556995 -0.11029611 -0.099414 0.04798998 0.071446724 0.08985027 -0.0711151 0.004077249
-0.12258293 -0.021819167 0.11442833 -0.044265643 0.05903876 0.035838526 0.08839382 0.004868314
0.08158933 -0.09563793 0.10922747 0.031776 -0.13096933 -0.045157958 0.026969599 0.10997963
0.10010798 0.08486154 0.08951329 -0.06156419 0.023607507 -0.05210689 0.03251558 -0.01821602
0.077874295 0.056698296 0.0077168653 -0.08906797 -0.015092248 -0.12722737 -0.05956358 0.018974304
0.12752129 0.11368838 -0.0930202 -0.057889577 -0.11961658 0.11517586 -0.024227904 0.09396692
0.0009112492 -0.06036754 0.0004792782 -0.028530177 -0.050427552 0.07729647 -0.047607705 0.06165907
-0.106929325 -0.12946728 0.034407184 -0.05350673 -0.05548802 0.07141708 -0.009527568 -0.00045057674
00000000: 5dd5 19bd ede2 e1bd 9199 cbbd 2491 443d
00000010: a952 923d 6b03 b83d cba4 91bd 729a 853b
00000020: c20c fbbd 1cbe b2bc 6659 ea3d e44f 35bd
00000030: a0d2 713d 6bcb 123d d207 b53d 6186 9f3b
00000040: 4f18 a73d d2dd c3bd a7b2 df3d 8d27 023d
00000050: d31c 06be 8df7 38bd 59ef dc3c 003d e13d
00000060: 6a05 cd3d e3cb ad3d be52 b73d bb2a 7cbd
00000070: 8864 c13c 096e 55bd 0f2f 053d c339 95bc
00000080: 8f7c 9f3d 793c 683d c2dd fc3b 4569 b6bd
00000090: 7a45 77bc e447 02be f1f8 73bd 0070 9b3c
000000a0: f194 023e 74d5 e83d 6081 bebd 9f1d 6dbd
000000b0: 8af9 f4bd 52e1 eb3d 9979 c6bc bb71 c03d
000000c0: e6e0 6e3a f443 77bd a247 fb39 1eb8 e9bc
000000d0: 1f8d 4ebd 9d4d 9e3d 4c00 43bd 398e 7c3d
000000e0: c3fd dabd 1293 04be 8cee 0c3d df29 5bbd
000000f0: 6847 63bd 1e43 923d 8419 1cbc 633b ecb9

conv_layers.0.lin_beta.weight f4 [1, 192]
-0.02036822 0.0023750546 0.04913688 -0.010355668 -0.044472877 -0.046564057 0.03585088 -0.012900716
-0.02007982 -0.004984023 0.0061678477 0.01964871 0.004678709 -0.006772435 0.058038242 -0.004573259
-0.021972315 0.01442568 0.10501131 0.030939449 -0.014416873 -0.034102086 0.024055967 0.045458477
0.09220242 0.029888758 -0.041053504 0.054094654 -0.01827658 -0.062000714 0.07069401 0.017655184
0.045283645 0.07033594 -0.027456105 0.0076821316 -0.03693938 0.0021488015 -0.075535715 0.036262922
-0.008954503 0.00911414 -0.060260355 0.018307598 0.051779512 0.0043726387 -0.08436679 -0.07778206
-0.052739825 0.07872209 -0.025963586 -0.07327468 -0.008363058 -0.016155751 0.06096944 -0.012489455
0.044970933 -0.068887204 -0.06744118 -0.00092342694 0.01954078 -0.014384104 -0.016596038 0.06498498
-0.10142529 -0.029171096 0.07238259 -0.042024333 -0.009820469 -0.059164543 0.09007396 0.017990407
-0.0005880425 0.018575663 -0.021573715 0.023769706 -0.05452795 -0.05775697 -0.009683445 0.08523472
-0.07040823 0.09846023 -0.04794662 -0.016717365 -0.09215624 0.0062457505 -0.023893801 0.018760974
0.042757202 -0.053011578 -0.090688966 -0.04812073 0.07840018 0.028023968 -0.14953324 -0.07839525
-0.07641416 0.082260005 0.08001095 0.07494509 0.11285273 -0.042187825 -0.03229614 0.049601436
-0.061350074 -0.038576722 -0.0099725295 -0.079088755 0.035252474 0.0024591857 -0.08429884 -0.0026689428
0.0054194126 0.02763768 0.014562423 0.036037467 -0.027911918 0.094804294 -0.037709575 -0.08771898
-0.01352156 -0.036112234 -0.022838494 0.15078638 0.05516354 0.08086832 -0.029711924 -0.027589502
0.056486163 0.03684646 -0.016870849 0.0050824317 -0.034694597 0.008198611 -0.02675771 -0.06372043
-0.10747894 -0.101372555 0.021358196 -0.009076327 -0.046309758 0.070975065 -0.01161198 -0.08365076
0.038749773 0.032594893 0.022955082 0.013256603 0.0031193413 0.03244162 -0.044081084 0.041533194
0.061822165 0.10294411 0.09733005 -0.011171054 0.021348909 -0.023266701 0.15392548 0.013936758
0.038564567 -0.12413832 0.07128792 -0.04171786 -0.113835886 -0.005346394 0.0761657 0.090863906
0.031011984 0.06880741 -0.10596165 0.119189784 0.007268593 0.019986602 -0.0097475145 -0.10392724
0.062648416 0.011895438 -0.00869247 -0.07387311 0.10178136 -0.10942633 0.109841086 0.095521145
-0.008872937 0.021858877 0.06392382 -0.119862005 0.0923674 -0.061375942 0.003041745 0.06904896
00000000: 41db a6bc cea6 1b3b c143 493d d2aa 29bc
00000010: 3129 36bd f4b9 3ebd 5fd8 123d 865d 53bc
00000020: 6f7e a4bc 0451 a3bb a81b ca3b 55f6 a03c
00000030: db4f 993b 4deb ddbb 82b9 6d3d 47db 95bb
00000040: 49ff b3bc b059 6c3c 2b10 d73d ba74 fd3c
00000050: c034 6cbc a1ae 0bbd 0511 c53c ab32 3a3d
00000060: 9fd4 bc3d 45d9 f43c b827 28bd 5b92 5d3d
00000070: c4b8 95bc 76f4 7dbd 05c8 903d 9ba1 903c
00000080: 587b 393d 4a0c 903d a0eb e0bc 64ba fb3b
00000090: bf4d 17bd e8d2 0c3b 78b2 9abd 6e88 143d
000000a0: e8b5 12bc 7953 153c 90d3 76bd d1f9 953c
000000b0: c116 543d 5a48 8f3b 7fc8 acbd 334c 9fbd
000000c0: b705 58bd 0c39 a13d 96b1 d4bc 0911 96bd
000000d0: 3505 09bc 1159 84bc 17bb 793d 92a0 4cbc
000000e0: 7133 383d bc14 8dbd 9a1e 8abd 2212 72ba
000000f0: fc13 a03c 4eab 6bbc 6af4 87bc d816 853d
00000100: 10b8 cfbd 39f8 eebc 533d 943d b521 2cbd
00000110: 08e6 20bc 8556 72bd b278 b83d 9e60 933c
00000120: dd26 1aba fd2b 983c 5cbb b0bc b0b8 c23c
00000130: b358 5fbd 9392 6cbd 50a7 1ebc 8a8f ae3d
00000140: 3132 90bd 84a5 c93d ad63 44bd dbf2 88bc
00000150: 69bc bcbd 27a9 cc3b efbc c3bc 9db0 993c
00000160: 2d22 2f3d ab22 59bd 23bb b9bd 3e1a 45bd
00000170: 4690 a03d 8592 e53c 3e1f 19be b08d a0bd
00000180: 077f 9cbd ef77 a83d c8dc a33d d07c 993d
00000190: 551f e73d 24cd 2cbd f548 04bd e02a 4b3d
000001a0: 374a 7bbd a002 1ebd d263 23bc 49f9 a1bd
000001b0: e664 103d 4a2a 213b dfa4 acbd 6ee9 2ebb
000001c0: 5495 b13b 6a68 e23c 3b97 6e3c 069c 133d
000001d0: 89a7 e4bc c128 c23d 5b75 1abd 02a6 b3bd
000001e0: 8889 5dbc 6cea 13bd cb17 bbbc bf67 1a3e
000001f0: 2af3 613d 4a9e a53d 6c66 f3bc 6103 e2bc
00000200: 095e 673d 50ec 163d bc34 8abc 878a a63b
00000210: ec1b 0ebd 7853 063c fc32 dbbc db7f 82bd
00000220: eb1d dcbd 6a9c cfbd 62f7 ae3c e0b4 14bc
00000230: 4daf 3dbd 605b 913d 2d40 3ebc 1751 abbd
00000240: 15b8 1e3d 3982 053d 4c0c bc3c 3932 593c
00000250: dd6d 4c3b 81e1 043d 5e8e 34bd b61e 2a3d
00000260: 3d39 7d3d 5dd4 d23d fa54 c73d cc06 37bc
00000270: e8e3 ae3c cf99 bebc a49e 1d3e 0057 643c
00000280: e1f5 1d3d 3b3c febd 67ff 913d 59e0 2abd
00000290: ca22 e9bd ce30 afbb c3fc 9b3d db16 ba3d
000002a0: d80c fe3c e6ea 8c3d 6c02 d9bd c619 f43d
000002b0: 612d ee3b f1ba a33c 0ab4 1fbc ced7 d4bd
000002c0: d04d 803d 15e5 423c dd6a 0ebc c94a 97bd
000002d0: bf72 d03d e91a e0bd 5df4 e03d 97a0 c33d
000002e0: cc5f 11bc 6311 b33c 7eea 823d 367a f5bd
000002f0: 1f2b bd3d 5765 7bbd 0358 473b 8b69 8d3d

transf_layers.0.weight f4 [64, 64]
-0.068980195 -0.0535378 -0.041985128 -0.11064501 0.02882681 -0.07440471 -0.097394556 0.06102842
-0.06978394 -0.04335807 -0.10530965 -0.011021028 0.124634 0.099256575 -0.112479776 0.083001085
-0.037581217 -0.015646383 0.050908126 -0.0034417927 -0.055007525 -0.0031918725 0.013098847 0.005933329
-0.10738179 -0.03821776 0.028768582 0.047511574 -0.0095135905 0.04226671 -0.071641356 0.0783664
0.0059486968 0.093114 -0.13953222 -0.06237108 0.019395316 0.11141824 -0.087655365 0.075297676
-0.08173723 0.091842234 0.0628171 0.0024286667 -0.09676674 0.034690786 -0.051746022 -0.09081411
-0.07144198 -0.064195275 -0.047955543 -0.10289297 0.06756107 0.1169689 -0.10282649 -0.027252764
0.07160944 -0.0074704206 0.03174003 0.053468548 -0.12521143 0.12155696 0.0097461445 0.0015345236
-0.044664904 -0.11628696 0.060468953 0.0069484785 0.07369263 -0.09461388 -0.08817875 0.029761188
-0.10597343 0.10926387 0.04412193 -0.12207989 0.010370544 0.09497582 -0.025840638 0.0112078125
-0.05072676 0.04809017 0.045357443 -0.05305774 -0.088521995 0.032694865 -0.0107902875 -0.08051263
-0.04280564 -0.055861212 0.056922067 -0.044879723 0.12882966 -0.0033115433 0.0048473785 0.068771824
0.010512233 0.01970951 0.011472056 0.035740357 0.013047079 0.09559826 -0.086859725 -0.110899955
-0.066066906 -0.069472976 0.103943236 0.0010723579 0.12498111 0.018876286 -0.09696611 -0.025249204
0.15143274 -0.09737257 0.084708735 -0.0022154313 0.09596368 -0.019865759 0.078399345 0.11932647
-0.040279448 -0.089785516 0.12722711 -0.096489094 0.061429147 0.015849875 0.06441607 -0.07656732
0.018423041 -0.04939785 -0.042674568 0.04083893 -0.082591765 -0.04400637 -0.104672395 0.080225095
-0.13489547 -0.11472219 0.09461751 0.00253834 0.08725024 -0.066451535 -0.0785679 0.052554663
-0.0018354905 0.107416466 0.016120607 -0.043954927 0.117513925 0.017427886 -0.13451597 -0.09791961
-0.0423046 -0.061766617 0.042951856 -0.072399005 0.009766747 -0.12447686 -0.094990045 -0.053535584
-0.059636824 -0.068443105 0.029266177 0.055906456 -0.045195926 -0.07580698 -0.021278838 -0.010057146
-0.07720871 0.0038984097 0.017725207 -0.029264733 -0.08468562 0.05644923 -0.04397084 0.047271684
0.09065197 -0.05541841 0.093906604 -0.12965676 0.084941685 0.07400566 -0.027495084 -0.0719051
-0.03921929 0.016318962 0.061681464 0.06833561 -0.06801725 0.0669178 0.14171581 0.06721767
0.07815144 0.0009166994 -0.0888214 -0.1289807 -0.07793662 0.05966375 -0.05527077 0.0008991953
-0.031545013 -0.0869998 -0.047942106 -0.020161064 -0.01650788 0.08953131 -0.12772891 -0.10898067
0.059051763 -0.037995666 0.025756584 0.021220421 0.062561646 0.025247509 0.017816521 0.0401557
-0.01999856 0.0053411433 0.081468016 -0.0702315 0.08777001 -0.0035304595 0.11021651 0.09129236
0.10455866 -0.098301075 0.1287057 -0.07906406 -0.12998733 0.06639831 -0.11510241 -0.042951334
-0.09405708 -0.086583816 -0.094493285 0.01589859 0.014672581 0.017128276 0.088255174 -0.09201283
-0.08466065 -0.1249431 -0.039418165 0.025281146 0.09709513 -0.07152814 -0.09737861 0.046211798
0.03409263 -0.07806423 0.066704094 -0.12034065 0.0735525 -0.072479896 0.030011527 -0.12740155
00000000: 7d45 8dbd 744a 5bbd 99f8 2bbd da99 e2bd
00000010: 3426 ec3c 7f61 98bd cc76 c7bd f0f8 793d
00000020: e2ea 8ebd 3b98 31bd 96ac d7bd 8b91 34bc
00000030: 1c40 ff3d 0847 cb3d cc5b e6bd 79fc a93d
00000040: c3ee 19bd d82c 80bc 0a85 503d b38f 61bb
00000050: 924f 61bd bc2e 51bb 8c9c 563c 5f6c c23b
00000060: fcea dbbd 3a8a 1cbd 17ac eb3c 7f9b 423d
00000070: e4de 1bbc dc1f 2d3d b4b8 92bd 907e a03d
00000080: 49ed c23b 8eb2 be3d 89e1 0ebe d178 7fbd
00000090: ede2 9e3c 3f2f e43d a884 b3bd ab35 9a3d
000000a0: d965 a7bd c817 bc3d 40a6 803d 442a 1f3b
000000b0: a42d c6bd ed17 0e3d a3f3 53bd c0fc b9bd
000000c0: 2c50 92bd d078 83bd 086d 44bd 8db9 d2bd
000000d0: 755d 8a3d 648d ef3d b296 d2bd 3041 dfbc
000000e0: f8a7 923d 6eca f4bb d501 023d d601 5b3d
000000f0: 6d37 00be dbf2 f83d 4bae 1f3c 1122 c93a
00000100: 8cf2 36bd dc27 eebd 4bae 773d 10b0 e33b
00000110: 29ec 963d ecc4 c1bd 0f97 b4bd bccd f33c
00000120: 9908 d9bd bcc5 df3d 32b9 343d 0505 fabd
00000130: 37e9 293c af82 c23d bfaf d3bc f9a0 373c
00000140: ddc6 4fbd 33fa 443d bac8 393d 1353 59bd
00000150: 054b b5bd 0deb 053d bfc9 30bc cee3 a4bd
00000160: f754 2fbd bace 64bd 1d27 693d cdd3 37bd
00000170: eceb 033e 7a06 59bb c2d6 9e3b 3ed8 8c3d
00000180: 803b 2c3c d775 a13c 4af5 3b3c 7b64 123d
00000190: 6ac3 553c 05c9 c33d 83e3 b1bd 841f e3bd
000001a0: 164e 87bd d947 8ebd 31e0 d43d 5c8e 8c3a
000001b0: 19f6 ff3d 71a2 9a3c 2b96 c6bd 6bd7 cebc
000001c0: 2f11 1b3e 456b c7bd c67b ad3d c530 11bb
000001d0: 9b88 c43d 84bd a2bc d68f a03d 7061 f43d
000001e0: 10fc 24bd 78e1 b7bd d347 023e 139c c5bd
000001f0: 219d 7b3d 99d7 813c 93ec 833d 54cf 9cbd
00000200: ebeb 963c 6655 4abd 87cb 2ebd b946 273d
00000210: df25 a9bd 0640 34bd 7b5e d6bd 0e4d a43d
00000220: 0a22 0abe 78f3 eabd d3c6 c13d 475a 263b
00000230: 41b0 b23d be17 88bd 35e8 a0bd 8f43 573d
00000240: d794 f0ba 2afd db3d 5d0f 843c 150a 34bd
00000250: 24ab f03d edc4 8e3c 8ebe 09be 148a c8bd
00000260: 9747 2dbd fefe 7cbd 49ee 2f3d ee45 94bd
00000270: b504 203c b9ed febd 248a c2bd 2148 5bbd
00000280: be45 74bd e62b 8cbd 9fbf ef3c 2bfe 643d
00000290: 5d1f 39bd b140 9bbd f550 aebc bac6 24bc
000002a0: 9a1f 9ebd 767c 7f3b 7434 913c 98bc efbc
000002b0: a86f adbd 4f37 673d c41a 34bd f49f 413d
000002c0: bda7 b93d 6afe 62bd 1b52 c03d bec4 04be
000002d0: e8f5 ad3d 4890 973d 5f3d e1bc fb42 93bd
000002e0: 68a4 20bd 58af 853c b4a5 7c3d 8af3 8b3d
000002f0: a14c 8bbd 330c 893d f31d 113e 6ba9 893d
00000300: dd0d a03d a84e 703a ffe7 b5bd 8413 04be
00000310: 3c9d 9fbd fa61 743d 9a63 62bd fab7 6b3a
00000320: 5835 01bd f32c b2bd f15e 44bd d128 a5bc
00000330: 893b 87bc 315c b73d 5ecb 02be 4231 dfbd
00000340: 43e0 713d 58a1 1bbd 79ff d23c 73d6 ad3c
00000350: 5220 803d ddd3 ce3c f4f3 913c 4e7a 243d
00000360: 05d4 a3bc c204 af3b b4d8 a63d 88d5 8fbd
00000370: c3c0 b33d 485f 67bb 32b9 e13d 7df7 ba3d
00000380: da22 d63d 1352 c9bd 6dcb 033e 56ec a1bd
00000390: 661b 05be d6fb 873d d0ba ebbd bded 2fbd
000003a0: 00a1 c0bd db52 b1bd b285 c1bd c33d 823c
000003b0: 4465 703c 9950 8c3c 21bf b43d 3971 bcbd
000003c0: 9062 adbd 2be2 ffbd f174 21bd 681a cf3c
000003d0: d0d9 c63d 587d 92bd 706e c7bd 9548 3d3d
000003e0: b7a4 0b3d 24e0 9fbd 289c 883d 2975 f6bd
000003f0: b1a2 963d 5770 94bd bcda f53c 8d75 02be
