models/GTransCYPs_2C19.pth (torch, 434695 bytes, 38 tensors)

conv_layers.0.lin_key.weight f4 [64, 64]
-0.11947637 -0.025716571 -0.08223115 0.015386837 -0.0072111418 -0.017846564 0.03904798 -0.0886415
0.037394714 -0.041116253 -0.11220829 0.06282793 -0.052064534 0.11119319 0.06755052 -0.10928975
-0.050634198 0.031972267 0.028163852 0.026819061 0.033027023 -0.09836987 -0.022627981 -0.04111863
-0.07768456 -0.103798516 -0.11952699 0.016677415 0.11817613 0.058633924 -0.011595473 -0.07480828
0.06477727 0.08562863 -0.0077841394 -0.07628969 -0.09717083 0.025497057 -0.012582952 -0.10882221
0.09772444 -0.052088346 -0.039637443 0.019396305 0.05166584 0.009638186 0.0013105825 -0.051201385
-0.030970043 -0.059446983 -0.07438796 0.104005136 0.00975566 -0.027326271 -0.0075527676 0.03723407
0.051059064 -0.025561381 -0.05308087 0.05367482 -0.034085825 0.1113741 0.104922615 -0.04137296
0.07189303 0.071508974 0.0015335026 0.11284457 0.058730792 0.07472566 -0.014844314 -0.10437078
0.063815475 0.117001124 -0.034179337 -0.07619345 0.0614161 0.081657335 0.054892734 -0.047674816
-0.053988595 0.024116306 -0.010558306 0.09705174 0.047838695 0.08421716 -0.081879795 0.09224591
-0.10754019 -0.08876736 0.07467724 -0.022393718 0.083683684 -0.051884044 -0.010751698 0.087053
-0.11530084 0.033624556 0.11566471 -0.071951225 0.00207612 -0.1171843 0.092505425 0.028876863
-0.11130858 -0.041298028 -0.022163447 -0.12224613 0.014865802 -0.10174473 -0.07692536 0.112158135
0.11782971 -0.0415538 0.016518515 0.081655376 0.0025058948 0.011693297 -0.07530644 -0.104365766
-0.107212536 0.053504877 -0.055753242 -0.11846003 0.07330262 0.09113642 0.102934234 -0.14598131
-0.022917187 -0.050439283 -0.04523002 0.007502066 -0.028228188 -0.01483389 0.02663538 -0.11030725
0.0010142371 0.08564177 -0.024391243 -0.034083407 0.10710212 -0.07817921 0.09907059 0.021869505
-0.10882529 0.05466507 -0.09257389 -0.11988746 0.009209541 0.055924833 -0.014559534 0.07787798
-0.01265204 -0.12363872 0.0641871 -0.0091249645 -0.1186649 0.09070131 -0.051059805 0.08164884
-0.090487696 -0.03486752 -0.039792843 0.0060747545 -0.10525592 -0.023690738 0.12593313 -0.084113464
-0.051458675 -0.10128083 0.011886999 0.07901716 -0.11815209 -0.013304134 -0.027968789 -0.03477985
0.073014975 -0.117173 -0.07857851 -0.013125948 -0.020188525 0.035805326 -0.044975005 -0.047596693
-0.105911545 -0.057871867 -0.0415345 0.015028366 -0.07614189 -0.10749509 -0.09408891 -0.05780478
0.04892431 -0.042127952 -0.091162294 -0.022906678 -0.016117595 0.057041224 -0.11184374 -0.09556383
0.0057281265 -0.007216603 0.093021266 -0.11310115 -0.0025650898 -0.061624024 -0.0034777892 -0.08594834
-0.06431934 0.07328119 -0.048776135 -0.0032558672 0.02038934 0.100457594 -0.04584346 -0.06377647
0.0016903905 -0.061818965 -0.017428294 -0.047063295 -0.03993867 0.017030992 -0.08130031 -0.088241845
0.061259445 0.07447436 0.07228727 -0.03314201 -0.028762477 -0.0040519857 -0.08402753 0.0054587764
-0.10338047 0.08747807 -0.087418094 -0.08742906 0.034088 0.09237013 -0.033371743 0.10336368
-0.08356446 -0.0771175 0.06743765 0.058592346 -0.076634176 0.05069551 -0.0018339993 0.03896904
-0.03930169 -0.10394995 0.012502629 -0.09178424 -0.10882444 -0.092589386 0.034925554 0.099213354
00000000: 07b0 f4bd 8fab d2bc ce68 a8bd 1219 7c3c
00000010: 714b ecbb f532 92bc c6f0 1f3d ad89 b5bd
00000020: 332b 193d 8469 28bd 76cd e5bd eeab 803d
00000030: 9f41 55bd 41b9 e33d ed57 8a3d 4ed3 dfbd
00000040: ce65 4fbd 5af5 023d e1b7 e63c a6b3 db3c
00000050: 5847 073d 2476 c9bd 515e b9bc 026c 28bd
00000060: 1519 9fbd 5194 d4bd 91ca f4bd 139f 883c
00000070: 5406 f23d 202a 703d f0fa 3dbc 1535 99bd
00000080: f2a9 843d 105e af3d 1812 ffbb c53d 9cbd
00000090: 8001 c7bd 34df d03c ba28 4ebc 2ede debd
000000a0: c023 c83d 975a 55bd df5a 22bd 00e5 9e3c
000000b0: 8f9f 533d 7be9 1d3c dac7 ab3a 8bb8 51bd
000000c0: e3b4 fdbc ae7e 73bd b758 98bd a500 d53d
000000d0: 34d6 1f3c 58db dfbc 357d f7bb c182 183d
000000e0: 4f23 513d 1a66 d1bc 546b 59bd 21da 5b3d
000000f0: 949d 0bbd 1b18 e43d abe1 d63d b176 29bd
00000100: a73c 933d 4c73 923d cfff c83a 0e1b e73d
00000110: b38f 703d c409 993d 9135 73bc 59c0 d5bd
00000120: b0b1 823d 499e ef3d a2ff 0bbd 500b 9cbd
00000130: 738f 7b3d f63b a73d 34d7 603d ab46 43bd
00000140: 2523 5dbd 8f8f c53c bffc 2cbc 10c3 c63d
00000150: 82f2 433d 0c7a ac3d 98b0 a7bd 6ceb bc3d
00000160: 083e dcbd a9cb b5bd 61f0 983d 0873 b7bc
00000170: 5a62 ab3d 5d84 54bd e427 30bc d848 b23d
00000180: d922 ecbd e7b9 093d 9fe1 ec3d 2a5b 93bd
00000190: 840f 083b 53fe efbd 7c73 bd3d 2c8f ec3c
000001a0: c1f5 e3bd 1f28 29bd 1e90 b5bc 2e5c fabd
000001b0: b18f 733c 8a5f d0bd 0b8b 9dbd 2ab3 e53d
000001c0: b450 f13d 5134 2abd d651 873c ef3a a73d
000001d0: f039 243b 3e95 3f3c 433a 9abd b8bd d5bd
000001e0: 3f92 dbbd ee27 5b3d 835d 64bd 2c9b f2bd
000001f0: af1f 963d bba5 ba3d 2fcf d23d 207c 15be
00000200: d3bc bbbc 6c99 4ebd 1d43 39bd e4d3 f53b
00000210: cd3e e7bc d809 73bc 7132 da3c c4e8 e1bd
00000220: 26f0 843a f464 af3d 25d0 c7bc 0b9b 0bbd
00000230: 5b58 db3d 6c1c a0bd 86e5 ca3d ad27 b33c
00000240: cbdf debd 7be8 5f3d 6197 bdbd 8e87 f5bd
00000250: 9de3 163c 7011 653d 1d8b 6ebc 7e7e 9f3d
00000260: 814a 4fbc 4c36 fdbd 8774 833d e080 15bc
00000270: 9506 f3bd 9cc1 b93d 1624 51bd 8237 a73d
00000280: 9d51 b9bd 3fd1 0ebd d2fd 22bd bc0e c73b
00000290: 6a90 d7bd 1413 c2bc 9df4 003e ae43 acbd
000002a0: 55c6 52bd 536c cfbd b0c1 423c c0d3 a13d
000002b0: b9f9 f1bd 95f9 59bc cd1e e5bc 5175 0ebd
000002c0: e088 953d 66f8 efbd c5ed a0bd 370e 57bc
000002d0: 6862 a5bc 9ba8 123d b637 38bd c0f4 42bd
000002e0: 27e8 d8bd 0d0b 6dbd 1420 2abd 8939 763c
000002f0: 47f0 9bbd 6326 dcbd b0b1 c0bd b4c4 6cbd
00000300: db64 483d 5c8e 2cbd 4cb3 babd c9a6 bbbc
00000310: 0c09 84bc 0fa4 693d 550e e5bd f8b6 c3bd
00000320: 02b3 bb3b 4179 ecbb ef81 be3d 93a1 e7bd
00000330: 111b 28bb 7969 7cbd 9feb 63bb af05 b0bd
00000340: dcb9 83bd 7314 963d 7cc9 47bd 6360 55bb
00000350: 8c07 a73c b6bc cd3d 5ac6 3bbd 3d9d 82bd
00000360: 1890 dd3a e235 7dbd c8c5 8ebc 71c5 40bd
00000370: bb96 23bd 9484 8b3c c780 a6bd 24b8 b4bd
00000380: 2feb 7a3d 0386 983d 590b 943d ebbf 07bd
00000390: 499f ebbc 85c6 84bb a016 acbd 89df b23b
000003a0: 24b9 d3bd b427 b33d 4208 b3bd 020e b3bd
000003b0: dc9f 0b3d 8d2c bd3d cfb0 08bd 56b0 d33d
000003c0: d823 abbd c8ef 9dbd c01c 8a3d 87fe 6f3d
000003d0: 61f2 9cbd 18a6 4f3d ce62 f0ba 009e 1f3d
000003e0: cffa 20bd b6e3 d4bd d4d7 4c3c 60f9 bbbd
000003f0: 59df debd 819f bdbd 190e 0f3d 5f30 cb3d

conv_layers.0.lin_key.bias f4 [64]
-0.10117521 0.08148419 -0.09627433 0.024603182 -0.053076472 -0.06580642 -0.07630003 -0.08241331
-0.09496289 0.042991847 -0.107927345 -0.10297512 -0.09807488 0.04229386 -0.02349561 -0.03327075
0.099326424 -0.07351695 -0.081854135 0.04773008 -0.048361406 -0.013961493 0.012227798 0.103491545
-0.086915195 0.026390582 0.0023480551 0.07803864 0.038678437 0.093380116 -0.08034862 0.015616958
-0.10891395 -0.08546521 -0.025468418 -0.002542639 -0.096093774 0.110260874 0.015084663 0.06448062
0.026213437 -0.0636129 -0.114428535 0.06013406 -0.10906837 -0.06457107 0.08435113 -0.069623485
0.0558076 0.05930461 -0.073943585 0.015830435 -0.115238085 0.026494829 -0.057499114 -0.120826356
0.04098723 0.11685506 -0.018382076 0.008715169 -0.028697586 0.080165856 0.0044161794 0.022895847
00000000: f334 cfbd 2fe1 a63d 7a2b c5bd 9d8c c93c
00000010: b766 59bd 84c5 86bd 3143 9cbd 4fc8 a8bd
00000020: e77b c2bd 3818 303d 0309 ddbd 9fe4 d2bd
00000030: 7cdb c8bd 543c 2d3d de79 c0bc e946 08bd
00000040: a76b cb3d 0e90 96bd 24a3 a7bd 9e80 433d
00000050: 9c16 46bd bfbe 64bc 1a57 483c 60f3 d33d
00000060: 9800 b2bd 1031 d83c d4e1 193b b9d2 9f3d
00000070: 486d 1e3d 133e bf3d d18d a4bd 45de 7f3c
00000080: 470e dfbd 6208 afbd 25a3 d0bc 67a2 26bb
00000090: d0cc c4bd 74d0 e13d aa25 773c 6a0e 843d
000000a0: 90bd d63c 7b47 82bd 8259 eabd 224f 763d
000000b0: 3d5f dfbd d63d 84bd 49c0 ac3d c296 8ebd
000000c0: 8396 643d 64e9 723d bc6f 97bd d4ae 813c
000000d0: f201 ecbd af0b d93c 3184 6bbd cf73 f7bd
000000e0: 3ae2 273d b551 ef3d 0296 96bc 11ca 0e3c
000000f0: 3317 ebbc ff2d a43d 99b5 903b 1290 bb3c

conv_layers.0.lin_query.weight f4 [64, 64]
-0.11713151 -0.067889445 0.09837482 -0.12604287 0.027524197 0.103833236 -0.040612735 0.016047588
-0.015410356 0.02140544 -0.08717327 0.096486665 0.041930042 0.011399165 -0.0065176683 -0.06646065
0.0470105 0.09016142 -0.059158154 -0.10371228 -0.044428583 -0.108440824 -0.10670948 -0.024976114
-0.078324035 0.06679433 -0.0005319536 0.0985104 0.058446046 0.090366095 0.018794293 -0.085699305
0.090581864 -0.040686764 0.10987511 -0.06985666 -0.08092987 -0.043913078 0.04078745 0.04312221
-0.10840667 0.060059167 0.0027857795 0.11883295 -0.04597414 0.053018555 0.0074894857 0.10703936
0.039770633 0.06604829 0.082736485 -0.07940058 0.1018917 -0.09277124 0.00835116 0.070285566
0.012984478 0.03828332 -0.11337915 -0.011139109 0.059807464 -0.033753164 0.076934405 0.07475358
-0.006425455 0.00055720675 -0.029959377 0.028202986 0.06653519 0.118893616 0.050036874 0.051517554
0.02717743 0.10253184 0.10127184 -0.07802877 -0.018541606 -0.024637872 0.10281629 0.069112815
-0.07514982 -0.06455732 -0.0713532 -0.045989875 -0.006135344 -0.120637976 0.05269741 -0.0054578464
0.07287832 -0.017256487 0.037640803 -0.071907945 0.113181315 -0.05598858 -0.069015734 -0.017836062
-0.03607121 -0.081443034 0.05740587 -0.07919764 -0.04362492 -0.059811596 0.06682993 0.096992575
-0.025955785 -0.021064606 -0.02046065 -0.0006124185 0.12331146 0.016473548 0.04716915 -0.060972508
0.10134893 0.034132652 0.101240784 -0.09324169 0.06479401 0.06746087 0.066266656 -0.01304929
-0.088370435 0.0041993726 -0.026305752 -0.118891045 0.095298946 -0.10825549 0.003942899 0.031151865
0.054946538 -0.092559844 -0.11988 -0.06111001 0.047292292 -0.077920645 0.07713645 0.006560027
-0.09364273 -0.08597287 0.07273908 0.02166009 0.10251074 0.020614332 0.09478135 0.106736206
0.016213931 -0.10733484 0.093004845 7.368061e-05 0.052153543 0.0544255 0.12851459 0.089361824
-0.05505966 -0.04669517 -0.009402189 -0.08338584 0.0058179162 -0.09992763 -0.11700263 -0.025609681
0.12255309 0.040861256 -0.07904687 -0.08531547 0.110451326 -0.10186053 -0.027741868 0.100633025
0.08249048 -0.0974779 -0.0027369072 0.059469134 -0.12361959 0.12281068 -0.06241685 -0.04980288
0.11091423 -0.07545894 -0.091002576 -0.08944298 0.043091495 -0.088671274 0.07418093 0.11003604
0.03609737 -0.10238379 0.01920612 -0.11089328 -0.062924735 -0.08279661 0.081881784 0.12321185
-0.06995622 -0.105086714 -0.043296073 0.02997897 0.09308405 0.06723645 0.09398144 0.11156873
0.100451075 -0.1082397 -0.023830328 -0.0043614344 -0.012638654 0.027826248 -0.014820774 0.059446085
0.10196074 -0.005054191 0.050220057 0.08701388 0.03348214 0.10211744 0.041045662 -0.0064408933
0.11962363 -0.025016282 0.108494505 0.11370431 -0.07468757 -0.008118817 0.09752778 -0.035737284
0.07325642 0.04140054 -0.052438766 0.055224415 -0.09795416 0.03965998 0.027744237 -0.00742802
-0.11271968 0.09463361 0.119001254 0.08814113 -0.0867315 -0.055983413 0.030486908 -0.08857461
-0.015859867 -0.0547073 -0.08383033 -0.03402111 -0.072266765 -0.049993057 -0.037292928 0.108651884
0.07711838 0.0083003305 0.11227398 0.053023018 0.040600862 -0.03430849 -0.01912958 0.094249494
00000000: a5e2 efbd 9f09 8bbd bd78 c93d 6211 01be
00000010: 6d7a e13c 85a6 d43d 8a59 26bd 3b76 833c
00000020: b87b 7cbc 765a af3c e687 b2bd cd9a c53d
00000030: d6be 2b3d 90c3 3a3c 2a92 d5bb 851c 88bd
00000040: 158e 403d 8da6 b83d d24f 72bd 1b67 d4bd
00000050: bffa 35bd 3916 debd 808a dabd b59a ccbc
00000060: 5a68 a0bd 77cb 883d cd72 0bba d2bf c93d
00000070: 1f65 6f3d dc11 b93d 7df6 993c 1e83 afbd
00000080: fc82 b93d 2aa7 26bd 3406 e13d 0211 8fbd
00000090: 8fbe a5bd 33de 33bd be10 273d eaa0 303d
000000a0: 5104 debd 9a00 763d a091 363b b15e f33d
000000b0: 614f 3cbd fc29 593d 5c6a f53b 7437 db3d
000000c0: 88e6 223d 5344 873d bf71 a93d c59c a2bd
000000d0: 98ac d03d d9fe bdbd 4ed3 083c e1f1 8f3d
000000e0: d9bc 543c f8ce 1c3d 5433 e8bd cf80 36bc
000000f0: acf8 743d c240 0abd c98f 9d3d 6818 993d
00000100: a08c d2bb 8311 123a 5e6d f5bc f309 e73c
00000110: 9a43 883d 7f7e f33d 77f3 4c3d 1204 533d
00000120: 34a3 de3c 37fc d13d 9c67 cf3d 8ccd 9fbd
00000130: 91e4 97bc 5dd5 c9bc 5991 d23d 058b 8d3d
00000140: 26e8 99bd a136 84bd a021 92bd e15f 3cbd
00000150: ff0a c9bb 0b11 f7bd 3dd9 573d bcd7 b2bb
00000160: 3b41 953d 7a5d 8dbc 3e2d 1a3d 7944 93bd
00000170: 9bcb e73d 4854 65bd 1f58 8dbd ef1c 92bc
00000180: 68bf 13bd 9bcb a6bd 6b22 6b3d 5f32 a2bd
00000190: 0bb0 32bd 01fd 74bd 21de 883d 0ba4 c63d
000001a0: 3aa1 d4bc ae8f acbc 189d a7bc b68a 20ba
000001b0: b88a fc3d 89f3 863c 7034 413d 4fbe 79bd
000001c0: 0790 cf3d aece 0b3d 5457 cf3d 80f5 bebd
000001d0: b9b2 843d ed28 8a3d d0b6 873d b0cc 55bc
000001e0: 8ffb b4bd e49a 893b 297f d7bc 267d f3bd
000001f0: 182c c33d 0eb5 ddbd 6f33 813b 3232 ff3c
00000200: 9f0f 613d 0490 bdbd a583 f5bd 7d4e 7abd
00000210: 90b5 413d dc94 9fbd b7f9 9d3d 7ff5 d63b
00000220: c2c7 bfbd 8b12 b0bd 3af8 943d 8070 b13c
00000230: 27f1 d13d 63df a83c b91c c23d 8398 da3d
00000240: 14d3 843c 5ed2 dbbd 5379 be3d fa84 9a38
00000250: f49e 553d 46ed 5e3d 5499 033e 5503 b73d
00000260: 3d86 61bd 6f43 3fbd a40b 1abc 32c6 aabd
00000270: 38a4 be3b dba6 ccbd 139f efbd 65cb d1bc
00000280: 1dfd fa3d 225e 273d 53e3 a1bd e1b9 aebd
00000290: 4e34 e23d 419c d0bd ea42 e3bc b018 ce3d
000002a0: c5f0 a83d 7ea2 c7bd af5d 33bb e895 733d
000002b0: 452c fdbd 2a84 fb3d d0a8 7fbd 1bfe 4bbd
000002c0: 0027 e33d 378a 9abd 8f5f babd e22d b7bd
000002d0: b580 303d 4999 b5bd 2cec 973d 935a e13d
000002e0: d6da 133d 98ae d1bd 2756 9d3c 041c e3bd
000002f0: afde 80bd 4591 a9bd a3b1 a73d 7f56 fc3d
00000300: 3545 8fbd b437 d7bd 3957 31bd 7596 f53c
00000310: daa2 be3d 44b3 893d 5779 c03d 257e e43d
00000320: 4bb9 cd3d c7ac ddbd d237 c3bc 5dea 8ebb
00000330: 5b12 4fbc dff3 e33c d5d2 72bc bd7d 733d
00000340: cbd0 d03d a19d a5bb 8cb3 4d3d 5534 b23d
00000350: 9224 093d f322 d13d 7f1f 283d 210e d3bb
00000360: 3cfd f43d f2ee ccbc 5e32 de3d cedd e83d
00000370: ccf5 98bd c904 05bc a5bc c73d 4261 12bd
00000380: 7607 963d 9d93 293d 08ca 56bd ff32 623d
00000390: 319c c8bd 8172 223d e247 e33c bf66 f3bb
000003a0: 93d9 e6bd 44cf c13d eeb6 f33d 5683 b43d
000003b0: 49a0 b1bd dd4e 65bd aebf f93c 9b66 b5bd
000003c0: 8dec 81bc c314 60bd 3caf abbd b859 0bbd
000003d0: 9900 94bd 85c5 4cbd 78c0 18bd e184 de3d
000003e0: 3ef0 9d3d 1cfe 073c e7ef e53d aa2e 593d
000003f0: 174d 263d 0f87 0cbd a3b5 9cbc e105 c13d

conv_layers.0.lin_query.bias f4 [64]
-0.0028269666 -0.02859689 0.020654602 0.124502756 0.11119879 0.041826446 0.00085174927 0.03269768
0.10438808 -0.07023334 0.08743357 -0.11965481 -0.042292845 -0.052777532 0.110948466 0.040129848
0.074672066 0.044959944 -0.010245038 0.006127728 -0.036082182 -0.060225785 -0.03460903 0.09425131
-0.020295745 -0.007333456 -0.09825188 -0.047030825 -0.08731343 0.025288275 -0.072444886 0.047247075
-0.09591774 -0.07016537 -0.10805923 0.16545781 -0.0041932683 0.1270517 -0.029154247 0.093018755
0.036019918 -0.0022137254 -0.008349712 -0.045485962 0.07151882 0.06476895 -0.08334535 0.05182128
-0.09936887 0.12722857 0.12468315 0.1497738 0.067587405 -0.06556575 -0.019198328 -0.043315224
0.026291324 -0.086038 0.0011278609 0.09074443 -0.028867135 -0.06752038 -0.050207153 -0.0023508882
00000000: a144 39bb 0644 eabc d733 a93c 4dfb fe3d
00000010: 31bc e33d 3552 2b3d ed47 5f3a 01ee 053d
00000020: 6bc9 d53d 7fd6 8fbd 5f10 b33d 950d f5bd
00000030: 433b 2dbd 412d 58bd f338 e33d 325f 243d
00000040: abed 983d eb27 383d ceda 27bc 1ccb c83b
00000050: e9ca 13bd 50af 76bd 33c2 0dbd d506 c13d
00000060: 4343 a6bc 7d4d f0bb 4838 c9bd 65a3 40bd
00000070: 62d1 b2bd 5b29 cf3c fc5d 94bd 2686 413d
00000080: 8570 c4bd ddb2 8fbd 284e ddbd c66d 293e
00000090: af67 89bb d719 023e e3d4 eebc 9e80 be3d
000000a0: 9f89 133d 2614 11bb 3bcd 08bc 7d4f 3abd
000000b0: 7678 923d 95a5 843d f8b0 aabd 8d42 543d
000000c0: e881 cbbd 3548 023e e159 ff3d 4e5e 193e
000000d0: 446b 8a3d 5647 86bd d045 9dbc 4e6b 31bd
000000e0: e760 d73c b134 b0bd bbd4 933a 37d8 b93d
000000f0: c57a ecbc 2048 8abd 04a6 4dbd 5c11 1abb

conv_layers.0.lin_value.weight f4 [64, 64]
-0.06911546 0.046428964 0.052796893 0.122226536 -0.02913349 -0.0626685 0.033635266 0.036245868
-0.009713047 0.05504693 -0.05995863 0.11712442 0.02034971 0.014151805 0.0765288 -0.052539255
-0.032269992 -0.05012426 -0.032087438 -0.065990165 0.14227368 -0.08891252 -0.057998978 0.070609584
-0.09459426 0.03950711 -0.06743452 0.02683854 -0.0008095391 0.023712011 -0.023769189 -0.08288896
0.04167133 0.08141312 -0.091712385 -0.029464604 -0.088212624 0.052920904 -0.0828802 0.041059326
0.044593308 -0.11240883 -0.09794733 0.009200245 0.036902074 0.017193966 -0.09265365 0.10079306
-0.0709314 0.11351451 -0.031876605 -0.10779862 -0.025148027 0.07456037 -0.06464928 -0.11179189
-0.095359474 -0.020073492 -0.010636173 0.12111399 -0.047471605 0.102377675 0.086724296 -0.054943707
-0.083159916 -0.11614905 -0.0672726 -0.085382245 -0.044264905 0.038062565 0.12287191 -0.06349702
0.04677741 -0.11123796 0.0908832 0.11853302 -0.038171925 -0.046429362 0.06600011 -0.097091176
-0.11572608 -0.015444732 0.05289436 -0.09193123 0.15666145 0.08865942 0.07937434 0.027983572
0.13221973 0.03675549 0.08244419 -0.049530134 -0.042447142 0.09542602 0.02520849 0.056433056
-0.09436516 -0.1189523 0.0922202 -0.083629236 -0.09307738 0.118021004 -0.003576302 -0.06726831
0.09870413 -0.036594205 -0.0113385115 -0.07511327 0.08705599 -0.00067765394 -0.11237714 0.10165831
0.11203056 0.028205857 0.11984081 -0.0004420769 0.05619571 -0.045590837 -0.08158395 0.08251458
0.042569403 0.09962358 -0.036460984 -0.018870892 0.067473 -0.03897764 0.008711372 -0.031777922
-0.12196073 0.051993303 -0.04107385 -0.04010811 -0.086119704 0.111047596 0.10782049 -0.08181375
-0.0954759 0.04476245 -0.083730176 0.078794196 0.01101472 0.07197874 0.091241114 -0.0016683305
-0.010616299 -0.09566751 0.001298287 -0.014363532 -0.006046224 -0.039719846 -0.051675387 0.09041603
-0.097470164 -0.0797688 0.060602576 -0.053483583 0.071899265 0.09046353 0.037842322 0.0009806803
0.011054917 0.10678042 0.05423545 -0.09104876 -0.031197214 0.08331914 -0.02996631 0.1182729
-0.06930855 -0.12110574 -0.0918989 0.114139475 0.070730805 -0.018176831 0.010607503 -0.0012050666
-0.086423256 0.057668872 0.084790975 -0.0130037675 -0.023079667 0.015429785 0.0032247906 0.07148625
-0.10404691 0.034443274 0.035399877 0.10326737 -0.019998774 0.023002636 -0.020950194 0.077488385
0.09750863 0.10116413 -0.018831486 -0.069166705 0.13550024 0.12180298 -0.03859347 0.038868196
-0.046947025 -0.10799498 -0.12086126 0.020582875 -0.13237381 0.060641944 -0.029675106 0.054687526
-0.13020632 0.114384525 0.1020543 0.005746144 -0.11302863 0.077218495 -0.07981621 0.10547271
-0.10205488 0.104468726 -0.07544413 0.11269294 0.031152016 -0.07853945 0.049105108 0.041315034
-0.10858063 -0.032261472 -0.035461165 0.031258658 -0.035658076 -0.12818746 0.009213779 -0.014995672
0.12129842 0.059288707 -0.01300034 0.09242926 -0.07691219 -0.046521872 -0.10780651 -0.03274
-0.0072332164 -0.052327737 -0.05329998 -0.094638936 -0.034299463 0.065940246 0.053963147 -0.025800824
0.11509193 -0.087548524 0.113912314 0.059443027 0.0042132265 -0.041501604 0.060814857 -0.055548333
00000000: 688c 8dbd 4c2c 3e3d 8e41 583d e851 fa3d
00000010: 5ba9 eebc 5858 80bd 22c5 093d 8c76 143d
00000020: 7923 1fbc e478 613d 2e97 75bd eede ef3d
00000030: 6fb4 a63c f9dc 673c 22bb 9c3d 6733 57bd
00000040: 8a2d 04bd 194f 4dbd 1e6e 03bd da25 87bd
00000050: 31b0 113e c417 b6bd 5690 6dbd c29b 903d
00000060: a3ba c1bd 35d2 213d 1c1b 8abd 7fdc db3c
00000070: 4037 54ba b13f c23c 9ab7 c2bc b0c1 a9bd
00000080: 8eaf 2a3d ecbb a63d b4d3 bbbd c15f f1bc
00000090: d2a8 b4bd 97c3 583d 18bd a9bd d32d 283d
000000a0: 79a7 363d 9a36 e6bd 9c98 c8bd a0bc 163c
000000b0: a126 173d 5cda 8c3c 32c1 bdbd 986c ce3d
000000c0: 7b44 91bd 4c7a e83d 0b91 02bd 86c5 dcbd
000000d0: 3c03 cebc 1bb3 983d d766 84bd 25f3 e4bd
000000e0: d44b c3bd 2a71 a4bc 5843 2ebc 9d0a f83d
000000f0: 9671 42bd 63ab d13d 829c b13d a70c 61bd
00000100: bf4f aabd 8edf edbd 38c6 89bd e3dc aebd
00000110: 1e4f 35bd 7ee7 1b3d 45a4 fb3d ba0a 82bd
00000120: ab99 3f3d bad0 e3bd f920 ba3d 71c1 f23d
00000130: 2a5a 1cbd b72c 3ebd 112b 873d bdd7 c6bd
00000140: cc01 edbd e70b 7dbc c2a7 583d 7146 bcbd
00000150: dc6b 203e 1293 b53d 048f a23d ce3d e53c
00000160: 9c64 073e ed8c 163d 80d8 a83d 1ce0 4abd
00000170: 0edd 2dbd b86e c33d 0982 ce3c 5926 673d
00000180: 8542 c1bd 439d f3bd f2dd bc3d ce45 abbd
00000190: 5a9f bebd ffb4 f13d 6460 6abb f8c3 89bd
000001a0: 6425 ca3d cee3 15bd 2ac5 39bc fcd4 99bd
000001b0: 694a b23d 96a4 31ba fc25 e6bd 3b32 d03d
000001c0: 4770 e53d f80f e73c 196f f53d 8fc6 e7b9
000001d0: 792d 663d 75bd 3abd 7c15 a7bd 67fd a83d
000001e0: 415d 2e3d 7307 cc3d 1d58 15bd 2197 9abc
000001f0: 492f 8a3d 05a7 1fbd 24ba 0e3c 9129 02bd
00000200: 8cc6 f9bd eef6 543d 0e3d 28bd 6748 24bd
00000210: 875f b0bd ec6c e33d fdd0 dc3d f88d a7bd
00000220: de88 c3bd d558 373d ba7a abbd da5e a13d
00000230: 1677 343c 9769 933d 9fdc ba3d e2ab daba
00000240: fcef 2dbc 54ed c3bd 482b aa3a 0555 6bbc
00000250: 671f c6bb 47b1 22bd 92a9 53bd 0a2c b93d
00000260: 709e c7bd d35d a3bd 683a 783d 9a11 5bbd
00000270: ec3f 933d f144 b93d 8d00 1b3d 2c8a 803a
00000280: af1f 353c b1af da3d fe25 5e3d c677 babd
00000290: 4d91 ffbc 3aa3 aa3d e87b f5bc 1039 f23d
000002a0: a4f1 8dbd 4906 f8bd 7e35 bcbd f5c1 e93d
000002b0: 50db 903d 94e7 94bc 18cb 2d3c 53f3 9dba
000002c0: adfe b0bd 3236 6c3d e4a6 ad3d c10d 55bc
000002d0: 9211 bdbc 35cd 7c3c 0257 533b 6267 923d
000002e0: 8c16 d5bd 6414 0d3d 76ff 103d d87d d33d
000002f0: 78d4 a3bc 0670 bc3c be9f abbc 3bb2 9e3d
00000300: 9bb2 c73d 242f cf3d 7d44 9abc 46a7 8dbd
00000310: 93c0 0a3e d773 f93d 3014 1ebd 4234 1f3d
00000320: 864b 40bd 792c ddbd 1c86 f7bd 6b9d a83c
00000330: 008d 07be b063 783d 3519 f3bc 0700 603d
00000340: ce54 05be 6f42 ea3d d801 d13d 264a bc3b
00000350: 8e7b e7bd bb24 9e3d ae76 a3bd 1402 d83d
00000360: 2602 d1bd b3f3 d53d 7482 9abd 8ecb e63d
00000370: 8332 ff3c 4bd9 a0bd 7022 493d f439 293d
00000380: 855f debd 9b24 04bd ba3f 11bd 1409 003d
00000390: 340e 12bd 9343 03be 64f5 163c 68b0 75bc
000003a0: 4e6b f83d b7d8 723d 61ff 54bc 8d4b bd3d
000003b0: 2384 9dbd b88d 3ebd a9c9 dcbd 611a 06bd
000003c0: 9e04 edbb 9c55 56bd 1451 5abd 0fd2 c1bd
000003d0: 987d 0cbd ae0b 873d 7608 5d3d 405c d3bc
000003e0: 51b5 eb3d a44c b3bd dc4a e93d 887a 733d
000003f0: 1b0f 8a3b 96fd 29bd 0019 793d a686 63bd

conv_layers.0.lin_value.bias f4 [64]
-0.01585802 -0.10705073 -0.0108177615 0.12813945 0.15424919 0.07435996 -0.07745385 0.034747213
0.108725645 -0.05640954 -0.0050486648 0.12937652 -0.09658157 -0.02368357 0.09620103 -0.05899596
-0.082261354 -0.054975905 0.115532495 0.034009926 -0.11132271 0.07977303 -0.06490172 -0.092416294
-0.035328504 -0.014763243 0.038998105 -0.07581533 0.052664794 -0.0006955579 0.07318024 0.12640679
0.085679814 -0.11179002 0.057503585 0.058227774 0.024768392 -0.0010791227 0.036790323 -0.018068945
-0.07441815 -0.00908126 -0.097256295 0.06809868 0.027783217 -0.041200917 -0.1071132 -0.030103719
0.015605816 0.08831237 -0.02947987 0.008181729 -0.06289127 -0.05612075 0.10636586 0.012170694
-0.020593842 0.02722855 0.052696045 -0.065109186 -0.00335745 0.09609814 0.06815201 -0.06857917
00000000: aee8 81bc 6a3d dbbd fb3c 31bc fd36 033e
00000010: 80f3 1d3e 094a 983d 20a0 9ebd 1853 0e3d
00000020: 8dab de3d b10d 67bd 456f a5bb 477b 043e
00000030: 8fcc c5bd 0c04 c2bc 0c05 c53d bfa5 71bd
00000040: a478 a8bd 6a2e 61bd 4d9c ec3d fe4d 0b3d
00000050: 29fd e3bd 0b60 a33d 31eb 84bd c144 bdbd
00000060: 9fb4 10bd 87e1 71bc 7abc 1f3d 1145 9bbd
00000070: 0ab7 573d 1a56 36ba 86df 953d c870 013e
00000080: e678 af3d 2af2 e4bd e188 6b3d 3f80 6e3d
00000090: 15e7 ca3c 5971 8dba 73b1 163d 5305 94bc
000000a0: 8b68 98bd 91c9 14bc 4f2e c7bd 5277 8b3d
000000b0: a199 e33c 4bc2 28bd 2a5e dbbd 139c f6bc
000000c0: 89af 7f3c 1edd b43d c57f f1bc a90c 063c
000000d0: 23cd 80bd dfde 65bd 58d6 d93d 9767 473c
000000e0: 6bb4 a8bc 680e df3c cfd7 573d f757 85bd
000000f0: aa08 5cbb 1acf c43d 4893 8b3d 3c73 8cbd

conv_layers.0.lin_edge.weight f4 [64, 42]
0.009070766 -0.0476121 0.07168721 0.1437322 -0.06861734 0.018101405 -0.05702538 0.042231362
0.14822459 0.11567108 0.12628955 0.15173797 0.054308552 0.057398576 -0.13080117 0.08544787
0.025732921 -0.08295556 -0.090552635 0.081744306 0.036746826 0.07515461 0.1453111 0.07389857
0.0023534673 0.026935494 0.067242555 -0.0004869101 -0.010674852 -0.108752 -0.023027932 -0.07315218
0.07304887 -0.042033415 -0.10560309 -0.08603663 -0.016917944 0.0163399 0.019412238 -0.031889033
0.1010959 -0.12450576 -0.11670888 0.035560716 0.025358453 0.023939934 -0.15747261 -0.11603467
-0.06154661 -0.053569537 -0.03331487 -0.029480949 -0.014040611 -0.14229351 -0.1608424 -0.04919016
-0.05840842 0.12689319 -0.13949299 0.12916799 -0.11317149 -0.022254977 0.13938451 0.12578556
0.08212328 -0.004560307 0.13200629 0.107281186 -0.013874783 -0.088965364 0.113409966 -0.17114292
0.033083145 -0.0059825596 0.047456775 0.02901724 -0.057675716 -0.037549093 -0.033545464 0.05368306
0.1348987 0.06861446 -0.08415971 -0.10696883 0.029999817 0.005362819 -0.014924327 -0.0036934225
-0.12637205 -0.032137457 0.08947202 -0.0233831 0.05663048 0.053983662 -0.1250534 0.059644826
0.03573307 -0.12476693 -0.0135346595 -0.021763865 0.0065128673 0.013082438 0.11534281 -0.06243469
-0.14083514 -0.0008347855 0.08594048 0.114381656 -0.0062849233 0.108899325 0.13627505 0.0294087
0.043989256 -0.11511216 -0.091198035 -0.021144528 -0.044058766 -0.122077644 -0.01418808 -0.045314793
0.14052974 -0.05956792 0.1217784 -0.02194717 0.03892892 -0.04883281 -0.091415845 0.068415254
-0.049932867 -0.084733196 0.053131178 0.09716414 0.08113161 0.016393017 -0.046473283 -0.16262442
-0.021317301 0.091947764 0.10754766 -0.031665076 -0.071271345 -0.07038484 -0.019596439 -0.0970212
-0.08792763 -0.093667984 -0.121506914 0.09512107 -0.12134043 -0.07137691 0.018964604 0.013265766
-0.03206127 0.15955578 0.1499082 0.023498887 0.074627794 0.056553688 -0.10036513 -0.016585875
-0.09342175 0.059706107 0.14565615 0.10776978 -0.13038555 0.05433709 0.030548789 0.091444716
0.060093503 0.08235075 0.005801667 -0.052647337 -0.107139595 -0.0918791 0.03629766 -0.03722041
0.13799845 -0.14934058 -0.07879517 -0.13543953 0.10354511 -0.01863501 0.069552414 0.058567375
-0.009653662 -0.040299874 -0.10478151 0.075407095 -0.040019814 0.05362093 -0.122048214 0.11327657
0.09769816 -0.0059996434 -0.015677638 0.012009335 -0.022384984 -0.09600841 0.049042687 0.12687203
-0.14771068 -0.04263716 -0.075551085 -0.098586306 0.028204396 0.08728912 0.106022015 0.011411424
0.09414486 0.0065838257 -0.102654256 0.1122438 0.047694325 0.14399564 0.15281563 -0.01765734
0.10942476 0.112599164 -0.12825078 0.012271721 0.052278757 0.04978495 -0.14001694 -0.06866996
0.08455651 0.15788837 -0.004727254 0.015390545 -0.10297396 -0.06979927 0.11829108 0.0721322
0.12055548 -0.13733722 0.1059425 0.07994671 -0.09794358 -0.011280563 -0.081923135 -0.019229405
0.03046984 0.14912285 0.04404582 -0.095656686 -0.15441684 -0.052290663 0.10541686 -0.043719355
-0.04547105 0.11537085 0.081617184 0.06843498 0.01527679 0.08808299 0.004767693 -0.014426229
00000000: 8d9d 143c e804 43bd bed0 923d 892e 133e
00000010: 3f87 8cbd 6649 943c 7293 69bd cbfa 2c3d
00000020: 30c8 173e f6e4 ec3d 0c52 013e 3361 1b3e
00000030: a572 5e3d c51a 6b3d bef0 05be 4bff ae3d
00000040: d9cd d23c 9be4 a9bd a973 b9bd 8f69 a73d
00000050: d783 163d a9ea 993d 6fcc 143e 2258 973d
00000060: a13c 1a3b d3a7 dc3c 77b6 893d f847 ffb9
00000070: 93e5 2ebc 5eb9 debd 13a5 bcbc cfd0 95bd
00000080: a59a 953d 3b2b 2cbd 6f46 d8bd f933 b0bd
00000090: 8097 8abc 41db 853c 6a06 9f3c 139e 02bd
000000a0: 5e0b cf3d e0fc febd 1105 efbd 1da8 113d
000000b0: 88bc cf3c ae1d c43c 8040 21be 96a3 edbd
000000c0: 4c18 7cbd bb6b 5bbd 2c75 08bd 0882 f1bc
000000d0: 970a 66bc 64b5 11be dfb3 24be 9f7b 49bd
000000e0: ab3d 6fbd 4af0 013e 40d7 0ebe 9d44 043e
000000f0: 74c6 e7bd 1250 b6bc d0ba 0e3e eecd 003e
00000100: 4030 a83d a16e 95bb a82c 073e 3db6 db3d
00000110: 0f53 63bc 7933 b6bd 7c43 e83d 1740 2fbe
00000120: 3182 073d 5909 c4bb 0962 423d 90b5 ed3c
00000130: 5f3d 6cbd 14cd 19bd f866 09bd c5e2 5b3d
00000140: e322 0a3e bd85 8c3d ed5b acbd 7912 dbbd
00000150: 2dc2 f53c 96ba af3b 2a85 74bc 590d 72bb
00000160: ad67 01be 91a2 03bd 1b3d b73d ea8d bfbc
00000170: 5df5 673d f91d 5d3d 000e 00be 224e 743d
00000180: d75c 123d ce85 ffbd 7ac0 5dbc 224a b2bc
00000190: e469 d53b b957 563c da38 ec3d 84bb 7fbd
000001a0: 1637 10be 82d5 5aba 9001 b03d ee40 ea3d
000001b0: c2f1 cdbb 9c06 df3d b08b 0b3e 84ea f03c
000001c0: 142e 343d edbf ebbd 09c6 babd 4a37 adbc
000001d0: f776 34bd d803 fabd 1f75 68bc 019c 39bd
000001e0: 07e7 0f3e 7efd 73bd f466 f93d 8dca b3bc
000001f0: ee73 1f3d ea04 48bd 3b38 bbbd 4c1d 8c3d
00000200: 6886 4cbd 9988 adbd 14a0 593d fefd c63d
00000210: 5428 a63d a64a 863c c55a 3ebd 0487 26be
00000220: 9fa1 aebc 1c4f bc3d f341 dc3d 3db3 01bd
00000230: b6f6 91bd ed25 90bd b688 a0bc 0db3 c6bd
00000240: 6713 b4bd 00d5 bfbd 9ed8 f8bd d6ce c23d
00000250: 5581 f8bd 0f2e 92bd a85b 9b3c a858 593c
00000260: ae52 03bd 9762 233e 8981 193e bd80 c03c
00000270: 75d6 983d d7a4 673d 3c8c cdbd 1adf 87bc
00000280: e753 bfbd 648e 743d e326 153e 67b6 dc3d
00000290: ca83 05be 9290 5e3d 7441 fa3c 5e47 bb3d
000002a0: 9b24 763d 83a7 a83d e91b be3b bca4 57bd
000002b0: 016c dbbd 1c2b bcbd dbac 143d 6e74 18bd
000002c0: 774f 0d3e bdec 18be 5d5f a1bd a9b0 0abe
000002d0: 750f d43d 73a8 98bc 7f71 8e3d 58e4 6f3d
000002e0: 652a 1ebc 7b11 25bd b097 d6bd 096f 9a3d
000002f0: d1eb 23bd 9fa1 5b3d 6af4 f9bd 8cfd e73d
00000300: f915 c83d a898 c4bb 646e 80bc cdc2 443c
00000310: b760 b7bc 0fa0 c4bd fce0 483d beea 013e
00000320: 7841 17be 4da4 2ebd 87ba 9abd 9ee7 c9bd
00000330: e80c e73c a3c4 b23d 1222 d93d fbf6 3a3c
00000340: 05cf c03d 22bd d73b 653c d2bd 14e0 e53d
00000350: 205b 433d 9873 133e b37b 1c3e 20a6 90bc
00000360: 171a e03d 649a e63d 2c54 03be 540f 493c
00000370: 4022 563d 4eeb 4b3d 9a60 0fbe d6a2 8cbd
00000380: f72b ad3d 7dad 213e 15e7 9abb a028 7c3c
00000390: 03e4 d2bd ebf2 8ebd 9842 f23d 0cba 933d
000003a0: cbe5 f63d 21a2 0cbe 62f8 d83d 1abb a33d
000003b0: a596 c8bd 1cd2 38bc 51c7 a7bd fc86 9dbc
000003c0: e39b f93c a9b3 183e 6469 343d a7e7 c3bd
000003d0: 731f 1ebe bc2e 56bd cbe4 d73d 1113 33bd
000003e0: da3f 3abd 8d47 ec3d e926 a73d a427 8c3d
000003f0: 804b 7a3c db64 b43d 4f3a 9c3b fd5b 6cbc

conv_layers.0.lin_skip.weight f4 [64, 64]
0.053275563 0.034278255 0.028023543 0.03744635 -0.03902421 0.05961683 -0.0028806925 -0.03649132
0.12125598 -0.057177868 0.107487515 0.05087239 -0.10471704 -0.021876281 0.13074435 0.042280056
0.08301704 -0.0043567927 -0.11222409 -0.09728237 0.093651555 0.12193453 0.09250865 -0.11087337
0.018300993 0.10068292 -0.12206061 -0.034248926 -0.018244578 0.008001655 -0.12251788 -0.039866287
-0.08823535 -0.10620393 0.063747875 -0.07443323 0.08171299 -0.11540417 0.039680876 -0.043630686
0.111689106 0.015950821 -0.055994537 0.09067488 0.053252675 0.09425161 0.022629276 -0.06340941
-0.057736766 -0.054017846 0.019332929 -0.025906315 0.045813773 -0.031237328 -0.04811152 0.09627046
0.02003142 0.038429722 0.13654912 0.10368468 -0.09326744 0.034148224 0.0579944 0.11272544
0.01106487 0.009073294 0.09335887 -0.0758837 0.06205415 -0.054464236 -0.09012858 -0.09055827
0.0074237897 0.07355508 -0.100414604 -0.05034251 0.011843737 0.12578468 0.020326138 -0.040008284
-0.087203205 0.068167426 -0.07685494 0.12012366 -0.075906746 0.11853595 -0.09428543 -0.10088803
0.0049774004 0.01897092 0.10806765 -0.114355154 -0.06977049 -0.09189859 0.042013835 -0.075361796
0.11549716 0.10597711 0.0501289 -0.04454993 0.013209491 0.06318756 -0.07081744 -0.046548992
-0.07108908 -0.07044565 -0.08968488 -0.0562913 0.01483513 0.11891442 -0.034392957 -0.028671216
0.07023055 -0.079071894 0.10904787 -0.11122118 0.041473486 -0.096710324 0.066949785 0.053312737
-0.1459758 -0.09535438 -0.11799158 0.070207514 0.030158237 -0.06779473 0.15121987 -0.11787855
-0.0005603256 -0.035846442 -0.114514776 -0.06268932 -0.10649532 0.009537552 0.037768982 -0.08154741
0.024081934 -0.1295113 -0.07289589 0.0120327175 -0.09941697 0.10618768 0.043837838 0.01645387
0.054656778 -0.0760207 0.10903273 0.09030015 -0.10463538 -0.11837543 0.023378622 0.08014919
-0.12901329 -0.07969257 -0.063578956 0.04268648 0.008056033 0.009968555 -0.05169604 0.0403194
-0.007529309 -0.103753775 -0.032994173 -0.102730915 -0.04109904 0.06693228 -0.037686083 0.107339166
0.014285721 0.11930196 0.1417229 -0.08036802 -0.009869181 0.061356198 -0.036895633 -0.10763919
0.05801997 -0.113987625 0.09193945 0.08687342 -0.11365175 0.13979964 0.012951388 0.012633837
0.054729644 -0.07900674 -0.04059782 -0.050276652 0.028062673 0.082338125 0.04848615 -0.07310641
-0.018101625 -0.022376876 0.039120913 -0.035955228 0.0129432045 0.032445665 0.12247071 -0.074815005
-0.05939601 0.08514424 -0.035078038 0.032662585 0.085710965 -0.0577791 -0.09177501 0.01515006
-0.048058473 0.024709826 -0.11851555 0.11101939 -0.032142103 0.0008627822 -0.06187512 -0.02269789
0.007872502 0.07996221 0.032507293 -0.06136661 0.0790423 0.035800707 -3.8088387e-05 -0.07000998
0.0560335 0.020632152 -0.102171645 -0.06256989 0.06587734 0.06383098 -0.019011946 -0.028786814
0.029767197 -0.08224109 0.022739481 0.10484046 0.107276425 -0.049913988 0.10031187 -0.0089984285
0.06850504 0.15640432 0.08073537 -0.0265119 0.10624006 -0.11650226 -0.08406803 -0.08948695
-0.09609775 0.09775181 0.033693988 0.040883955 0.11781355 -0.09611967 0.0242931 -0.12630166
00000000: 7a37 5a3d 5b67 0c3d a191 e53c 5861 193d
00000010: dad7 1fbd c730 743d 00ca 3cbb ec77 15bd
00000020: 0e55 f83d 5733 6abd 6a22 dc3d 915f 503d
00000030: e375 d6bd e335 b3bc d9e1 053e da2d 2d3d
00000040: d604 aa3d 6dc3 8ebb bed5 e5bd fb3b c7bd
00000050: 63cc bf3d d0b8 f93d 2d75 bd3d 9411 e3bd
00000060: f7eb 953c d932 ce3d eafa f9bd 9a48 0cbd
00000070: a775 95bc 6019 033c a7ea fabd d54a 23bd
00000080: bcb4 b4bd 7281 d9bd 3f8e 823d 7370 98bd
00000090: 2459 a73d 0559 ecbd 6a88 223d 17b6 32bd
000000a0: 42bd e43d 4cab 823c 875a 65bd c0b3 b93d
000000b0: 7a1f 5a3d fd06 c13d 0861 b93c cbdc 81bd
000000c0: 637d 6cbd d141 5dbd 1760 9e3c 7b39 d4bc
000000d0: 39a7 3b3d 6de5 ffbc 9610 45bd 7229 c53d
000000e0: ef18 a43c 7c68 1d3d 88d3 0b3e a258 d43d
000000f0: 0003 bfbd 02df 0b3d 898b 6d3d 98dc e63d
00000100: 6e49 353c 27a8 143c ef32 bf3d ea68 9bbd
00000110: 7e2c 7e3d e415 5fbd 5595 b8bd 9d76 b9bd
00000120: 4343 f33b 0ca4 963d 2ca6 cdbd f333 4ebd
00000130: 3c0c 423c b3cd 003e 0083 a63c badf 23bd
00000140: 9897 b2bd 5d9b 8b3d 1f66 9dbd 6503 f63d
00000150: ff74 9bbd fac2 f23d b818 c1bd 629e cebd
00000160: 7619 a33b e768 9b3c 9252 dd3d 0933 eabd
00000170: d5e3 8ebd 5435 bcbd b316 2c3d 4957 9abd
00000180: c689 ec3d 870a d93d f653 4d3d fd79 36bd
00000190: 9f6c 583c 7b68 813d bc08 91bd 28aa 3ebd
000001a0: 2797 91bd cf45 90bd b5ac b7bd b591 66bd
000001b0: 0c0f 733c 6789 f33d a1df 0cbd e6df eabc
000001c0: 09d5 8f3d 72f0 a1bd 7d54 df3d eec7 e3bd
000001d0: 1ae0 293d 1010 c6bd f81c 893d 755e 5a3d
000001e0: ae7a 15be 2849 c3bd 92a5 f1bd f5c8 8f3d
000001f0: 680e f73c f7d7 8abd 62d9 1a3e 4f6a f1bd
00000200: d1e2 12ba b8d3 12bd b986 eabd 4263 80bd
00000210: 381a dabd 6443 1c3c a6b3 1a3d 5402 a7bd
00000220: 7a47 c53c 9c9e 04be 714a 95bd e024 453c
00000230: 209b cbbd ed78 d93d 4e8f 333d 44ca 863c
00000240: c9df 5f3d beb0 9bbd 8d4c df3d 49ef b83d
00000250: 134b d6bd d16e f2bd 8684 bf3c 4225 a43d
00000260: 0f1c 04be dc35 a3bd af35 82bd 05d8 2e3d
00000270: 74fd 033c 2653 233c 3abf 53bd f525 253d
00000280: 6cb8 f6bb dc7c d4bd e624 07bd 9664 d2bd
00000290: 7857 28bd cb13 893d b95c 1abd a3d4 db3d
000002a0: a80e 6a3c 9654 f43d cf1f 113e fd97 a4bd
000002b0: 58b2 21bc a350 7b3d e01f 17bd f071 dcbd
000002c0: 59a6 6d3d 5872 e9bd c04a bc3d b1ea b13d
000002d0: 40c2 e8bd a327 0f3e 0f32 543c 27fe 4e3c
000002e0: 312c 603d 49ce a1bd e649 26bd e4ee 4dbd
000002f0: b1e3 e53c e4a0 a83d 6a99 463d d0b8 95bd
00000300: dc49 94bc b64f b7bc 403d 203d ca45 13bd
00000310: bc0f 543c bfe5 043d ecd1 fa3d 9c38 99bd
00000320: 3b49 73bd 1a60 ae3d fdad 0fbd 34c9 053d
00000330: 3b89 af3d c7a9 6cbd 89f4 bbbd f537 783c
00000340: f6d8 44bd 436c ca3c 48b8 f2bd 225e e33d
00000350: 70a7 03bd 552c 623a c470 7dbd edf0 b9bc
00000360: abfb 003c 3ac3 a33d 5e26 053d 8e5b 7bbd
00000370: eee0 a13d c3a3 123d 18c1 1fb8 6461 8fbd
00000380: 6283 653d c204 a93c 5e3f d1bd a424 80bd
00000390: b3ea 863d d1b9 823d f1be 9bbc 53d2 ebbc
000003a0: 56da f33c 046e a8bd 2648 ba3c 98b6 d63d
000003b0: beb3 db3d 9c72 4cbd 4f70 cd3d 256e 13bc
000003c0: 5f4c 8c3d 7428 203e 9658 a53d 7c2f d9bc
000003d0: 6394 d93d bd98 eebd dc2b acbd ef44 b7bd
000003e0: e6ce c4bd 1a32 c83d b502 0a3d ef75 273d
000003f0: 3b48 f13d 64da c4bd 5302 c73c 3955 01be

conv_layers.0.lin_skip.bias f4 [64]
-0.038371485 -0.05670652 0.01991755 0.010370358 -0.06287143 -0.035674248 -0.030714856 0.066381454
0.034750838 -0.057974562 -0.040786944 0.041169126 -0.06235641 0.03930718 -0.01252783 0.051157936
-0.1073838 0.12348801 -0.031207668 0.051924057 0.066292 -0.019345377 0.059032854 0.095148176
-0.044792406 0.023304021 -0.018969065 0.12083938 -0.0004168742 0.05784668 0.046280656 0.091410406
0.09286832 0.048913833 0.08753353 -0.00067983486 0.07947015 0.06503889 0.013189899 0.0009370233
-0.08846655 -0.09496393 -0.07183521 0.06430959 0.10230657 0.044922333 0.08920182 -0.020546686
-0.064350545 0.0067024482 0.005200251 0.12557963 0.059436344 0.013715546 0.049202956 0.0035099292
0.056723893 0.008927673 0.024375016 0.018597165 0.031554237 0.080160104 -0.12398716 -0.07612448
00000000: 6b2b 1dbd 1945 68bd 212a a33c 6fe8 293c
00000010: bcc2 80bd 291f 12bd b99d fbbc 00f3 873d
00000020: e556 0e3d bc76 6dbd 3610 27bd f5a0 283d
00000030: 6f69 7fbd 9100 213d 8741 4dbc fc8a 513d
00000040: 0aec dbbd 48e7 fc3d 39a7 ffbc 52ae 543d
00000050: 1ac4 873d 327a 9ebc 6fcc 713d 0cdd c23d
00000060: 3e78 37bd 13e8 be3c 0365 9bbc a37a f73d
00000070: e88f dab9 a4f0 6c3d c990 3d3d 6135 bb3d
00000080: bf31 be3d df59 483d c844 b33d f236 32ba
00000090: 3fc1 a23d 1c33 853d 721a 583c 92a2 753a
000000a0: f32d b5bd 737c c2bd 571e 93bd bfb4 833d
000000b0: 1b86 d13d 7b00 383d 72af b63d 8651 a8bc
000000c0: 38ca 83bd 36a0 db3b de66 aa3b f297 003e
000000d0: 8673 733d 2bb7 603c 0a89 493d d706 663b
000000e0: 5057 683d 6045 123c 1dae c73c 1559 983c
000000f0: 043f 013d fb2a a43d fbec fdbd 27e7 9bbd

conv_layers.0.lin_beta.weight f4 [1, 192]
-0.017485756 -0.0018250303 -0.03697319 -0.0036149707 0.019926384 -0.061799586 0.0036266507 -0.010646179
0.03516342 -0.099722855 -0.009856968 0.045602452 0.07385353 0.041193973 0.077957995 -0.01675044
-0.0072236015 0.07471212 -0.010254675 0.031353734 -0.09867321 0.024859333 -0.015525147 -0.032759942
0.030354181 -0.07386674 -0.043656107 0.039143637 -0.02701406 0.045939986 0.047100395 -0.07830724
-0.023821918 -0.051098637 0.025625614 0.085173346 -0.053758617 0.04219343 0.03398471 -0.03313062
-0.072744444 -0.010099896 0.007978991 0.01748916 -0.025616437 -0.03300483 0.02806939 0.0044548716
0.01524691 0.051235262 -0.07299644 -0.00659358 -0.027279971 -0.02266828 -0.0062708864 0.036517166
-0.07695618 -0.054331504 0.021678928 0.04721072 0.061376788 -0.02472729 -0.030796142 -0.09053258
0.04349159 -0.014795022 0.01306834 -0.017625287 0.0054773944 -0.063896 -0.012870617 -0.08796442
-0.0742563 0.013351419 -0.055832796 0.033863433 -0.0028790766 -0.03123059 0.04928308 -0.06286785
-0.0032583305 0.027696947 -0.03651088 0.062167715 -0.05282179 0.07728084 -0.0571996 0.03618997
-0.016683305 -0.118045844 0.049131654 -0.084855795 0.085767806 -0.080178306 -0.11793874 0.08804566
0.064569175 -0.029287832 -0.025834426 0.013945295 -0.07461999 -0.0674588 -0.1353408 0.10156058
-0.04866693 0.04130107 0.07858108 -0.022555424 0.069007665 -0.08010125 -0.035674576 0.027124608
-0.051501628 -0.017400095 0.061454408 -0.02210163 0.008279769 0.09710887 -0.0420547 0.023105143
0.0027128314 -0.10073883 0.0042216755 -0.06551519 -0.0023919123 -0.11307375 -0.02827913 0.05102894
-0.09188689 -0.0073120594 -0.005612789 0.15487124 -0.029869355 0.09184831 -0.028928144 0.016273009
0.05967794 -0.04326453 -0.037989367 0.022194017 0.07635643 -0.01914138 0.089770414 -0.08918443
0.026510244 0.074234046 0.07364436 0.020073323 0.038917854 0.0036362687 0.049218945 -0.078647286
-0.06931719 0.06507689 0.025977297 0.032134507 -0.03197557 0.077366315 0.14054869 0.023218498
-0.09946409 -0.010879661 0.018129367 0.08157394 0.05115662 0.05408132 0.17942064 0.041932408
0.065002166 -0.003302307 -0.025515862 0.008955051 0.08402599 -0.033194795 -9.129117e-05 -0.03962778
0.044227786 0.049007047 -0.040508024 0.049367502 -0.0049890885 -0.123723105 0.053820472 -0.039487597
0.07934237 0.10964159 -0.06454448 0.06577798 -0.01647729 0.10094162 -0.032106344 -0.021211065
00000000: 4a3e 8fbc db35 efba 3371 17bd 25e9 6cbb
00000010: a83c a33c 9021 7dbd 1aad 6d3b 506d 2ebc
00000020: 8507 103d 7f3b ccbd 1f7f 21bc a3c9 3a3d
00000030: 8540 973d 03bb 283d 71a8 9f3d 3838 89bc
00000040: f6b3 ecbb ab02 993d 3903 28bc c66c 003d
00000050: 2e15 cabd cda5 cb3c 305d 7ebc 4a2f 06bd
00000060: 55a9 f83c 7247 97bd bfd0 32bd 1455 203d
00000070: 974c ddbc 912b 3c3d 58ec 403d 8c5f a0bd
00000080: 2f26 c3bc ce4c 51bd cfec d13c 5d6f ae3d
00000090: ff31 5cbd 05d3 2c3d 8d33 0b3d f9b3 07bd
000000a0: 0afb 94bd 097a 25bc 50ba 023c 6d45 8f3c
000000b0: 90d9 d1bc 1330 07bd c7f1 e53c 2cfa 913b
000000c0: 2dce 793c 11dc 513d 287f 95bd f50e d8bb
000000d0: 3f7a dfbc d4b2 b9bc 027c cdbb 0693 153d
000000e0: 349b 9dbd b68a 5ebd 0298 b13c 0760 413d
000000f0: 3a66 7b3d e390 cabc 3148 fcbc 2569 b9bd
00000100: 3d24 323d d266 72bc 971c 563c e862 90bc
00000110: b77b b33b e8db 82bd 48df 52bc b126 b4bd
00000120: b013 98bd e9bf 5a3c eeb0 64bd 62b4 0a3d
00000130: e4ae 3cbb 4bd7 ffbc 0edd 493d dcc0 80bd
00000140: b789 55bb b5e4 e23c 6f8c 15bd 93a3 7e3d
00000150: a95b 58bd 6b45 9e3d 214a 6abd ef3b 143d
00000160: 6dab 88bc 05c2 f1bd 463e 493d e0c8 adbd
00000170: 08a7 af3d 8634 a4bd de89 f1bd 4851 b43d
00000180: d83c 843d 09ed efbc b8a2 d3bc ce7a 643c
00000190: 5ed2 98bd d727 8abd c796 0abe fefe cf3d
000001a0: fa56 47bd 502b 293d 1eef a03d 27c6 b8bc
000001b0: e453 8d3d 200c a4bd 811f 12bd 6d34 de3c
000001c0: 5ff3 52bd a58a 8ebc 9eb7 7b3d 7a0e b5bc
000001d0: dea7 073c 04e1 c63d 8d41 2cbd ff46 bd3c
000001e0: c2c9 313b 2950 cebd fb55 8a3b d42c 86bd
000001f0: a1c1 1cbb 3693 e7bd a2a9 e7bc b903 513d
00000200: 322f bcbd 009a efbb 7deb b7bb 9196 1e3e
00000210: 94b0 f4bc f71a bc3d b7fa ecbc f94e 853c
00000220: db70 743d 2636 31bd bd9a 1bbd 3ad0 b53c
00000230: c360 9c3d 62ce 9cbc 8dd9 b73d 54a6 b6bd
00000240: 032c d93c 0508 983d dbd2 963d cf70 a43c
00000250: 5468 1f3d 774e 6e3b ce99 493d d411 a1bd
00000260: 2cf6 8dbd 0847 853d 57ce d43c 799f 033d
00000270: d1f8 02bd 3b72 9e3d ffeb 0f3e b834 be3c
00000280: d4b3 cbbd 9b40 32bc 0a84 943c 3d10 a73d
00000290: 9b89 513d 6084 5d3d 0bba 373e 51c1 2b3d
000002a0: db1f 853d 856b 58bb a406 d1bc 35b8 123c
000002b0: d115 ac3d 44f7 07bd 9373 bfb8 bd50 22bd
000002c0: 3228 353d 9dbb 483d beeb 25bd 9435 4a3d
000002d0: 827b a3bb 8a62 fdbd db72 5c3d bfbd 21bd
000002e0: 417e a23d c58b e03d e52f 84bd 9bb6 863d
000002f0: 62fb 86bc 7bba ce3d f181 03bd d4c2 adbc

transf_layers.0.weight f4 [64, 64]
-0.09320407 -0.083182506 0.010587576 -0.07717443 -0.05411469 0.06312681 -0.0061473567 -0.06724201
-0.089257665 0.087109156 0.024986044 0.06260734 -0.0063195378 -0.073784925 -0.11484845 0.1156856
0.04471783 0.0451418 -0.0838623 -0.11376019 -0.033460185 -0.028409936 -0.1252176 -0.09815257
-0.03371047 0.07394297 0.120818436 -0.012766966 0.13823624 -0.10830675 -0.027123293 -0.10777741
0.057398487 -0.07382075 0.088035725 0.013038719 -0.08029684 -0.10346165 0.000357248 -0.02431029
0.046948485 -0.051360253 -0.008716869 0.12141374 0.056364793 0.07372687 -0.02541949 -0.006414576
-0.08218127 -0.052864645 0.08019115 0.05582976 -0.07962231 0.114840925 0.051965017 0.11074484
-0.12847655 0.07286099 0.057629947 -0.117149346 0.045436043 -0.10547271 -0.028304515 -0.0074354196
0.005043049 0.0013392112 -0.003654356 -0.047228172 0.025892548 -0.053747598 -0.092157476 -0.13586582
-0.005015893 -0.05207617 0.08153761 0.022888554 0.06793351 -0.014389377 0.096536405 0.12880298
0.061127245 -0.023920547 -0.043863863 -0.03115741 0.0050582187 -0.06980967 -0.008049425 0.12032785
-0.064815186 -0.07731339 0.05450428 0.04923726 -0.10145871 -0.07579646 -0.04865484 0.012877641
-0.025427826 -0.091343515 0.035011034 0.0022145703 -0.101589866 -0.064103544 0.0147699835 -0.051425517
-0.062107563 0.05331656 0.107707106 -0.08229585 -0.09571138 -0.04144046 -0.07586603 0.018096086
0.023805916 -0.033804957 -0.013146561 0.11187227 -0.002353898 0.07258284 -0.11509558 -0.12069365
-0.08995205 -0.11245308 -0.06301835 0.13254477 -0.04405157 0.12222744 0.008721672 -0.05722051
0.093097076 -0.022374418 0.011550091 -0.09192036 0.11599977 0.036554385 0.13156675 -0.016854785
-0.08988238 0.08597298 -0.070685185 0.08285877 0.036460795 -0.025999185 -0.018007115 -0.008923535
0.14016677 0.08187569 0.15161495 0.045214683 -0.09455036 -0.08668929 -0.11107296 -0.015614153
-0.10204055 -0.07757433 -0.0057365 -0.12911454 -0.046298623 -0.0010523737 0.054911233 0.10034506
0.061790626 -0.114174865 -0.061274886 -0.07400924 0.0059299367 0.13336256 0.099059895 0.13573727
0.08038739 -0.1369639 0.0029336584 -0.04779908 0.010687434 0.09506461 0.10582463 -0.08430352
-0.06379013 0.059506394 -0.004141278 0.020704826 -0.12555361 0.034946874 0.10281828 0.016891517
0.07397889 -0.030388797 -0.019730894 -0.027846767 -0.11610354 0.009685594 0.038765796 0.13154565
-0.001573162 -0.12371765 -0.033271685 0.020310411 -0.12515028 -0.0021040342 0.056671634 -0.060331505
0.09135562 0.024574472 0.022123694 0.019034915 0.07509627 0.017781172 -0.039522212 0.0020171572
-0.037839625 -0.08286365 -0.0019257516 0.00874465 0.06552524 -0.0782811 0.07118451 0.0008463943
-0.04626484 0.067544155 0.029534528 0.028775 -0.090355106 -0.07566139 -0.0039467043 0.0013328706
0.022207318 0.01743535 -0.0900716 -0.08649949 -0.042994786 -0.087633625 -0.11241795 -0.1106497
0.020130364 -0.118082106 -0.12119913 0.12257615 0.06633546 0.049012583 -0.12863429 0.0051271967
-0.08812768 -0.04202146 -0.124733746 -0.02588475 0.09936264 -0.09817206 -0.05673391 0.12066266
-0.10150616 0.0049820165 -0.03046846 0.06863955 0.059955336 -0.029073466 -0.0028715793 -0.034656126
00000000: c7e1 bebd 975b aabd 8377 2d3c a10d 9ebd
00000010: 5da7 5dbd a148 813d c46f c9bb 2eb6 89bd
00000020: b9cc b6bd 4966 b23d 88af cc3c 4738 803d
00000030: 2014 cfbb 8d1c 97bd aa35 ebbd 92ec ec3d
00000040: 0b2a 373d 9ce6 383d ffbf abbd 1afb e8bd
00000050: 8c0d 09bd f4bb e8bc 0b39 00be 3704 c9bd
00000060: fd13 0abd 696f 973d a86f f73d 892c 51bc
00000070: cd8d 0d3e eecf ddbd ab31 debc 67ba dcbd
00000080: ad1a 6b3d 552f 97bd 134c b43d 5aa0 553c
00000090: ab72 a4bd b4e3 d3bd 044d bb39 6026 c7bc
000000a0: 0e4d 403d 215f 52bd 33d1 0ebc c4a7 f83d
000000b0: c5de 663d 1dfe 963d 893c d0bc 5d31 d2bb
000000c0: a74e a8bd 9988 58bd 423b a43d bfad 643d
000000d0: 0611 a3bd b831 eb3d 45d9 543d 31ce e23d
000000e0: 5b8f 03be 2538 953d 610d 6c3d ffeb efbd
000000f0: 251b 3a3d 1402 d8bd dfde e7bc d2a4 f3bb
00000100: 2940 a53b 7988 af3a ec7d 6fbb 5472 41bd
00000110: 9c1c d43c 7126 5cbd 0fbd bcbd 6920 0bbe
00000120: 5c5c a4bb d24d 55bd 31fd a63d c780 bb3c
00000130: b920 8b3d 6cc1 6bbc e1b4 c53d eee4 033e
00000140: 9060 7a3d 06f5 c3bc 98aa 33bd d33d ffbc
00000150: 6abf a53b 5ff8 8ebd bce1 03bc 736e f63d
00000160: d3bd 84bd 7c56 9ebd e13f 5f3d 02ad 493d
00000170: 96c9 cfbd 2d3b 9bbd 4c4a 47bd befc 523c
00000180: 044e d0bc 4f12 bbbd bb67 0f3d 5322 113b
00000190: 590e d0bd b848 83bd cdfd 713c 90a3 52bd
000001a0: 8064 7ebd 7762 5a3d 8b95 dc3d ba8a a8bd
000001b0: 5404 c4bd 79bd 29bd a65f 9bbd 3e3e 943c
000001c0: a004 c33c 1177 0abd ac64 57bc 4a1d e53d
000001d0: db43 1abb 50a6 943d 3bb7 ebbd 3b2e f7bd
000001e0: c838 b8bd cd4d e6bd c40f 81bd d1b9 073e
000001f0: 6b6f 34bd 6152 fa3d 58e5 0e3c 0e60 6abd
00000200: aea9 be3d 8e4a b7bc 983c 3d3c be40 bcbd
00000210: 4a91 ed3d 0dba 153d 6fb9 063e 0c13 8abc
00000220: 4114 b8bd 9a12 b03d 65c3 90bd dcb1 a93d
00000230: ea57 153d 3efc d4bc a883 93bc 0534 12bc
00000240: e187 0f3e 71ae a73d f340 1b3e 0833 393d
00000250: 9fa3 c1bd 288a b1bd 387a e3bd 81d2 7fbc
00000260: a3fa d0bd 4adf 9ebd 40f9 bbbb 9a36 04be
00000270: a0a3 3dbd cdef 89ba 9aea 603d b681 cd3d
00000280: 2b18 7d3d 83d4 e9bd 60fb 7abd 2892 97bd
00000290: ea4f c23b 3290 083e eadf ca3d b6fe 0a3e
000002a0: 25a2 a43d 4440 0cbe 9f42 403b f8c8 43bd
000002b0: 591a 2f3c 3cb1 c23d 95ba d83d 53a7 acbd
000002c0: 66a4 82bd fabc 733d 8fb3 87bb 2b9d a93c
000002d0: 2091 00be 7424 0f3d 6492 d23d 1460 8a3c
000002e0: 3f82 973d edf1 f8bc afa2 a1bc e71e e4bc
000002f0: b1c7 edbd 53b0 1e3c e2c8 1e3d e7b3 063e
00000300: 8f32 ceba ae5f fdbd e447 08bd 0562 a63c
00000310: 6527 00be d6e3 09bb 8420 683d 2b1e 77bd
00000320: a818 bb3d 6750 c93c c03c b53c 1cef 9b3c
00000330: 13cc 993d d2a9 913c 0be2 21bd 4832 043b
00000340: b9fd 1abd 6bb4 a9bd 8069 fcba b845 0f3c
00000350: 1932 863d d751 a0bd 2fc9 913d 8fe0 5d3a
00000360: 3380 3dbd 9754 8a3d 65f2 f13c 8cb9 eb3c
00000370: 190c b9bd 5cf4 9abd 5b53 81bb b7b3 ae3a
00000380: 1fec b53c 94d4 8e3c 7677 b8bd a526 b1bd
00000390: 4d1b 30bd 4279 b3bd 623b e6bd 4f9c e2bd
000003a0: 6fe8 a43c 08d5 f1bd 4037 f8bd 3409 fb3d
000003b0: e3da 873d 6bc1 483d b5b8 03be 0b02 a83b
000003c0: 497c b4bd b21e 2cbd 6874 ffbd 410c d4bc
000003d0: a47e cb3d 6f0e c9bd d161 68bd fc1d f73d
000003e0: 76e2 cfbd 2f40 a33b fe98 f9bc e492 8c3d
000003f0: ba93 753d 7a2b eebc 1b31 3cbb 95f3 0dbd
