models/GTransCYPs_1A2.pth (torch, 738727 bytes, 86 tensors)

conv_layers.0.lin_key.weight f4 [64, 64]
0	0xbd1774e5	-0.036976714
1	0xbced6e50	-0.028983265
2	0xbdc383fc	-0.095466584
3	0xba69a211	-0.00089123944
4	0x3cc31ced	0.023817504
5	0xbd850422	-0.06494929
6	0x3d481b8b	0.048854392
7	0xbb2fcd3a	-0.0026825205
8	0xbbb3ba96	-0.0054848893
9	0xbdc17f33	-0.094480895
10	0x3da3a4c4	0.07990411
11	0x3d9d2d36	0.07674639
12	0xbda10311	-0.07861913
13	0xbd8a47a0	-0.06751943
14	0x3d00837f	0.031375404
15	0x3bfc3e0e	0.007697827
16	0x3df3b3a7	0.118995
17	0xbd2fa070	-0.042877614
18	0xbd9ca378	-0.07648367
19	0x3ddabe42	0.1068082
20	0x3dcd4588	0.10023028
21	0xbcbb1d60	-0.022841156
22	0xbddd73f0	-0.10813129
23	0x3e011366	0.12605056
24	0xbd4c0c26	-0.049816273
25	0xbda4fea3	-0.080563806
26	0x3cf6f309	0.030145185
27	0xbb893848	-0.0041876175
28	0x3d114870	0.035469472
29	0xbca02405	-0.019548425
30	0x3d501686	0.05080273
31	0x3ce366b4	0.027758934
32	0x3d8e6035	0.06951944
33	0xbd858019	-0.06518573
34	0x3d6f7717	0.058463182
35	0x3cceea2f	0.025258152
36	0xbde2afc8	-0.11068684
37	0xbc05b97c	-0.008161899
38	0xbd3ad94c	-0.045617387
39	0x3c5251b2	0.0128368605
40	0x3d70e002	0.05880738
41	0x3d80d48e	0.062905416
42	0xbdb88b40	-0.09010935
43	0xbd8b8aa7	-0.06813555
44	0xbdf87aa8	-0.1213277
45	0x3c907c05	0.017637262
46	0x3debef7c	0.115202874
47	0x3d12c73d	0.03583454
48	0xbce574b3	-0.028009748
49	0x3dac7812	0.08421339
50	0xbdc6c08b	-0.097046934
51	0x3d8d23bf	0.06891584
52	0xbd9bdbc9	-0.0761028
53	0x3d78d1df	0.060747024
54	0xbd82c669	-0.063855
55	0x3d983834	0.07432595
56	0xbdc0418c	-0.09387502
57	0x3d9c4876	0.07631008
58	0xbda95be6	-0.08269481
59	0xbde80dc7	-0.11330753
60	0x3da22a4a	0.07918222
61	0xbdf5a7f3	-0.119949244
62	0xbdf969a5	-0.12178353
63	0xbdccdd30	-0.10003126
64	0x3d75279a	0.05985222
65	0x3de298d5	0.11064307
66	0x3da294f5	0.079385675
67	0x3de0784a	0.10960443
68	0x3b00f2d9	0.0019675998
69	0xbceb81d6	-0.028748434
70	0xbd9aa6e0	-0.0755136
71	0xbcdd65fe	-0.027026173
72	0xbd8fd74b	-0.07023486
73	0x3ccea4e6	0.025225114
74	0xbc9edccb	-0.019392392
75	0xbdc89726	-0.09794454
76	0x3d595dd7	0.05306801
77	0xbcaa4ff1	-0.020790072
78	0x3dbb7c31	0.09154547
79	0x3df99b97	0.121878795
80	0xbd737979	-0.059442017
81	0xbd7cf2e2	-0.06175507
82	0xbdafa329	-0.08576042
83	0xbdb0dcbe	-0.08635853
84	0xbd92bd98	-0.071650684
85	0x3de54432	0.11194648
86	0x3d3e22ad	0.04641979
87	0xbde0e390	-0.10980904
88	0x3d8a41bb	0.06750818
89	0x3dcba2c5	0.09943155
90	0x3d146b21	0.03623498
91	0x3dd862dc	0.10565731
92	0xbba72834	-0.005101228
93	0xbdbe6de3	-0.09298303
94	0xbdcc981b	-0.09989949
95	0x3dce7e11	0.10082639
96	0x3d4f6858	0.05063662
97	0xbdc90797	-0.09815901
98	0x3d803b82	0.0626135
99	0xbd50df3c	-0.050994143
100	0x3cbf5647	0.02335657
101	0xbdc0ad69	-0.09408075
102	0xbd10f869	-0.035393152
103	0x3c99b11e	0.018761214
104	0x3d43ab8a	0.047771014
105	0x3d719436	0.058979236
106	0xbde535a2	-0.1119187
107	0x3dd2935c	0.10282013
108	0x3d5512b2	0.052019782
109	0x3dbbd2cb	0.09171065
110	0x3d452835	0.048134048
111	0xbd8ed2f9	-0.069738336
112	0xbd9dd8ce	-0.07707368
113	0x3cfa0ee9	0.030524688
114	0x3c4d19bb	0.012518342
115	0xbc069bcb	-0.008215855
116	0x3d0e4e61	0.034742717
117	0x3d6e1fb5	0.058135707
118	0xbc06255d	-0.008187619
119	0x3db2f736	0.08738558
120	0x3d42b6a0	0.047537446
121	0xbdaa40e6	-0.0831316
122	0x3d86444d	0.06555996
123	0x3d7b96a1	0.061422948
124	0xbde33a06	-0.110950515
125	0xbde62486	-0.11237435
126	0x3c20afe1	0.009807558
127	0x3cc581a5	0.02410967
128	0xbd5e634f	-0.054293927
129	0x3ddce4a9	0.10785801
130	0x3d8d7496	0.06907003
131	0x3d4fc8bd	0.05072855
132	0x3cc50739	0.024051296
133	0x3dde206e	0.10846029
134	0x3d651000	0.055923462
135	0xbc0d69ad	-0.008631152
136	0x3c81f5cf	0.015864281
137	0x3db209d1	0.086932786
138	0x3d91fc39	0.07128186
139	0x3d18b130	0.037278354
140	0x3dd8ab88	0.10579592
141	0x3d554caa	0.052075066
142	0xbd71a5fa	-0.05899618
143	0xbd902465	-0.07038192
144	0x3db5af61	0.088713415
145	0x3d776786	0.060401462
146	0x3c8d3047	0.017234934
147	0xbdab1925	-0.08354405
148	0xbd6b3e3b	-0.057432394
149	0x3d4b74f3	0.04967208
150	0x3d4b0aae	0.04957073
151	0xbdd9d794	-0.106368214
152	0x3b925909	0.00446618
153	0xbd94c5f4	-0.07264319
154	0xbde66690	-0.11250031
155	0xbd0d7492	-0.034535
156	0xbdb35456	-0.0875632
157	0xbcf825a5	-0.030291388
158	0xbc6a0562	-0.01428351
159	0xbd89a904	-0.0672169
160	0x3dc92ae1	0.098226316
161	0xbd4e4cdf	-0.05036628
162	0xbdda3541	-0.106546886
163	0x3c87de7d	0.016585583
164	0xbd1e2753	-0.03861172
165	0xbbc2ff64	-0.005950855
166	0x3d08dd22	0.033414014
167	0xbd66a8d9	-0.05631337
168	0xbdfdf714	-0.12400642
169	0x3d94c32a	0.07263787
170	0xbdcaea27	-0.09907942
171	0xbddb93d2	-0.10721554
172	0x3d80eaf0	0.06294811
173	0xbd2fd9dc	-0.042932376
174	0x3caadbb4	0.020856716
175	0x3d8b6196	0.068057224
176	0x3dc2f691	0.09519685
177	0xbdd68146	-0.10473876
178	0xbce86188	-0.028366819
179	0x3cac7eae	0.0210565
180	0x3cf911c0	0.030403972
181	0x3d8aef8e	0.06783973
182	0xbd05e0bb	-0.032685023
183	0xbdf4ad46	-0.11947112
184	0xbd9033e7	-0.070411496
185	0x3dc59344	0.09647229
186	0xbd78706e	-0.060654096
187	0x3deb78e4	0.114976674
188	0x3daf02e0	0.0854547
189	0x3cee73d6	0.02910797
190	0xbdf58a68	-0.119892895
191	0x3d3ae866	0.04563179
192	0x3ddf0b4e	0.10890828
193	0xbd89c183	-0.067263626
194	0x3baa984c	0.0052061435
195	0x3d9ca07e	0.07647799
196	0xbc41fb86	-0.011839753
197	0xbd8e742a	-0.0695575
198	0x3dd6e012	0.10491957
199	0x3dd4943e	0.103798375
200	0xbda2a6a7	-0.07941943
201	0x3dc97e5b	0.098385535
202	0xbd907c16	-0.070549175
203	0xbd9537e4	-0.07286051
204	0xbdcb6702	-0.099317566
205	0x3d4c00cc	0.049805447
206	0x3cdfcc92	0.027319226
207	0x3d4aedd4	0.049543217
208	0xbde8aa3a	-0.11360593
209	0x3bd14875	0.0063868114
210	0xbc43814c	-0.011932682
211	0xbdd9f436	-0.10642283
212	0xbdd6a1ab	-0.104800545
213	0x3d2dcdfe	0.042432778
214	0xbd923651	-0.07139266
215	0xbabe33f4	-0.0014511333
216	0x3dcb7859	0.09935064
217	0xbd0f0408	-0.034915954
218	0xbd514c18	-0.05109796
219	0x3d3f4f61	0.04670656
220	0x3d47226b	0.048616808
221	0x3dabd916	0.08391015
222	0xbd61fd61	-0.05517328
223	0xbd9440a2	-0.0723889
224	0xbdb99f25	-0.090635575
225	0x3d838bc9	0.06423146
226	0x3ba8682c	0.0051393714
227	0x3da768e1	0.08174301
228	0xbd810940	-0.063005924
229	0x3db68be8	0.08913404
230	0xbce58b38	-0.028020486
231	0x3dbb0853	0.09132447
232	0xbd792dec	-0.06083481
233	0xbde6cfaf	-0.11270081
234	0x3dcb9ba2	0.09941794
235	0x3d0a088d	0.03369956
236	0x3b9f43fc	0.0048603993
237	0x3d30db6a	0.043178
238	0x3bf2d04d	0.0074100853
239	0x3c9c112c	0.019051157
240	0xbb9c46ec	-0.0047691967
241	0x3bba07f5	0.005677218
242	0x3d59f5e6	0.053213023
243	0x3deae1e1	0.11468864
244	0x3cc649dc	0.02420514
245	0xbd075660	-0.033041358
246	0x3bf0646a	0.007336189
247	0xbdce8089	-0.1008311
248	0xbd76a520	-0.06021607
249	0xbbec8390	-0.007217832
250	0xbdfe05c6	-0.12403445
251	0xbcefbc02	-0.029264454
252	0x3df41dac	0.11919722
253	0x3a55507a	0.0008137297
254	0x3df6aae2	0.12044312
255	0x3da88f50	0.0823046

conv_layers.0.lin_key.bias f4 [64]
0	0x3d8ab278	0.067723215
1	0x3dd8baed	0.10582528
2	0x3df85fdf	0.12127661
3	0xbdf6b160	-0.1204555
4	0xbc8a7865	-0.016903112
5	0x3dd741d9	0.10510606
6	0xbddcd7f9	-0.10783381
7	0xbde8ef07	-0.11373716
8	0x3d06fed8	0.03295788
9	0x3d9ecae2	0.077535406
10	0x3d46a5dc	0.04849802
11	0xbce846aa	-0.028354008
12	0x3c7d0857	0.015443883
13	0xbdd986fa	-0.10621448
14	0xbddba010	-0.10723889
15	0xbd68c72f	-0.05683058
16	0xbdcb93d0	-0.09940302
17	0xbda844fb	-0.08216282
18	0xbd1be543	-0.038060438
19	0x3de4592c	0.11149821
20	0x3db7f4ca	0.08982237
21	0xbdcd35f0	-0.100200534
22	0xbdbf9ed9	-0.0935647
23	0xbdb54ccc	-0.088525385
24	0x3d87a6c8	0.06623608
25	0x3d9f411e	0.07776092
26	0x3c812c14	0.015768088
27	0xbc51d9cf	-0.012808277
28	0x3de0ddf6	0.10979836
29	0xbd484391	-0.04889256
30	0xbb10fbfa	-0.0022122846
31	0xbd97bc4a	-0.0740896
32	0x3d5114d1	0.051045243
33	0x3ca8fed1	0.020629318
34	0x3d994d31	0.07485426
35	0x3ce1a7fe	0.027545925
36	0xbdbb0726	-0.09132223
37	0xbdc47e5b	-0.09594413
38	0x3d7d2d86	0.061810993
39	0x3dd29361	0.102820165
40	0xbc9e56e5	-0.019328544
41	0x3d899e28	0.06719619
42	0x3d3c9459	0.046039913
43	0x3dab5b35	0.08367006
44	0x3ddccc70	0.10781181
45	0xbd272d92	-0.040814944
46	0xbdaccc02	-0.08437349
47	0xbd331df7	-0.04372975
48	0xbdf3c190	-0.119021535
49	0xbd9d7522	-0.07688357
50	0xbd7e7d57	-0.062131252
51	0x3d80a633	0.062817
52	0xbd1bbebf	-0.038023707
53	0x3d93f0f6	0.07223694
54	0x3df3d010	0.11904919
55	0x3d069ca4	0.032864228
56	0x3ca740ad	0.020416582
57	0x3b1b5b93	0.0023705706
58	0x3c46eb90	0.012141123
59	0xbdac18f1	-0.08403195
60	0xbdb5ad87	-0.08870988
61	0xbd66782f	-0.05626696
62	0x3dfc0b23	0.12306812
63	0xbd404731	-0.046942893

conv_layers.0.lin_query.weight f4 [64, 64]
0	0x3db09a0b	0.08623131
1	0xbb6cc77e	-0.0036129649
2	0x3c26c390	0.010178462
3	0xbdd74312	-0.105108395
4	0x3d9f1d95	0.07769314
5	0x3dce909c	0.10086176
6	0x3d7bf377	0.061511483
7	0x3d03b170	0.03215164
8	0x3d988804	0.07447818
9	0x3c17adb1	0.00925772
10	0xbd7eef30	-0.062239826
11	0x3d978fe8	0.07400495
12	0x3ac5a635	0.0015079441
13	0x3ddc88de	0.10768293
14	0xbd46ef4d	-0.04856806
15	0xbda79819	-0.08183307
16	0x3d620ca0	0.05518782
17	0xbde2dc08	-0.11077124
18	0xbad5312e	-0.0016265267
19	0x38c8856e	9.5615964e-05
20	0xbc7b18a1	-0.015325696
21	0x3c275d1c	0.01021507
22	0xbd41f1df	-0.047349807
23	0x3d93f69c	0.072247714
24	0x3d9c04c1	0.07618094
25	0xbdc4e095	-0.09613148
26	0x3be5bc33	0.0070109605
27	0x3ca6993a	0.020336736
28	0x3d8497cf	0.06474268
29	0xbdf9580b	-0.12174996
30	0x3d071930	0.032983005
31	0x3c887c5c	0.016660862
32	0xbd845fa8	-0.064635575
33	0xba74e022	-0.000934126
34	0x3d80c2f3	0.062871836
35	0x3ac40c2c	0.0014957241
36	0xbd593ed8	-0.053038448
37	0xbcc3efb0	-0.023918003
38	0x3d91793e	0.07103203
39	0xbd46df75	-0.04855295
40	0xbc74f68f	-0.014951362
41	0xbdbe032a	-0.09277947
42	0x3d2ffb61	0.042964343
43	0xbd4442d4	-0.047915295
44	0x3cb1cb0e	0.02170327
45	0x3cb3c3b4	0.021943904
46	0x3de855cd	0.1134449
47	0x3d5e2af7	0.054240193
48	0xbd3c5dd5	-0.045987923
49	0x3ddc9d12	0.10772146
50	0x3d96e7a4	0.07368401
51	0xbcb3ae27	-0.021933628
52	0x3de292cb	0.11063155
53	0x3da0f9b7	0.07860129
54	0x3dfa0c72	0.12209405
55	0x3d8f4ab0	0.069966674
56	0x3d85fc6a	0.06542285
57	0x3c8f12a9	0.017464953
58	0xbde168b9	-0.110063024
59	0xbcd219c8	-0.02564706
60	0x3d93abca	0.072105005
61	0x3df19e7e	0.11797808
62	0xbd6f6e9b	-0.05845509
63	0xbcc15276	-0.02359889
64	0xbdec1d7f	-0.115290634
65	0xbda201b5	-0.07910482
66	0x3db11654	0.08646837
67	0xbbb7ec8e	-0.0056129163
68	0xbb9931ba	-0.0046751173
69	0x3c974745	0.018466601
70	0xbd72faf9	-0.059321377
71	0xbcd181ba	-0.025574554
72	0x3c1cb908	0.009565599
73	0x3d4181cb	0.04724292
74	0x3d8267bd	0.06367443
75	0xbdcccb4b	-0.099997126
76	0x3c91b7da	0.017787863
77	0xbcc3288f	-0.02382305
78	0x3d2f311d	0.042771447
79	0xbda744ad	-0.08167396
80	0x3bdf9312	0.006822952
81	0xbccb78a1	-0.024837794
82	0x3c3afe0e	0.01141311
83	0x3d9c21f0	0.076236606
84	0x3d6be46a	0.05759088
85	0xbcdeb2ee	-0.02718493
86	0xbcf9f29b	-0.030511191
87	0xbd050e3d	-0.03248428
88	0xbda10d19	-0.07863826
89	0xbdc9dbe7	-0.09856396
90	0xbd99f227	-0.0751689
91	0x3d4ed0ca	0.050492086
92	0x3d6111e4	0.054948702
93	0x3d191458	0.037372917
94	0x3dec3cc7	0.1153503
95	0x3dcda478	0.100411355
96	0x3d72196b	0.05910627
97	0x3d377903	0.04479314
98	0xbddcc25c	-0.107792586
99	0x3d7f2354	0.06228955
100	0xbd46e6b6	-0.048559867
101	0x3c08c84a	0.008348534
102	0x3db38d48	0.08767182
103	0xbccd83c0	-0.025087237
104	0xbb34b6d7	-0.0027574801
105	0x3dae865d	0.085217215
106	0x3db2c742	0.08729412
107	0xbd6fde10	-0.058561385
108	0xbdc597e8	-0.096481144
109	0xbdeaa24d	-0.11456738
110	0xbda153df	-0.07877325
111	0xbd2d685e	-0.04233586
112	0xbcb219b6	-0.021740776
113	0x3d53b5b5	0.05168696
114	0xbdbc6432	-0.09198798
115	0x3d71ec90	0.059063494
116	0x3d83721a	0.064182475
117	0xbde337b5	-0.1109461
118	0x3df5f936	0.12010424
119	0x3cc22dee	0.023703542
120	0x3dbfd109	0.09366042
121	0x3dd80cbe	0.105493054
122	0x3daad6d8	0.083417594
123	0x3d4a7fa3	0.04943813
124	0x3d7c0dd6	0.061536632
125	0x3ddaae12	0.106777325
126	0x3d68c4b6	0.056828223
127	0xbbb9d06d	-0.0056705982
128	0x3d05d6cd	0.032675553
129	0xbcedf2f6	-0.029046517
130	0xbde5855f	-0.11207079
131	0xbdb73284	-0.08945182
132	0xbdd9ca84	-0.1063433
133	0xbdfb2c80	-0.12264347
134	0x3cd2a76a	0.025714595
135	0x3d1652c9	0.036700044
136	0xbd3dda3a	-0.046350695
137	0xbdf87452	-0.12131561
138	0xbdb6ee46	-0.08932166
139	0xbd16eea7	-0.03684869
140	0x3dbbf58f	0.09177696
141	0xba0e4c4a	-0.0005428238
142	0xbd90d42d	-0.07071719
143	0x3c91fd95	0.017821113
144	0x3d96eca1	0.07369352
145	0x3df58e0f	0.11989986
146	0xbde34a95	-0.1109821
147	0xbdb8bbfa	-0.09020229
148	0xbd3de653	-0.046362232
149	0xbdcebb66	-0.10094337
150	0x3d978777	0.07398885
151	0x3defcb10	0.11708653
152	0xbba905c3	-0.0051581576
153	0x3daca333	0.08429565
154	0xbdfffd67	-0.124995045
155	0x3dfe98a6	0.12431459
156	0xbdc56d6c	-0.09640011
157	0x3cf386b6	0.029727321
158	0xbd1640b5	-0.036682803
159	0x3df3a745	0.118971385
160	0xbc066139	-0.008201891
161	0xbdcf79ce	-0.10130654
162	0x3d8dc904	0.06923106
163	0xbc8dff2e	-0.017333593
164	0xba863f2f	-0.0010242219
165	0xbd997254	-0.074925095
166	0x3dd6de9a	0.10491677
167	0xbdd9b43f	-0.10630082
168	0xbdefb717	-0.117048435
169	0x3de8e89d	0.113724925
170	0xbc98ce9d	-0.018653208
171	0x3d2d3d06	0.042294525
172	0x3c4c7696	0.012479445
173	0xbdea18bb	-0.11430498
174	0xbd41657a	-0.047215916
175	0xbcacd578	-0.021097884
176	0x3dd31ac8	0.103078425
177	0x3c0c5ab7	0.00856655
178	0xbd94bb2f	-0.07262265
179	0x3d73c197	0.059510794
180	0x3d12678a	0.035743274
181	0xbdcd9971	-0.10039032
182	0x3b701f27	0.0036639662
183	0xbdf2b166	-0.11850242
184	0x3dccd110	0.10000813
185	0xbdf1a5e0	-0.11799216
186	0xbd0e2706	-0.034705184
187	0xbdc5b57b	-0.09653755
188	0x3cb5f410	0.022211105
189	0x3de8e402	0.11371614
190	0x3d55dd31	0.052212898
191	0xbde4177d	-0.111372925
192	0x3d81cd9d	0.06338046
193	0x3d990821	0.074722536
194	0x3d0e51c6	0.034745954
195	0xbd5ce9e8	-0.053934008
196	0xbba07607	-0.0048968825
197	0xbdfd3ff6	-0.12365715
198	0xbddd9738	-0.10819858
199	0x3df3c156	0.1190211
200	0xbdf3fa54	-0.11912981
201	0xbd312feb	-0.04325859
202	0xbbdf0403	-0.006805898
203	0x3cb110e7	0.021614505
204	0xbca43f84	-0.020049818
205	0xbdf5ebd5	-0.12007872
206	0x3def9873	0.11698999
207	0xbd99ed37	-0.07515948
208	0x3d659a72	0.056055494
209	0xbd99cd91	-0.07509912
210	0x3d85560a	0.06510551
211	0xbd95d96e	-0.07316862
212	0xbdf81a26	-0.121143624
213	0x3d39457f	0.045232292
214	0x3d4192e3	0.047259223
215	0x3dcafde4	0.09911707
216	0xbd6f7b7e	-0.05846738
217	0x3d1fe1af	0.039033588
218	0xbccd5bee	-0.02506825
219	0xbbdf7b2a	-0.006820102
220	0x3db9d108	0.09073073
221	0xbc5e8308	-0.013581045
222	0x3cb266cb	0.021777531
223	0x3d437311	0.047717158
224	0x3dc0eb4b	0.094198786
225	0x3cbd3b4e	0.023099568
226	0xbdee387c	-0.11631867
227	0xbced2d20	-0.028952181
228	0x3beef121	0.0072919284
229	0x3de90840	0.11378527
230	0xbdf97690	-0.12180817
231	0xbdfa0f26	-0.122099206
232	0xbd46832b	-0.048464935
233	0xbdbef248	-0.09323555
234	0xbdd9b4a9	-0.10630161
235	0x3cdf0986	0.02722622
236	0x3da32368	0.079657376
237	0x3decb0b0	0.11557138
238	0xbde198ae	-0.110154495
239	0x3d25b45b	0.040455204
240	0xbdd1fac9	-0.102529116
241	0x3c8e672e	0.017383184
242	0xbcf64906	-0.030064117
243	0xbdad7156	-0.08468883
244	0x3d1e3808	0.038627654
245	0x3de019aa	0.10942395
246	0x3d7dc5f7	0.061956372
247	0x3df6e7b8	0.120559156
248	0x3dd2aead	0.10287223
249	0xbbb27040	-0.00544551
250	0xbdc4b7d5	-0.09605376
251	0x3a8e2d75	0.0010847287
252	0x3c50addb	0.012736763
253	0x3d6eec86	0.058331035
254	0x3cdd360e	0.027003314
255	0xbd1b291d	-0.037881006

conv_layers.0.lin_query.bias f4 [64]
0	0xbcc07844	-0.023494847
1	0x3d7e54a6	0.062092446
2	0xbdd7294b	-0.10505923
3	0xbdd9f5e7	-0.10642605
4	0x3dc4a95a	0.09602614
5	0x3d730d3b	0.05933879
6	0xbdbde39e	-0.0927193
7	0x3b221756	0.0024733148
8	0x3b23d48b	0.0024998512
9	0x3d0b03cc	0.033939168
10	0xbd7ddde2	-0.061979182
11	0xbd84e915	-0.06489769
12	0xbcbbc9cc	-0.022923373
13	0xbde3b386	-0.11118226
14	0xbdb07021	-0.08615137
15	0xbcca023b	-0.024659267
16	0xbce376d5	-0.027766624
17	0xbdcfb943	-0.10142758
18	0x3df9ab21	0.121908434
19	0x3c817272	0.015801642
20	0x3d2780cc	0.040894315
21	0x3d3a61a8	0.04550329
22	0x3d96fc78	0.07372373
23	0xbda56000	-0.08074951
24	0xbcb6f9d0	-0.022335917
25	0x3c9a1b9a	0.01881199
26	0xbdfce1e2	-0.12347771
27	0x3dec28f5	0.115312494
28	0xbcb89c61	-0.022535505
29	0xbd53693f	-0.051614042
30	0xbdd47022	-0.1037295
31	0x3b981f80	0.004642427
32	0x3ce1c06b	0.027557572
33	0xbdbf4eb5	-0.09341184
34	0xbdfc0df9	-0.123073526
35	0xbd5c784e	-0.05382567
36	0xbc92e773	-0.01793263
37	0xbc33c9e8	-0.010973431
38	0x3d05409c	0.03253232
39	0xbde3a45a	-0.11115332
40	0x3ccb4f27	0.024818016
41	0x3da54daf	0.080714576
42	0x3df787da	0.120864585
43	0x3dc35247	0.095371775
44	0xbda18b19	-0.07887859
45	0xbdfba9b0	-0.12288225
46	0x3dd62e18	0.104580104
47	0x3d9dea7a	0.077107385
48	0x3d75ec27	0.060039666
49	0x3d2c2dd3	0.04203589
50	0x3d7e021d	0.062013734
51	0x3dd0e2e2	0.101995245
52	0x3df3de60	0.11907649
53	0x3d6a5012	0.057205267
54	0xbd9b6df6	-0.07589333
55	0x3b45fb6c	0.0030209674
56	0x3bd1d32d	0.006403348
57	0x3c6eb6f6	0.0145699885
58	0xbd8131d3	-0.06308331
59	0xbbec0347	-0.007202539
60	0xbca42b58	-0.0200402
61	0x3de0939c	0.10965654
62	0x3cc5c3aa	0.024141151
63	0xbdbd2c7b	-0.092369996

conv_layers.0.lin_value.weight f4 [64, 64]
0	0xbc2a8e8f	-0.010409965
1	0x3dc70587	0.09717851
2	0xb9d70135	-0.00041008895
3	0x3d89933c	0.06717536
4	0x3ccf9600	0.02534008
5	0xbd601f67	-0.054717448
6	0xbd93fb3d	-0.07225654
7	0xbdcb7627	-0.09934645
8	0xbcfc36eb	-0.030787906
9	0xbd37806b	-0.044800203
10	0xbd990c48	-0.074730456
11	0x3d091355	0.033465702
12	0xbdb21152	-0.0869471
13	0xbdf9e422	-0.12201716
14	0x3d86635e	0.065619215
15	0x3d13ca49	0.036081586
16	0x3d9e85ef	0.077403896
17	0xbd5cdc06	-0.05392077
18	0x3d23ac2a	0.03995911
19	0x3d8f0306	0.069829985
20	0xbd416a91	-0.04722077
21	0xbd0e61d1	-0.034761254
22	0x3db37588	0.08762652
23	0xbdf6c17e	-0.120486245
24	0x3d8f8a7c	0.07008836
25	0xbc4f5741	-0.01265508
26	0xbe069cb8	-0.13145721
27	0xbde257fb	-0.11051937
28	0x3cd46c6d	0.025930608
29	0x3c255b90	0.010092631
30	0xbdd1948a	-0.1023341
31	0xbdd0954b	-0.101847254
32	0x3d8654f4	0.06559172
33	0xbc73e8fd	-0.014887092
34	0x3dc70b22	0.0971892
35	0x3c43f104	0.011959318
36	0xbd30dd54	-0.043179825
37	0x3d8e7840	0.069565296
38	0xbcabee9b	-0.0209878
39	0xbde3d4ff	-0.1112461
40	0x3ce1ac43	0.027547961
41	0x3dc39a0a	0.09550865
42	0xbdc3acdb	-0.09554454
43	0x3c8c377e	0.017116304
44	0x3d573210	0.052537978
45	0x3d2c03e9	0.041995917
46	0x3d363df3	0.044492673
47	0xbdf6c0aa	-0.120484665
48	0x3d326dbe	0.04356169
49	0xbc8cd408	-0.017190948
50	0x3cbcb292	0.023034368
51	0xbd0ff5df	-0.03514659
52	0x3daf797c	0.08568093
53	0xbb7dea0e	-0.0038744244
54	0x3b75e3b9	0.0037519766
55	0xbdc54746	-0.09632735
56	0xbddc970c	-0.107709974
57	0xbcca0300	-0.024659634
58	0xbd7aa183	-0.061189186
59	0xbcb064c6	-0.021532428
60	0xbbed2318	-0.0072368495
61	0xbdedc11c	-0.11609098
62	0xbc296ea7	-0.010341323
63	0xbd25e584	-0.040502086
64	0x3d49480d	0.04914098
65	0xbdacd0fd	-0.08438299
66	0x3c84ae09	0.016196268
67	0xbd13b5c5	-0.03606202
68	0xbdab2a87	-0.08357721
69	0x3d34e0f3	0.04415984
70	0xbd9d6ab9	-0.07686371
71	0x3d8d009e	0.06884883
72	0xbcb93616	-0.022608798
73	0xbd9fd14a	-0.078035906
74	0xbcd7e505	-0.026354322
75	0xbd87eb05	-0.06636623
76	0x3de67b31	0.11253966
77	0x3da5240e	0.080635175
78	0x3d7059d2	0.05867941
79	0x3d58a96d	0.052895952
80	0xbdc4d44f	-0.09610807
81	0xbd0d1829	-0.03444687
82	0x3d1ebef9	0.038756344
83	0x3db7e8ff	0.08979987
84	0x3de4bd19	0.1116888
85	0x3d23cd3c	0.03999065
86	0x3c96aeac	0.018393837
87	0x3db7a5ce	0.089671716
88	0xbdb668a3	-0.089066766
89	0x3de3b233	0.11117973
90	0xbd1b5392	-0.037921496
91	0x3c6e425a	0.014542187
92	0x3dc315be	0.09525631
93	0xbdd9cc6f	-0.10634696
94	0xbcd80d99	-0.026373671
95	0x3dea92e0	0.114537954
96	0xbdb810ae	-0.089875564
97	0x3d84c78a	0.064833716
98	0x3dd5ab9c	0.104331225
99	0x3da0060e	0.07813655
100	0xbcc37b59	-0.023862528
101	0x3d97444d	0.07386074
102	0x3dac955c	0.084269255
103	0x3d60d9be	0.054895155
104	0xbdc5ac3d	-0.096519925
105	0x3de2a01d	0.110656954
106	0xbdd57b9d	-0.10423968
107	0x3d98b8fb	0.07457157
108	0x3c690bee	0.014224036
109	0x3d9aedce	0.07564889
110	0x3dfac7a3	0.12245109
111	0xbd943067	-0.072357945
112	0xbdd6891f	-0.104753725
113	0xbd784600	-0.060613632
114	0xbbb76b92	-0.00559754
115	0xbdf9780a	-0.12181099
116	0xbd453e32	-0.048155017
117	0xbd28b9ec	-0.041192934
118	0x3d2dd650	0.042440712
119	0xbd4678f6	-0.0484552
120	0xbdeac095	-0.11462513
121	0xbd89cdcb	-0.06728705
122	0xbdb15117	-0.08658045
123	0xbde2e62f	-0.1107906
124	0x3d830bc9	0.06398732
125	0xbd236324	-0.03988947
126	0xbd650a8d	-0.055918265
127	0xbdd8ea48	-0.105915606
128	0x3d8784dd	0.066171385
129	0x3dbf3c55	0.09337679
130	0x3d32a700	0.043616295
131	0xbd347161	-0.04405344
132	0x3d28a752	0.041175194
133	0x3d9eebfb	0.077598535
134	0xbdc06bfa	-0.09395595
135	0xbd6ad026	-0.057327412
136	0x3d9f3608	0.077739775
137	0x3d91d121	0.07119966
138	0xbded1d6f	-0.1157788
139	0xbd9b861a	-0.07593937
140	0x3dbd6b43	0.09248974
141	0x3a5fb6f5	0.00085340376
142	0x3d6d69ce	0.05796223
143	0x3dd5e083	0.10443213
144	0xbd9af62a	-0.07566483
145	0xbbd80466	-0.006592321
146	0x3cbe28ce	0.023212817
147	0xbd3e66a6	-0.046484612
148	0xbda6bbc4	-0.08141282
149	0xbdb0ede0	-0.08639121
150	0x3dc94348	0.09827286
151	0x3d8ddb9f	0.06926655
152	0x3bf99251	0.007616319
153	0x3d94406f	0.07238852
154	0xbdf45922	-0.11931063
155	0x3db782ea	0.08960517
156	0x3d080694	0.0332094
157	0xbdcc8c5e	-0.099877104
158	0xbd19e0ae	-0.037567787
159	0x3dac521a	0.08414097
160	0xbd68069b	-0.056646924
161	0x3d8d0a7b	0.068867646
162	0xbdeaf8f6	-0.11473267
163	0x3d411af0	0.04714483
164	0x3d9eef74	0.07760516
165	0x3d1f7114	0.0389262
166	0xbcd8e567	-0.026476575
167	0xbd90d5b0	-0.07072008
168	0xbddf5054	-0.10903993
169	0x3dc9f0b5	0.09860364
170	0x3d914880	0.070939064
171	0x3d121b01	0.035670284
172	0xbdb1687f	-0.08662509
173	0xbd086ea0	-0.033308625
174	0xbdd8237c	-0.10553643
175	0x3d815b2f	0.0631622
176	0x3ddfcbe6	0.109275624
177	0x3acb9460	0.001553189
178	0x3dc9e05a	0.09857245
179	0x3d370635	0.044683654
180	0xbdf8c5ec	-0.121471256
181	0xbde34657	-0.11097401
182	0xb9a3bf98	-0.0003123253
183	0x3dc58d80	0.096461296
184	0xbd9360e5	-0.071962155
185	0x3dc5bd74	0.09655276
186	0x3df1a099	0.1179821
187	0x3dd5350a	0.10410507
188	0xbdd5e4ed	-0.10444055
189	0xbdb51e5f	-0.088436835
190	0xbdf0dd6e	-0.11760984
191	0xbdfceff7	-0.12350457
192	0x3e00e713	0.12588148
193	0xbd288aca	-0.041147985
194	0x3ccd237a	0.02504133
195	0xbd0ef8bc	-0.03490518
196	0x3de12baa	0.109946564
197	0x3d619ad6	0.055079304
198	0x3d240ed3	0.0400532
199	0x3de1d5bb	0.11027094
200	0x3d7e95dd	0.06215464
201	0xbc4551b8	-0.012043409
202	0x3ddbea52	0.107380524
203	0x3d8539bf	0.06505155
204	0xbd388427	-0.045047905
205	0x3d929f25	0.07159261
206	0xbda80dbc	-0.082057446
207	0xbcc9ae53	-0.024619257
208	0xbc56b5d7	-0.013104877
209	0xbd9c17c2	-0.07621719
210	0xbd01b2a5	-0.03166451
211	0xbcaf34d2	-0.021387491
212	0x3d0412c5	0.032244463
213	0xbd71c611	-0.05902678
214	0x3abee6e6	0.0014564663
215	0xbcc725b6	-0.024309974
216	0xbdfd3430	-0.123634696
217	0x3d8a65c7	0.06757694
218	0x3dec2a57	0.11531513
219	0xbd502ede	-0.050825946
220	0xbd0b6c46	-0.034038804
221	0x3d689a1b	0.05678759
222	0xbdc8769a	-0.097882465
223	0x3d4ab9f8	0.04949376
224	0x3c34f4d2	0.011044698
225	0x3d97fba8	0.074210465
226	0xbdae3d52	-0.0850779
227	0x3d798a37	0.060922828
228	0xbdd8fdbb	-0.1059527
229	0xbba1148c	-0.0049157795
230	0x3cb500b8	0.02209507
231	0xbdae8411	-0.085212834
232	0xbd4c9838	-0.049949855
233	0x3dbccf26	0.09219198
234	0x3d46acba	0.04850457
235	0x3de67c8a	0.11254223
236	0xbdeaadeb	-0.114589535
237	0xbc982c03	-0.018575674
238	0xbd4a37f6	-0.049369775
239	0xbc12b080	-0.008953214
240	0x3d3a6696	0.04550799
241	0x3d95e223	0.07318523
242	0x3dbb414c	0.09143314
243	0xbddf17ca	-0.10893209
244	0x39a0e57a	0.00030688551
245	0x3d3e8d55	0.046521503
246	0xbd97aad8	-0.07405633
247	0xbddbd9a9	-0.10734875
248	0xbddf45a7	-0.10901957
249	0x3d4e9a54	0.050440148
250	0xbd58cc59	-0.052929256
251	0x3c06a321	0.008217604
252	0xbbfdc4e0	-0.0077444166
253	0x3d031315	0.03200062
254	0xbdaa28a9	-0.083085366
255	0xbde55474	-0.11197749

conv_layers.0.lin_value.bias f4 [64]
0	0x3d0d965c	0.034567222
1	0x3db54084	0.08850196
2	0xbdabe7c5	-0.08393816
3	0xbdd8dbc3	-0.10588791
4	0xbc4b9f17	-0.012428067
5	0x3dd7edda	0.105434135
6	0xbdd8db07	-0.10588651
7	0x3caa1b2f	0.020764915
8	0x3de7771b	0.113020144
9	0xbdc8f45a	-0.09812231
10	0xbd9ac9ef	-0.07558047
11	0xbdb18ba6	-0.08669214
12	0xbdbb0e74	-0.09133616
13	0x3dd0bcc8	0.10192257
14	0xbc6e7ebd	-0.014556584
15	0xbdaefef2	-0.08544721
16	0xbdd294a8	-0.1028226
17	0x3da28efd	0.07937429
18	0xbc0e8257	-0.008698068
19	0xbd432db5	-0.04765101
20	0xbb8df07b	-0.004331646
21	0xbc64a4c0	-0.013955295
22	0x3c9f8f9b	0.019477656
23	0xbdc85793	-0.097823285
24	0xbc524eeb	-0.012836198
25	0xbdc7b9a5	-0.09752206
26	0x3ded30b9	0.11581559
27	0x3d3e18d9	0.046410415
28	0x3d96126c	0.073277324
29	0xbdc321d2	-0.09527935
30	0xbce4c317	-0.027925057
31	0xbdd44cc3	-0.10366204
32	0x3de22d4c	0.11043796
33	0xbd934364	-0.07190588
34	0x3dfd7d11	0.1237737
35	0xbb13ddf5	-0.0022562717
36	0x3d6d4545	0.05792739
37	0x3c6df656	0.014524063
38	0x3df5eaeb	0.12007698
39	0xbc788043	-0.015167299
40	0xbdac5fde	-0.08416723
41	0xbd48c953	-0.049020123
42	0xbd7e6dce	-0.062116437
43	0xbd331978	-0.04372546
44	0x3d87fd32	0.0664009
45	0x3be82bb2	0.007085287
46	0xbd8539bd	-0.06505153
47	0x3db6c250	0.08923781
48	0x3db20924	0.0869315
49	0xbde97d3c	-0.1140084
50	0xbdd5a615	-0.10432068
51	0x3df182c3	0.11792519
52	0xbca26301	-0.0198226
53	0xbd436d53	-0.04771168
54	0xbd2f0824	-0.042732373
55	0x3d8b7b75	0.06810657
56	0x3deb7db6	0.11498587
57	0x3c17e74c	0.009271454
58	0x3c16316b	0.009167056
59	0xbcd54408	-0.026033416
60	0xbd014990	-0.031564295
61	0xbd273622	-0.04082311
62	0x3ccf4710	0.02530244
63	0xbd79bcc7	-0.060971048

conv_layers.0.lin_edge.weight f4 [64, 42]
0	0x3e166f19	0.14690818
1	0x3d04786a	0.0323414
2	0x3cf6b460	0.030115306
3	0x3d458fe8	0.048232943
4	0x3e1b4fca	0.15167156
5	0xbe0f35cd	-0.13985367
6	0x3dd0b76f	0.10191237
7	0xbbb43564	-0.0054995287
8	0xbc828935	-0.015934566
9	0x3ce04f48	0.027381554
10	0xbdda59b5	-0.106616415
11	0xbe111c28	-0.14170897
12	0xbdd1e8b7	-0.10249465
13	0xbb889d0f	-0.0041691135
14	0xbd686434	-0.056736186
15	0xbc1ca114	-0.009559888
16	0xbe134dec	-0.14385194
17	0x3e148053	0.14502077
18	0x3d23a23c	0.03994964
19	0x3d086f9e	0.03330957
20	0x3dab79bc	0.08372828
21	0x3d8363bc	0.06415507
22	0xbc6704c6	-0.014100259
23	0xbdf8aed8	-0.12142724
24	0xbd91a115	-0.07110802
25	0x3e07d0fc	0.13263315
26	0xbdc1fb6b	-0.09471782
27	0x3d26041a	0.040531255
28	0xbd57f921	-0.052727822
29	0x3d0d3537	0.034474578
30	0x3de6dedd	0.112729765
31	0xbe06d829	-0.13168396
32	0xbd1fff08	-0.039061576
33	0x3e0f89b8	0.1401738
34	0xbd280956	-0.04102453
35	0x3e174ea7	0.14776097
36	0x3e21c514	0.15797836
37	0xbdcf6efe	-0.10128592
38	0x3d9eca07	0.077533774
39	0xbdbbc65a	-0.09168692
40	0xbe01f8c9	-0.1269256
41	0xbd8bd954	-0.068285614
42	0x3d9dea95	0.077107586
43	0xbd69674f	-0.05698329
44	0xbdd318a6	-0.10307436
45	0xbe10e98d	-0.14151593
46	0x3c322161	0.010872216
47	0x3bd1ace2	0.006398783
48	0xbdaece24	-0.08535412
49	0xbdc85695	-0.09782139
50	0x3db99ed7	0.090634994
51	0x3dab1541	0.08353663
52	0x3c9741b2	0.018463943
53	0xbc648c62	-0.0139494855
54	0x3de42947	0.111406855
55	0xbd9f5667	-0.07780152
56	0xbd4ff17a	-0.0507674
57	0x3e05af1b	0.13055079
58	0x3d8626c2	0.06550361
59	0x3e106ee5	0.14104803
60	0x3e0fd18f	0.14044784
61	0xbc8fdccd	-0.01756134
62	0xbcceb689	-0.025233524
63	0xbd21cc17	-0.039501276
64	0x3d2b0746	0.041754983
65	0xbddf0ae3	-0.10890748
66	0x3db52aaa	0.08846028
67	0xbd6749a0	-0.0564667
68	0x3d83d96f	0.064379565
69	0x3c8890d7	0.016670628
70	0x3e093ceb	0.13402145
71	0xbde9d165	-0.11416892
72	0x3da14344	0.07874158
73	0xbc155ccc	-0.009116363
74	0x3e13d809	0.1443788
75	0xbd232968	-0.03983441
76	0x3e007a9f	0.12546776
77	0x3ddd11c9	0.10794408
78	0x3c21becf	0.0098721525
79	0x3dbf57b0	0.09342897
80	0xbddbe4ef	-0.10737025
81	0x3c822900	0.015888691
82	0x3b4ecfe0	0.0031557009
83	0x3d00a245	0.031404752
84	0x3d494aaa	0.04914347
85	0xbd9bce1a	-0.0760767
86	0xbd0b8eb2	-0.03407163
87	0xbdafb32c	-0.08579096
88	0xbe1555a8	-0.14583457
89	0x3cc20265	0.023682782
90	0xbca7b73c	-0.020473115
91	0xbddc6803	-0.10762026
92	0x3d383f60	0.044982314
93	0x3df3185a	0.11869879
94	0x3e107ddd	0.14110513
95	0x3db82433	0.089912795
96	0xbd9e146f	-0.07718741
97	0x3cf1eae5	0.029530952
98	0xbdd5b264	-0.10434416
99	0xbcac86f4	-0.021060444
100	0xbd7477c3	-0.059684526
101	0xbd3c322c	-0.045946285
102	0x3d8f548e	0.069985494
103	0x3dff8097	0.124756984
104	0xbd9df28a	-0.07712276
105	0xbd54e5e9	-0.051977072
106	0x3d88c690	0.06678498
107	0x3b9bfd72	0.0047604376
108	0xbd1495b8	-0.036275595
109	0xbe091502	-0.1338692
110	0x3d0bdec2	0.034147985
111	0xbde2dcd3	-0.11077275
112	0xbdfeb12a	-0.12436135
113	0xbdc47393	-0.095923565
114	0xbd84068b	-0.064465605
115	0x3ddae1c0	0.1068759
116	0x3ca338ac	0.019924484
117	0x3cdca269	0.026932912
118	0xbdbb33ca	-0.09140737
119	0x3c832923	0.016010826
120	0x3b36d4b7	0.0027897784
121	0x3dfff862	0.12498547
122	0xbe0df7be	-0.13864037
123	0x3da4de04	0.080501586
124	0xbe0c3a32	-0.13694075
125	0x3d5039b7	0.05083629
126	0xbe0a0864	-0.13479763
127	0x3d132c1e	0.035930745
128	0xbd4d61a1	-0.050141934
129	0x3d56ba0d	0.052423526
130	0xbdc2508e	-0.09488021
131	0xbc89e5df	-0.016833244
132	0x3da98865	0.08277968
133	0x3d21000d	0.03930669
134	0xbd949021	-0.07254053
135	0xbbd4ed75	-0.0064980336
136	0x3cd608e3	0.026127284
137	0x3d8bf1df	0.068332426
138	0xbe178557	-0.14796959
139	0xbe15043d	-0.14552398
140	0xbdbfa4ee	-0.0935763
141	0xbc671d5d	-0.014106122
142	0xbd1dcea1	-0.038527135
143	0xbdecd7a9	-0.115645714
144	0x3e077fe9	0.13232388
145	0xbd8e4a7b	-0.069478
146	0xbcda0e43	-0.026618129
147	0xbd2af92a	-0.041741528
148	0x3b38b87b	0.002818613
149	0x3d5799bf	0.052636858
150	0xbdb4dc55	-0.088310875
151	0xbdd6dcd9	-0.10491342
152	0xbc572281	-0.013130785
153	0x3d896c13	0.06710067
154	0xbc8120ed	-0.01576277
155	0x3d5e93a9	0.05434004
156	0xbe1b82e1	-0.15186645
157	0xbdea198b	-0.11430653
158	0x3c99ac95	0.018759051
159	0x3de25f3b	0.1105332
160	0x3de63ac1	0.11241675
161	0xbd7b31f7	-0.061326947
162	0x3d818201	0.063236244
163	0xbcd5b8dd	-0.026089126
164	0x3da5bc7d	0.08092592
165	0x3dc1a456	0.09455173
166	0x3d9568e9	0.07295401
167	0x3d22e739	0.039771292
168	0xbdeb2fc2	-0.114837185
169	0xbdbfc733	-0.09364166
170	0x3da11b0e	0.078664884
171	0x3d25ca1e	0.040475957
172	0x3cc1ec1d	0.023672158
173	0xbd089af3	-0.033350896
174	0xbd97a43a	-0.074043706
175	0xbd913f6a	-0.070921734
176	0x3e0e9b93	0.13926534
177	0x3dbb8102	0.09155466
178	0xbd8eeaa0	-0.06978345
179	0xbe061ed2	-0.13097695
180	0xbb94eae0	-0.004544601
181	0x3dff258d	0.12458334
182	0x3dbf97ff	0.09355163
183	0x3d59155e	0.052998893
184	0x3dbe5034	0.09292641
185	0xbd994b97	-0.07485121
186	0xbde8965b	-0.11356803
187	0xbe1dcd06	-0.15410241
188	0x3d1d1f94	0.038360193
189	0x3d9a36f7	0.07530015
190	0x3e10251f	0.1407666
191	0x3d188c53	0.0372432
192	0xbdb7a6f9	-0.089673944
193	0x3d3efa73	0.046625566
194	0xbe0a3f85	-0.13500793
195	0xbe1c151f	-0.15242432
196	0xbce742d9	-0.028230118
197	0xbde751e0	-0.11294913
198	0x3d8a1e18	0.06744021
199	0xbde2c936	-0.11073534
200	0xbe04ed88	-0.12981236
201	0x3df7d779	0.12101645
202	0x3e0c05d4	0.13674098
203	0x3de613bd	0.112342335
204	0x3dadb2f6	0.084814
205	0xbcb939fd	-0.022610659
206	0x3db2a15a	0.087221816
207	0xbdab04d4	-0.0835053
208	0xbde6a6d3	-0.11262288
209	0x3b3706d4	0.0027927654
210	0x3dadaa11	0.08479703
211	0x3cccdb01	0.025006773
212	0xbca50fae	-0.020149078
213	0xbdcd1180	-0.100131035
214	0x3e0b1f25	0.135861
215	0xbd26c1b5	-0.040712077
216	0x3e061dc1	0.13097288
217	0x3d7c8a35	0.061655242
218	0x3c9a9969	0.01887198
219	0xbcc2b1ed	-0.023766482
220	0xbdea1f7a	-0.11431785
221	0xbd3b247b	-0.045689087
222	0xbd03d389	-0.032184158
223	0x3dc44655	0.09583727
224	0xbda70e03	-0.081569694
225	0x3e0b9703	0.13631825
226	0x3d385fb9	0.045013163
227	0xbdf4e377	-0.11957448
228	0xbd86873e	-0.06568764
229	0x3d724607	0.059148815
230	0x3d97dedc	0.07415554
231	0x3da1c02d	0.07897983
232	0xbe1a5995	-0.15073235
233	0x3e0c9c82	0.13731578
234	0xbd4d6b3c	-0.050151095
235	0x3c9e354b	0.019312521
236	0xbe074026	-0.13208064
237	0xbd9f520a	-0.077793196
238	0xbb61dfa3	-0.0034465573
239	0x3d943e4e	0.07238446
240	0x3d98a49b	0.07453271
241	0xbd15d684	-0.03658153
242	0xbe0dd3e9	-0.13850369
243	0xbd885955	-0.06657664
244	0x3e1d532f	0.15363763
245	0xbe0c0466	-0.13673553
246	0xbcd451fc	-0.025918
247	0xbdf17a4d	-0.11790905
248	0x3dc663db	0.09687015
249	0xbd8f9c78	-0.07012266
250	0x3d1f0019	0.038818453
251	0xbddcf42b	-0.10788759
252	0xbe05de51	-0.13073088
253	0x3d93ae46	0.072109744
254	0x3e1b002a	0.15136781
255	0x3d36ed42	0.04465986

conv_layers.0.lin_skip.weight f4 [64, 64]
0	0x3dbee1f4	0.09320441
1	0x3cd98fe1	0.026557865
2	0x3de78971	0.11305512
3	0xbd2a45e8	-0.041570574
4	0xbdc05307	-0.09390836
5	0xbd58f4fa	-0.052968003
6	0xbd585464	-0.052814856
7	0x3d7422b8	0.059603423
8	0x3da048f5	0.078264154
9	0xbdc051a9	-0.093905754
10	0xbdc9274d	-0.09821949
11	0x3d638d96	0.05555495
12	0xbc4d070f	-0.01251389
13	0xbe08c7f7	-0.1335753
14	0xbcc54d44	-0.024084695
15	0xbc81842d	-0.015810097
16	0xbcae21da	-0.021256376
17	0x3d326c30	0.043560207
18	0xbd4c6b72	-0.049907155
19	0x3d0eeced	0.03489392
20	0xbce69c41	-0.02815068
21	0x3cdbb2c0	0.026818633
22	0xbd8b0f31	-0.06790007
23	0xbbb874e2	-0.005629168
24	0xbdccf538	-0.10007709
25	0x3d0a51c2	0.033769377
26	0xbe0a4311	-0.13502146
27	0x3dc6677a	0.09687705
28	0xbd691daf	-0.056913074
29	0x3d0d0d6b	0.034436624
30	0x3dafd510	0.0858556
31	0xbca79bfa	-0.020460118
32	0xbcd2a91c	-0.025715403
33	0x3d9bc93e	0.07606743
34	0xbd312dd8	-0.04325661
35	0xbcdf8b17	-0.027288003
36	0x3dd94a59	0.10609884
37	0xbd3f51ef	-0.046708997
38	0xbcc8c795	-0.02450923
39	0xbdadc575	-0.084849276
40	0xbd8fd075	-0.07022182
41	0xbd2bdd19	-0.041958902
42	0xbd8be2b1	-0.06830347
43	0xbd3e7ad7	-0.046503868
44	0xbca9efac	-0.020744167
45	0x3ddc7165	0.10763816
46	0x3d3012e5	0.04298677
47	0x3d8cc00a	0.06872566
48	0xbbd4c828	-0.006493587
49	0x3dc7f877	0.09764188
50	0x3d7d8e12	0.061903067
51	0xbda71beb	-0.08159622
52	0xbd6cd0a5	-0.057816166
53	0x3db81e66	0.08990173
54	0x3de0ac3c	0.10970351
55	0xbd9383d4	-0.072028786
56	0x3d0bc176	0.034120046
57	0xbd886964	-0.06660727
58	0x3dfe7a88	0.12425715
59	0x3cbba1e2	0.02290434
60	0x3d0af820	0.033928037
61	0xbd34ad55	-0.044110615
62	0xbd919764	-0.071089536
63	0xbd27dc94	-0.040981844
64	0xbbbc5f31	-0.0057486524
65	0x3d281897	0.041039076
66	0x3d817946	0.06321959
67	0xbd1e48cf	-0.038643654
68	0x3d8945fc	0.067028016
69	0x3d723920	0.05913651
70	0x3d6ca7b7	0.057777133
71	0x3da90c79	0.08254332
72	0x3d8c681e	0.06855796
73	0xbd745ffc	-0.05966185
74	0x3d1014ae	0.03517597
75	0x3d8cff29	0.068846054
76	0xbdd400e0	-0.103517294
77	0xbdbcfda5	-0.09228066
78	0xbcc1bb94	-0.023649015
79	0xbde0c136	-0.10974352
80	0x3e02f971	0.12790467
81	0xbdbd7a07	-0.092517905
82	0xbb66a8b0	-0.003519576
83	0x3ccbca51	0.024876745
84	0x3d33547d	0.043781746
85	0x3df4b384	0.119483024
86	0xbdb93bae	-0.09044586
87	0xbdbc3e45	-0.091915645
88	0xbdd9e9cc	-0.10640296
89	0xbc1c5fbb	-0.009544308
90	0xbd8229ad	-0.06355605
91	0x3dd2a485	0.10285286
92	0x3d01aa0b	0.031656306
93	0x3cb94833	0.022617435
94	0x3d601e80	0.054716587
95	0x3db2bc68	0.08727342
96	0xbd0867fc	-0.033302292
97	0xbdbef31e	-0.09323715
98	0xbdb81e6f	-0.0899018
99	0x3b725e42	0.0036982452
100	0x3d59ae93	0.053145003
101	0xbd799662	-0.06093443
102	0x3db4202f	0.08795201
103	0xbd9f8632	-0.077892676
104	0xbd86b059	-0.065766044
105	0xbd2ba46b	-0.041904848
106	0x3c30643d	0.010766086
107	0x3da3ffbd	0.080077626
108	0xbd011133	-0.031510543
109	0xbd8f3a2c	-0.06993517
110	0x3dc7bddd	0.097530104
111	0xbd6d5c8c	-0.057949588
112	0xbdf2e73b	-0.1186051
113	0x3cd19a2d	0.025586212
114	0x3dc8db72	0.09807481
115	0xbd9170bf	-0.07101583
116	0xbd3ea73a	-0.0465462
117	0xbdf1af62	-0.1180103
118	0xbc9ef5d5	-0.019404331
119	0xbdedaeb9	-0.11605591
120	0xbdd95ada	-0.10613032
121	0xbd7db3b8	-0.06193897
122	0xbd09ff47	-0.033690717
123	0x3dd8ef06	0.10592465
124	0x3c63cc45	0.013903682
125	0xbc52cf37	-0.012866787
126	0x3add3fff	0.0016880034
127	0x3d2dc28a	0.042421855
128	0xbd11c1e7	-0.03558531
129	0x3dc55316	0.09634988
130	0xbdbd3ea0	-0.092404604
131	0xbd2d6c1d	-0.042339433
132	0xbc533502	-0.012891056
133	0xbe01120a	-0.12604538
134	0x3dacfacc	0.08446273
135	0x3dfc49c8	0.1231876
136	0xbbd4f46c	-0.006498864
137	0xbc9d344c	-0.019189976
138	0x3d8d6ba3	0.06905296
139	0xbd8d0612	-0.068859234
140	0xbd8605ab	-0.0654405
141	0x3cafc06e	0.021454062
142	0x3dc4223f	0.095768444
143	0xbcb0b944	-0.021572717
144	0x3d8b4c35	0.06801645
145	0x3dc1034b	0.09424456
146	0xbd0f21a4	-0.03494419
147	0x3d019356	0.03163465
148	0xbdea062a	-0.11426957
149	0x3d452af9	0.048136685
150	0xbc1f7a25	-0.009733711
151	0xbdc5cf88	-0.09658724
152	0xbcc8d26e	-0.024514403
153	0xbde45655	-0.11149279
154	0x3d7d5ed8	0.06185803
155	0x3cd2b6f4	0.025722004
156	0xbd1e1028	-0.038589627
157	0xbd3aef85	-0.04563858
158	0xbc8d9dde	-0.017287191
159	0xbdfa8730	-0.12232816
160	0xbd9c8f96	-0.07644574
161	0xbba33159	-0.004980248
162	0xbca4799d	-0.020077521
163	0x3d9ef0d6	0.077607796
164	0x3d36ce59	0.044630382
165	0xbd213ef0	-0.039366663
166	0xbc9e3cdc	-0.01931613
167	0x3d178cec	0.036999628
168	0x3d9ea9d3	0.07747235
169	0xbda8b184	-0.082369834
170	0xbd5d32e4	-0.05400361
171	0xbde3e2aa	-0.11127217
172	0x3dbe073f	0.09278726
173	0xbbf40605	-0.0074470066
174	0xbd5312c0	-0.051531553
175	0xbdc26bb5	-0.094932
176	0x3d1e9cbe	0.0387237
177	0x3dbd9e73	0.092587374
178	0x3d447e83	0.047972213
179	0x3dc17213	0.09445586
180	0x3d88966a	0.06669314
181	0xbb936bf7	-0.0044989544
182	0xbddb8ab7	-0.10719817
183	0xbcfffeb5	-0.031249383
184	0xbd66bdb6	-0.056333266
185	0xbbe10cc9	-0.006867979
186	0xbb8adfa5	-0.0042380863
187	0xbd8e074c	-0.069349855
188	0x3d266603	0.04062463
189	0x3c760717	0.015016339
190	0xbbc62eb7	-0.0060480493
191	0xbcbca089	-0.023025768
192	0x3cce2b92	0.02516726
193	0x3de5f49c	0.11228296
194	0xbcc72f24	-0.02431447
195	0xbdda8b11	-0.10671056
196	0x3d8313d5	0.06400267
197	0x3d888986	0.066668555
198	0x3deb57f1	0.11491383
199	0x3cd81adf	0.02638
200	0xbccadaed	-0.024762595
201	0x3df770cd	0.12082062
202	0xbd9419e2	-0.07231499
203	0x3d6f3204	0.058397308
204	0xbd1c0a36	-0.038095675
205	0xbdea4566	-0.11439018
206	0xbdcbbf7c	-0.09948632
207	0x3b3230e7	0.0027189793
208	0xbdb75991	-0.0895263
209	0x3d38609d	0.045014013
210	0x3de0da03	0.109790824
211	0xbdac0ad2	-0.08400501
212	0x3d6b2400	0.05740738
213	0xbd82e4f7	-0.06391328
214	0xbd4f6a65	-0.050638575
215	0xbd4f3ef1	-0.050597135
216	0xbcdaa1c8	-0.026688471
217	0xbd8cc6d4	-0.06873861
218	0x3e061e51	0.13097502
219	0xbd8f8a07	-0.070087485
220	0x3d9ea5a3	0.077464364
221	0xbcaeb20f	-0.02132514
222	0xbdead388	-0.11466128
223	0xbdec9662	-0.11552121
224	0x3db1ec31	0.08687628
225	0xbca8b5ac	-0.02059444
226	0xbd75fb6f	-0.06005424
227	0xbdbaad4d	-0.09115086
228	0x3de97ef8	0.114011705
229	0x3d070c4b	0.032970708
230	0xbd410d64	-0.04713191
231	0x3d0fd602	0.035116203
232	0xbdc7070f	-0.09718143
233	0x3dacaf21	0.08431841
234	0x3d83055e	0.06397508
235	0x3c81eabd	0.015859002
236	0xbdd98de4	-0.106227666
237	0x3b97ac67	0.0046287063
238	0x3db54932	0.088518515
239	0x3da5e00e	0.08099376
240	0x3d2526de	0.04032027
241	0x3d0b5481	0.034016136
242	0xbdc980c9	-0.09839017
243	0x3e01d367	0.126783
244	0x3ddd4c71	0.10805596
245	0xbb31cd23	-0.0027130328
246	0xbdac1d3e	-0.08404015
247	0x3dda4cb0	0.10659158
248	0xbd062eb9	-0.032759402
249	0x3da96d35	0.08272783
250	0xbd89c148	-0.067263186
251	0x3c9ee768	0.019397452
252	0x3d18489a	0.037178613
253	0x3d1e0288	0.038576633
254	0x3d65af83	0.056075584
255	0x3d342190	0.04397732

conv_layers.0.lin_skip.bias f4 [64]
0	0x3de14c95	0.11000935
1	0xbdb99aa6	-0.090627
2	0xbd8461e0	-0.06463981
3	0x3d49d4d9	0.049275253
4	0x3ddeffd8	0.10888642
5	0xbd268f46	-0.04066398
6	0xbd98f50e	-0.074686155
7	0x3dd11d7d	0.102107026
8	0xbcec14f3	-0.028818583
9	0x3d635a8b	0.05550627
10	0xbd7e4746	-0.06207969
11	0xbd875c64	-0.06609419
12	0x3e034513	0.12819318
13	0xbde4de70	-0.11175239
14	0xbd6edb18	-0.058314413
15	0xbdac6766	-0.08418159
16	0x3cc8f6a8	0.024531677
17	0xbddee668	-0.1088379
18	0x3da03ab5	0.078236975
19	0x3d6f95de	0.058492534
20	0xbc8cee92	-0.017203603
21	0xbdbf9585	-0.093546905
22	0xbd0fd427	-0.035114434
23	0xbde98c94	-0.11403766
24	0xbd464f37	-0.04841539
25	0xbce5378c	-0.027980588
26	0x3dcef93f	0.10106134
27	0xbdd203d8	-0.102546394
28	0xb9dbbd89	-0.0004191215
29	0x3db312b2	0.087438
30	0xbd61ccfb	-0.055127125
31	0xbb90993e	-0.004412799
32	0xbdac4d47	-0.08413177
33	0x3dd76781	0.10517789
34	0x3dd5bb74	0.104361445
35	0x3d775de5	0.06039228
36	0x3d3b94df	0.04579627
37	0xbb99e91a	-0.0046969773
38	0xba855ba0	-0.0010174401
39	0xba8795d7	-0.0010344338
40	0xbd23816a	-0.03991834
41	0xbd02bdba	-0.03191922
42	0xbd9aed72	-0.0756482
43	0x3de74a4d	0.112934686
44	0xbdf0c704	-0.11756709
45	0xbd6189b7	-0.055062976
46	0x3cfb2bfe	0.030660626
47	0x3dcaa076	0.09893887
48	0x3d3e486d	0.04645579
49	0xbdb4f3cf	-0.08835565
50	0xbdeb224e	-0.114811525
51	0x3cfc3428	0.030786589
52	0x3dc34c65	0.095360555
53	0x3dc906f0	0.09815776
54	0x3adee604	0.0017005806
55	0x3df82cc3	0.121179126
56	0x3d8e868e	0.06959258
57	0x3d3f9147	0.046769407
58	0xbde36932	-0.11104049
59	0x3dcc6b2d	0.0998138
60	0xbdc56acc	-0.096395105
61	0x3d0bf6f2	0.034171052
62	0xbd934362	-0.071905866
63	0xbcafe4c7	-0.021471394

conv_layers.0.lin_beta.weight f4 [1, 192]
0	0xbd6fa162	-0.058503516
1	0x3d349a81	0.04409266
2	0xbc8b47b9	-0.017001973
3	0xbd722416	-0.059116445
4	0x3c90061f	0.017581044
5	0xbc94a8cc	-0.018146895
6	0x3d4b0f20	0.04957497
7	0x3d739a69	0.05947343
8	0xbd814420	-0.06311822
9	0xbd716345	-0.05893256
10	0x3d0d0426	0.034427784
11	0x3c50d272	0.012745487
12	0x3bbc3d0a	0.005744581
13	0xbcfd503f	-0.030922053
14	0x3cffff1f	0.03124958
15	0xbc4f4697	-0.012651107
16	0x3c41728b	0.011807094
17	0x3ce831d7	0.028344078
18	0x3d24d6fc	0.040244088
19	0xbd14c08b	-0.036316436
20	0x3d712083	0.058868896
21	0x3bffac04	0.0078024883
22	0xbcd93170	-0.026512831
23	0x3a08c125	0.0005216769
24	0x3d1e90cb	0.038712304
25	0x3d961fca	0.07330282
26	0x3b7f4633	0.0038951754
27	0xbd5e504f	-0.054275807
28	0xbcf3f2b7	-0.029778821
29	0x3c95abba	0.018270362
30	0x3c48815a	0.012237871
31	0xbd6f3283	-0.05839778
32	0xbcaaed78	-0.020865187
33	0xbda6effc	-0.08151242
34	0xbcf15d51	-0.029463442
35	0x3d404deb	0.04694931
36	0xbca82ac2	-0.020528201
37	0xbd064815	-0.032783587
38	0xbd758f94	-0.05995138
39	0xbd87a735	-0.06623689
40	0x3ce94768	0.028476432
41	0x3d4e15f4	0.050313905
42	0xbd59b3cc	-0.053149983
43	0x3d92592e	0.07145916
44	0xbd2ed36a	-0.04268209
45	0xbcc09d86	-0.023512613
46	0x3abb5fbc	0.0014295499
47	0x3bdbd2c4	0.006708475
48	0xbc768b21	-0.015047819
49	0x3d5184cc	0.051152036
50	0x3cf0f1a2	0.029412095
51	0xbd3e6d7e	-0.04649114
52	0xbc88ad00	-0.016684055
53	0xbd350255	-0.044191677
54	0xbd86799f	-0.06566166
55	0xbb810b85	-0.003938141
56	0xbd792bec	-0.060832903
57	0x3d93cead	0.07217155
58	0xbd9292fc	-0.07156941
59	0xbd167197	-0.03672942
60	0x3cd451e7	0.02591796
61	0x3c2b8034	0.010467578
62	0xbc9bfc75	-0.01904128
63	0xbcec10ff	-0.028816698
64	0xbd70720d	-0.058702517
65	0x3b553e88	0.0032538492
66	0x3d41ff70	0.047362745
67	0xbcd9416c	-0.026520453
68	0xbcded31d	-0.027200276
69	0xba3262ba	-0.00068048725
70	0x3d7ac65b	0.061224323
71	0x3d69a2fe	0.057040207
72	0xbd697eaf	-0.05700558
73	0xbd5a78a5	-0.05333771
74	0x3d78489e	0.06061613
75	0x3d70198e	0.05861812
76	0xbd61e76c	-0.05515234
77	0xbc4c1816	-0.012456914
78	0xbd17b8c7	-0.03704145
79	0xbd54e09d	-0.05197202
80	0xbd2de257	-0.042452183
81	0xbccc30dc	-0.024925642
82	0x3cb07592	0.021540437
83	0x3d4a3d94	0.04937513
84	0xbd37d1f4	-0.04487796
85	0xbb997619	-0.004683268
86	0xbd2ab122	-0.041672833
87	0x3d0bc8a9	0.03412691
88	0x3d297c89	0.04137853
89	0x3ce68eb9	0.028144227
90	0x3d755f83	0.05990554
91	0xbcd77cc7	-0.026304616
92	0xbc524645	-0.012834136
93	0xbcde0744	-0.027103074
94	0xbbbe6690	-0.0058105662
95	0x3d22abed	0.039714742
96	0xbdc0076f	-0.09376418
97	0xbd202eda	-0.03910718
98	0xbba40167	-0.00500505
99	0x3d46a453	0.048496556
100	0x38c4e072	9.3878145e-05
101	0x3c05fe77	0.008178345
102	0x3d9b12b5	0.075719275
103	0x3ca0601d	0.01957708
104	0xbce504d4	-0.027956404
105	0x3d824227	0.06360274
106	0x3d4cd5a2	0.050008424
107	0x3c16cbb2	0.009203838
108	0x3bd672e2	0.006544457
109	0x3c22750e	0.009915603
110	0xbd5428da	-0.05179677
111	0xbd969fde	-0.07354711
112	0x3d135700	0.03597164
113	0x3ce86bd4	0.028371729
114	0xbd521427	-0.05128875
115	0xbbcec78f	-0.0063104103
116	0x3b1e2d1e	0.0024135779
117	0x3c396304	0.011315111
118	0xbcec5f6c	-0.028854094
119	0x3d7c1d54	0.061551407
120	0x3c28426e	0.010269744
121	0x3d8ca727	0.06867819
122	0xbb40136a	-0.0029308447
123	0x3ced02b7	0.028931959
124	0xbc987c2c	-0.018613897
125	0xbd9c8409	-0.07642371
126	0xbd98edca	-0.0746723
127	0x3c94eaab	0.018178305
128	0xbd48c2b2	-0.0490138
129	0xbd484a1e	-0.04889881
130	0xbc86f940	-0.016476274
131	0xbc1a70b6	-0.009426286
132	0x3d246b14	0.04014118
133	0x3abe2cc3	0.001450919
134	0x3d175b52	0.036952324
135	0x3d2e81b6	0.04260417
136	0xbd966fe4	-0.0734556
137	0xbd6247c2	-0.055244215
138	0xbd9776be	-0.07395695
139	0xbd95815a	-0.073000625
140	0xbd5bc72b	-0.05365674
141	0x3d0a9ff1	0.03384394
142	0xbd037e27	-0.03210273
143	0xbc8b03b8	-0.016969547
144	0xbc0c86c6	-0.008577054
145	0x3d8355e9	0.064128704
146	0x3cac47b2	0.02103028
147	0xbdb5aa05	-0.08870319
148	0x3d91443d	0.070930935
149	0xbdb22bbb	-0.08699747
150	0xbd97901b	-0.07400533
151	0xbcd134f5	-0.025537947
152	0x3d823336	0.06357424
153	0xbc95d486	-0.018289816
154	0x3d4fdf5d	0.050750125
155	0xbd4611f6	-0.048356973
156	0x3db844a8	0.0899747
157	0x3d7e4b7d	0.06208371
158	0x3d97a894	0.074052006
159	0xbcf9b145	-0.030480037
160	0xbd1970ef	-0.037461217
161	0x3ce622dc	0.028092794
162	0x3d31c0ee	0.043396883
163	0xbce04795	-0.027377883
164	0x3d463232	0.048387714
165	0x3d972d48	0.073816836
166	0x3d61393e	0.05498623
167	0xbd3a6c00	-0.045513153
168	0xbd89d433	-0.06729927
169	0x3d0ab49b	0.033863645
170	0x3d02a480	0.03189516
171	0x3d50f918	0.051018804
172	0x3d3e1a8f	0.046412047
173	0x3d5e2467	0.054233935
174	0xbd4123d2	-0.0471533
175	0xbda01da0	-0.078181505
176	0x3d1e04b2	0.038578697
177	0xbd809d15	-0.06279961
178	0x3d562fd0	0.05229169
179	0xbb5b2609	-0.0033439419
180	0x3d879174	0.0661954
181	0x3d703860	0.058647513
182	0x3d362045	0.04446437
183	0x3da4247d	0.08014772
184	0x3c92be64	0.017913051
185	0x3c150922	0.009096416
186	0x3dabbc17	0.08385485
187	0xbc047369	-0.008084157
188	0x3c867bb6	0.016416412
189	0xbc9ec15b	-0.019379308
190	0xbc3e89b3	-0.01162951
191	0x3d535a34	0.051599696
