models/GTransCYPs_3A4.pth (torch, 434651 bytes, 38 tensors)

conv_layers.0.lin_key.weight f4 [64, 64]
000000 e9 77 1b 3c e1 61 24 3d 48 81 ee bc 6f b0 c8 3d
       0.009489038 0.040132407 -0.02911438 0.09799277
000010 46 cf 42 3b cb d9 a0 3d db 72 dc 3d 51 6f 6b 3c
       0.0029725595 0.07854041 0.107640944 0.014369802
000020 35 55 9c 3d 2e 5c d9 bd c1 18 58 3c bc 29 89 bc
       0.076334395 -0.10613285 0.013189496 -0.016743533
000030 ca 00 5b bd 64 9f 41 3d 07 42 a8 3d b6 99 88 bd
       -0.05346755 0.047271147 0.08215719 -0.06669943
000040 0a 5a 96 bd 3a f0 8c 3d 1d 50 cf 3c 39 1f 01 3d
       -0.07341392 0.06881757 0.025306756 0.031523917
000050 92 6d b8 3d 50 47 05 bd 4c e8 b7 3d e8 8a 08 bd
       0.09005274 -0.032538712 0.08979854 -0.033335596
000060 40 c1 b5 3b a4 69 80 bd 2c 8b 54 bb fb 43 ae 3d
       0.005546719 -0.06270149 -0.0032431586 0.0850906
000070 75 05 e9 bd 6f d0 05 3d 71 4a cc 3d 84 7b 98 bd
       -0.11377994 0.03266948 0.09975136 -0.07445434
000080 f9 ff a8 3d 8b 6a f0 3d bc 06 db 3d 74 86 6e bd
       0.08251948 0.117390715 0.10694644 -0.058233693
000090 83 dc bf 3c 3b af 5d 3c aa 8e b6 3d ad 73 a3 3d
       0.023420578 0.013530548 0.0891393 0.07981048
0000a0 47 94 93 bd 35 19 d9 3d c1 3c 7f bd 77 6b 1d bd
       -0.07206016 0.10600511 -0.0623138 -0.038432565
0000b0 c1 f8 2e bd ed c2 ac bd 16 a7 2d 3c f6 3b 42 3d
       -0.0427177 -0.08435617 0.010598918 0.047420464
0000c0 83 21 b4 bd 96 64 b9 bd 91 92 ce bd 4f 19 a8 bd
       -0.08795454 -0.09052388 -0.10086549 -0.08207952
0000d0 03 a7 48 3d ae 59 20 3d 88 51 2e 3d 2b d9 6b bd
       0.0489874 0.039148025 0.042558223 -0.057580154
0000e0 4d a7 a9 ba 50 13 ab 3d c7 80 ae bc 33 e1 e1 bd
       -0.0012943536 0.08353293 -0.02130164 -0.110292815
0000f0 ac 82 98 bd 43 7b f4 bc 29 e7 ed 3d 0f 05 90 bd
       -0.07446799 -0.029843932 0.11616356 -0.07032215
000100 af 4a ef 3c cb af a0 3b 66 42 b8 3d 85 e0 88 3d
       0.029210417 0.0049037687 0.089970395 0.06683449
000110 61 85 d7 3c ab cd b9 bc 8b 73 76 3d 54 c2 e8 bd
       0.026308717 -0.022681078 0.060168784 -0.1136519
000120 78 8c 01 3d ce d2 6c bd 51 89 de bd 62 4b cd bc
       0.031628102 -0.057818227 -0.10866035 -0.02506036
000130 aa 87 82 bd cc 9c 3d 3d 14 7f ed bd db f1 6b 3d
       -0.06373532 0.04629211 -0.11596504 0.0576037
000140 47 68 c0 3d 1c fb ad bd 37 08 b8 3d 8d b1 01 3d
       0.09394889 -0.08495161 0.08985942 0.031663466
000150 de d0 7e 3d b3 19 4e bd 1b 46 63 3c a9 dd b3 3d
       0.06221091 -0.050317477 0.013871695 0.08782513
000160 df ba cb 3a 47 02 d2 bd 44 9b 03 bd 3f 85 0c 3d
       0.0015543363 -0.102543406 -0.032130495 0.03430676
000170 91 3c 76 bd 0b 2c 9a 3c 32 09 aa 3d ff 07 b8 bd
       -0.060116354 0.01881983 0.08302535 -0.089859
000180 3b c9 b3 bd 1d 72 37 bd 51 c0 af 3d 29 18 21 bd
       -0.08778616 -0.04478656 0.08581603 -0.03932968
000190 ac ba bd 3d 82 79 6e bc fe 7b b7 3d 5d ca 4b bd
       0.092641205 -0.014555337 0.089591965 -0.049753536
0001a0 da 05 a9 3d d8 e3 c0 bc 82 ba c8 3d 7d 9f 91 3c
       0.08253069 -0.023546144 0.098011985 0.017776245
0001b0 fe 7d a5 bd 22 33 dd bd 70 04 99 b9 c2 0a 3b 3d
       -0.08080672 -0.108007684 -0.0002918574 0.045664556
0001c0 b2 bf 0f 3d 67 c2 ca 3c 8f ac 82 bc 4a 5c de 3d
       0.035094924 0.024750901 -0.015951423 0.108574465
0001d0 4c af de 3d 56 b5 e3 3d e7 ae ec b9 82 98 15 bd
       0.10873279 0.111185715 -0.0004514374 -0.036522396
0001e0 37 61 93 3c a6 d5 c3 3d 07 c3 8e bc e4 ce de bc
       0.017990692 0.095622346 -0.01742698 -0.027198263
0001f0 a8 16 9a 3d 53 6e da bd ba 92 00 3d 7b 16 9e bd
       0.075238526 -0.10665574 0.03138993 -0.077191316
000200 8a 4a ca 3a 49 f0 83 3d b8 db b3 3d 0b 69 7b 3d
       0.0015433591 0.06442315 0.087821424 0.061379474
000210 03 bd 5e bd 7f 52 05 bd cd e7 35 3d b5 f0 b6 3d
       -0.054379474 -0.032549378 0.044410516 0.0893263
000220 b4 f4 c4 3d eb 91 a5 3d 64 ff bc ba 8c 70 56 bc
       0.09616986 0.08084472 -0.0014419374 -0.013088357
000230 09 e4 ad 3d 69 35 d2 bd a1 ea 94 3c 4d 2b e7 bd
       0.0849076 -0.102640934 0.018178286 -0.11287556
000240 5a 09 01 bc 65 82 d6 bc 4d 51 de bd 2e 82 9b 3d
       -0.007875765 -0.026185224 -0.10855351 0.07593189
000250 0e 69 d5 3d 64 fc c3 bd 7b f4 b5 3d 26 99 c9 3d
       0.10420428 -0.09569624 0.088845216 0.09843664
000260 65 66 fa bd ba ae 82 3d 75 e6 c3 3c 95 28 3b bd
       -0.122265615 0.06380983 0.023913601 -0.045693
000270 f8 5a 9f bc c6 e5 a6 3d 75 fe c9 bd 57 de de 3d
       -0.019452557 0.081492946 -0.09862987 0.10882252
000280 b2 24 a5 bd 93 5e eb bd a6 00 cb 3d 5f 61 08 bd
       -0.0806364 -0.11492648 0.09912233 -0.033295985
000290 57 75 34 3c e6 ab 06 bc c6 3e d0 bd 3f fa 57 3d
       0.011014304 -0.008219695 -0.10168223 0.052728888
0002a0 63 0a 82 bc 1d a3 db 3d 0e 57 2b 3d e0 6d d8 3d
       -0.015874093 0.10724471 0.04183107 0.10567832
0002b0 c5 ec 1a 3d c2 5c 4b 3d 2e 5b c7 bd 1b 1c 11 bd
       0.037823457 0.049649008 -0.09734188 -0.035427194
0002c0 f5 cc eb 3d e1 d2 c4 3d 36 54 af bd 0a bf ca bd
       0.11513702 0.096105345 -0.08560984 -0.09899719
0002d0 1e e4 40 3c a6 9b a2 3a fd b9 a3 3d 16 b5 d0 bc
       0.011773137 0.0012406006 0.07994459 -0.025476974
0002e0 74 0b c7 3c c1 df 02 bd 13 af b2 3c 19 65 2e bd
       0.024297453 -0.03195167 0.021811998 -0.042576883
0002f0 71 73 31 bd 92 a0 b3 3d d7 9e c4 bd 80 79 67 bd
       -0.043322984 0.08770861 -0.09600609 -0.056512356
000300 8d 13 e5 bd 82 1a c2 bd d9 a2 41 3d 9e 96 70 3d
       -0.1118537 -0.09477712 0.047274444 0.05873739
000310 5b 02 e4 3c 26 5d 74 3d 07 06 4b bd 1f 66 4d 3d
       0.027833154 0.059659146 -0.049566295 0.05014622
000320 da 82 cc bc 00 d3 15 bb 87 43 25 3d 7b e9 0b 3d
       -0.024964739 -0.0022861362 0.040347602 0.03415821
000330 93 07 b4 3a c4 3c c3 bd 51 8b 43 bd 4d 09 9d bb
       0.0013735167 -0.095330745 -0.047740284 -0.0047923685
000340 20 1f 0d bd 8d d6 62 3d 83 6e 6f bd 9b 57 a7 bd
       -0.03445351 0.055380393 -0.058455 -0.08171006
000350 a5 ae de 3d 5d f7 9b 3d d2 c3 39 bd 1e 53 44 bd
       0.108731546 0.0761554 -0.045352764 -0.04793083
000360 21 7e 7e 3d 0d 8c 97 bd 8f b2 7c 3d f7 6a bd 3d
       0.062132005 -0.073997594 0.061693724 0.092489175
000370 19 90 1f 3b c5 04 be bd 09 9c 42 3c c2 0b 29 bd
       0.0024347364 -0.092782535 0.011878022 -0.04127098
000380 94 29 e3 bb c6 a3 08 bd a0 05 fb 3c b5 34 91 bd
       -0.0069324467 -0.03335931 0.03064233 -0.07090131
000390 07 44 d4 bd ef 6f 8c 3d dd ac 7c 3d 20 02 62 bd
       -0.10364538 0.06857287 0.061688293 -0.055177808
0003a0 36 64 89 3d f7 0d 5e 3d b5 7f 05 bd 0c 2f cd 3d
       0.06708567 0.054212537 -0.032592494 0.10018739
0003b0 e7 07 e8 3d 58 34 fb 3d a3 2c db 3d 4d 1d 07 bd
       0.11329632 0.12265843 0.10701873 -0.032986928
0003c0 05 8c f6 3d 7e 37 39 3c a4 46 f6 ba 98 72 98 3d
       0.12038425 0.011304734 -0.0018789363 0.07443732
0003d0 f8 29 34 3d 66 5a 03 3e 32 8e 70 ba 4a 1b a0 3c
       0.043985337 0.12827453 -0.0009176462 0.019544262
0003e0 dc cb 95 ba b9 df 9c 3d 98 96 d2 bd 8b b3 7f bd
       -0.0011428553 0.07659859 -0.1028263 -0.062427085
0003f0 e3 bc 04 bc f4 cc 4e ba 96 5b 18 3d 3f d3 73 bd
       -0.008101675 -0.0007888817 0.03719672 -0.05952763

conv_layers.0.lin_key.bias f4 [64]
000000 6f 5d 89 bd 38 09 7e bd 2d 9a 23 3c 9b a8 a0 3d
       -0.06707274 -0.06202051 0.009985489 0.07844659
000010 14 f1 b2 3b 7f 86 84 3c 63 4a a6 3d 68 99 8c bd
       0.0054608677 0.016177414 0.08119657 -0.068651974
000020 46 4c 15 3d fd e4 d3 3d 51 4b 5d bd 28 f9 a2 3d
       0.036449693 0.103464104 -0.054026905 0.07957679
000030 fa d6 98 bc 64 f1 92 3d de f7 f8 3d 41 e6 0b bd
       -0.018657196 0.07174948 0.12156652 -0.034155134
000040 19 a8 d3 3d 9c 75 86 3d b7 55 be ba 87 99 f2 bd
       0.103347965 0.06565401 -0.0014521395 -0.11845689
000050 fc 86 bb 3c 8b 8f c0 3c a5 51 91 bd 78 53 31 bd
       0.022891514 0.023505947 -0.070956506 -0.043292493
000060 c8 e1 a3 bd ab 34 dd 3d ad cc 35 bb a5 e0 da bd
       -0.08002049 0.10801061 -0.0027740404 -0.10687379
000070 c9 b5 c1 bd 02 38 bc 3d 11 63 a5 3d eb 8f cf bd
       -0.09458501 0.0919037 0.08075536 -0.10134872
000080 6b f4 73 3d 6a c3 f7 bd 8e 90 d2 3d 01 80 d3 3d
       0.059559267 -0.12097819 0.10281478 0.10327149
000090 61 0d 3b bd b4 77 da 3d fb 02 f1 bd 17 6a a8 bd
       -0.045667056 0.10667363 -0.117681466 -0.0822336
0000a0 be 4e 2e bd c4 36 ba 3b dc 8d 97 3d 66 cb 8d 3d
       -0.042555563 0.005682798 0.074001044 0.06923561
0000b0 db 1e 81 3c a1 e1 c6 3d 75 6e 09 bd bc e0 af bd
       0.015761783 0.09711004 -0.033552606 -0.085877866
0000c0 6c 5a d5 bd 34 7e c8 3c 7c de d2 3d 40 b3 97 3d
       -0.10417637 0.02447424 0.10296342 0.07407236
0000d0 d4 10 8b 3d e2 c9 d3 bd 51 d5 41 3d ff 02 c9 bd
       0.06790319 -0.103412405 0.047322575 -0.098150246
0000e0 c7 96 ae bd 7c ae 5c bd 5e d8 d8 bd 13 7b d3 3d
       -0.08524852 -0.05387734 -0.10588144 0.10326209
0000f0 8f fc e4 bd 20 29 ca bd 66 3c 61 bd 14 88 bb bc
       -0.11180984 -0.09871125 -0.05498924 -0.022892036

conv_layers.0.lin_query.weight f4 [64, 64]
000000 48 d7 d2 3d d3 89 4c 3d 00 59 d8 3b 88 70 de bd
       0.10294968 0.049936127 0.0066024065 -0.108613074
000010 1b f5 cb 3d 6d 75 56 bd b8 ec ac bd 87 c6 39 bc
       0.099588595 -0.05235808 -0.08443588 -0.0113388365
000020 ad ce ef 3c 2e 87 e7 bd 3e 2e b0 3d 6b b6 18 3d
       0.029273355 -0.1130508 0.0860257 0.037283342
000030 51 1b d5 3d 27 0f 1f bc e5 90 d6 bc 10 8c de 3d
       0.10405601 -0.009708202 -0.026192138 0.108665586
000040 3e d8 62 bd d8 59 bc bc e4 38 40 bd 8a 35 87 3b
       -0.055382006 -0.02299206 -0.046929255 0.0041262554
000050 33 2b ad 3d 4e f9 a3 3d 17 f9 23 bd 5c 46 c0 bd
       0.08455505 0.080065355 -0.040032472 -0.0938842
000060 a9 b6 e9 3c c1 b2 ca bd 66 1c 83 bd 02 c0 a1 bd
       0.028529482 -0.09897376 -0.06401901 -0.07897951
000070 ae cc a8 bd e6 a8 8f 3d 33 36 a1 3d c9 42 a3 bd
       -0.082421646 0.07014637 0.07871666 -0.07971723
000080 13 4d 32 bd 50 0e d1 bd a6 17 e3 bb 46 87 59 3c
       -0.043530535 -0.10207808 -0.0069303093 0.013276881
000090 b8 ed b4 3d bb e5 5b 3d ec 1d 69 bd ed ee a0 3c
       0.08834404 0.053685885 -0.0569133 0.019645179
0000a0 7f 35 08 3e b8 50 f0 3d 35 d6 d1 3c c2 b9 e0 ba
       0.13301657 0.11734146 0.025614837 -0.0017145204
0000b0 71 4e c8 bd 05 60 62 3c d0 c0 8a bd 7b f9 b5 bb
       -0.097805865 0.013816838 -0.06775057 -0.005553422
0000c0 86 a0 3d 3d 78 b8 8f bd c2 90 07 3d fe 8b a9 3d
       0.046295665 -0.070176065 0.033097036 0.082786545
0000d0 f1 50 9c bc d7 5f e2 bd 68 dd 0e bd 66 37 52 3d
       -0.019081565 -0.11053436 -0.03487912 0.051322363
0000e0 b4 ef 68 3d d3 7a da bd 57 ff 21 bd 9c b8 7d bd
       0.056869224 -0.10667958 -0.03955015 -0.061943635
0000f0 14 ad ef 3d de 55 94 3d 69 3e 94 bd c4 52 e5 3d
       0.11702934 0.0724294 -0.07238466 0.11197427
000100 b4 3a e3 3c c9 78 ba 3d 6e b2 01 3d 0d b0 59 bd
       0.027737953 0.09105069 0.031664304 -0.05314641
000110 54 37 35 3c 44 33 b1 3d b2 04 99 3d ae 0c 22 bd
       0.0110605545 0.08652356 0.07471599 -0.039562874
000120 43 b9 d8 3d c6 4d a2 bd 49 dc de bd c0 90 89 3d
       0.10582211 -0.0792499 -0.1088186 0.06717062
000130 bc f4 ce bc 7c a8 9b bd 07 4d 7b bc ff a5 f5 bd
       -0.025263183 -0.07600495 -0.015338189 -0.11994552
000140 62 ae 39 bc bd c3 85 bd 9f 70 87 3d cf 43 32 3d
       -0.01133308 -0.06531475 0.06613278 0.0435217
000150 12 29 45 3c 3c 2b 65 bd 44 43 30 3d 1d 91 08 bc
       0.012033718 -0.055949435 0.0430329 -0.008335379
000160 f9 dd fb 3d 0f fe bb 3c 3b 1e fa bd 8b e8 59 3d
       0.12298197 0.022948293 -0.12212797 0.053200286
000170 c0 76 9a 3d 5a 83 86 bd 6c a0 6b bd e5 eb 19 bc
       0.07542181 -0.06568022 -0.057526037 -0.009394621
000180 39 56 cd 3c 89 50 d7 3d a7 5c 8c bd 5f f1 3f bc
       0.025065528 0.10513408 -0.068536095 -0.011715262
000190 cf f7 f9 bc a4 15 77 3c 6a ab 47 3d f9 c2 b1 3d
       -0.030513672 0.015080843 0.048747458 0.08679766
0001a0 be c8 62 bd b8 71 d2 3c ce 4e c9 3c f1 5c b0 bd
       -0.055367224 0.025688991 0.02457371 -0.08611477
0001b0 a3 c8 af bd 1e c4 fc bc 45 3e b2 bd 02 f8 0e 3d
       -0.0858319 -0.030855235 -0.08703283 0.034904487
0001c0 42 16 91 3d a1 f6 d4 bd b6 a9 5f bd 75 15 9d bd
       0.070843235 -0.10398603 -0.05460521 -0.07670108
0001d0 66 70 88 bd 56 95 19 3d 08 d6 82 3d 59 40 01 bd
       -0.06662063 0.037495933 0.063884795 -0.031555507
0001e0 f8 a7 82 bc 74 1e a8 3d cb 7a 86 3d 89 6c fb 3d
       -0.015949234 0.082089335 0.0656639 0.12276561
0001f0 94 9f 8e bd 11 06 c8 bd e9 3b 08 3d 4c c9 6a 3d
       -0.06964031 -0.09766782 0.03326026 0.057320878
000200 8f 47 b4 3d ea 4c 9d 3d 88 ad 55 bc 3d 80 b6 bc
       0.08802711 0.07680686 -0.013041861 -0.022277946
000210 a3 a4 3a bd a8 db 37 bc b8 a8 01 be 53 68 f4 3d
       -0.045567166 -0.011221804 -0.12662017 0.11933961
000220 c2 f3 ad 3b ea c1 3e 3d 31 c0 40 3c 36 7e 68 3d
       0.005308599 0.04657165 0.011764572 0.05676099
000230 2e 66 96 bd 42 d4 50 bd 6f a3 ad 3d 38 7d ae 3c
       -0.07343708 -0.050983675 0.08478438 0.021299943
000240 9d fc 51 bb a5 64 6b 3d 18 7d bc 3d d3 51 c1 bd
       -0.0032041438 0.05746903 0.09203547 -0.09439435
000250 d0 c8 9d bd 7e b4 ee bd 53 45 91 bd f5 34 c5 3d
       -0.077043176 -0.1165552 -0.07093301 0.096292414
000260 6e 69 a8 bd c2 33 d6 3d e4 91 7d 3c 11 a0 36 bd
       -0.08223234 0.10459091 0.015476678 -0.044586245
000270 ac 57 9f 3d 50 32 5b bd c6 5a da bd b0 e7 de 3d
       0.07780394 -0.05351478 -0.10661845 0.10884035
000280 bf 6d 07 bd 67 e9 88 bd 50 39 b0 bc ed 15 94 bd
       -0.033063646 -0.06685143 -0.021511704 -0.072307445
000290 99 53 77 3d 15 11 de 3c 7f 3f 67 bd cd 92 39 3d
       0.06038246 0.027107755 -0.05645704 0.045306016
0002a0 ad 93 23 3c 8e b5 6a 3b 63 37 28 bd d2 76 83 3d
       0.009983939 0.0035813781 -0.041068446 0.064191476
0002b0 8d 59 d8 bc a1 13 bb bd d2 78 d9 bd a4 bb a7 bd
       -0.026409889 -0.09134603 -0.10618748 -0.081900865
0002c0 b8 c4 b6 bd d8 13 5e bc 83 5d d1 bd 9f c7 ef 3d
       -0.0892424 -0.013554536 -0.10222914 0.117079966
0002d0 3a bb fb 3c 0d b3 40 3c cf 19 b2 3d 71 c6 ce 3d
       0.030728925 0.011761439 0.08696329 0.100964434
0002e0 37 27 05 bd 3a b7 9e bd ad d7 54 3d f2 33 5b 3c
       -0.0325081 -0.077497914 0.051963497 0.013379084
0002f0 44 2d 80 bc 9c 51 80 3b 8d 20 ca 3d 8a c9 df bd
       -0.015646584 0.0039159786 0.0986949 -0.109271124
000300 64 5c ee bd 3a f2 7a bd 8c 92 e2 bd 27 a6 60 bd
       -0.11638716 -0.06126616 -0.11063108 -0.054845955
000310 f0 de 83 bc 37 48 a4 bd 11 16 88 3d ed d9 de 3d
       -0.016097516 -0.080215864 0.06644834 0.1088141
000320 37 af 75 3d 1a 64 c3 bd e9 5e 7e 3d 91 94 89 bd
       0.05998155 -0.09540577 0.062102232 -0.0671779
000330 2b f3 a2 bd 88 5a 86 bc e4 75 e4 bd 4b 27 ad bd
       -0.07956537 -0.01640059 -0.11155298 -0.0845476
000340 5e 02 54 bb 7e 9c 33 3d 00 bd eb 3c 31 d6 ac bd
       -0.0032350044 0.043850414 0.028776646 -0.08439291
000350 07 b4 e9 bd 82 a8 e8 bd dd 25 02 be a9 93 f6 3d
       -0.114112906 -0.11360265 -0.12709756 0.12039883
000360 5d 23 cc 3d 28 d9 2c bd 21 44 97 3c f2 74 d3 3d
       0.099676825 -0.042199284 0.018465104 0.1032504
000370 4e 8e cc 3d 9a f4 3f bd f2 49 3b 3c 2e b1 54 3c
       0.0998808 -0.04686413 0.011431204 0.012981696
000380 cd f7 cd 3d 91 56 cc bc 7b 8a be 3d b7 5b 8b 3d
       0.1005703 -0.024943622 0.09303757 0.068046026
000390 63 a1 89 bc 74 05 be bd 91 06 3c 3d f7 b4 91 bc
       -0.016800588 -0.09278384 0.0459047 -0.017786486
0003a0 07 6a b6 bd 57 09 cf 3d c8 c6 d7 3d af fe f6 bd
       -0.08906942 0.10109203 0.105359614 -0.12060296
0003b0 c2 ed 45 bd 28 75 0d 3b ea bb 31 3d c3 13 b2 bd
       -0.048322447 0.0021584723 0.0433921 -0.086951755
0003c0 9a 97 38 3d c4 09 5d bd a7 d0 e4 bc 54 7a 8a 3d
       0.045066454 -0.05396439 -0.027931524 0.067616135
0003d0 e8 f6 94 bc 3d 07 01 bd e1 b5 b7 bc 0c e5 ac bc
       -0.01818414 -0.031501044 -0.022425594 -0.021105312
0003e0 18 0e 8c 3d 0b 8c f0 3d c1 07 87 bd 34 68 a4 3d
       0.06838626 0.11745461 -0.06593276 0.08027688
0003f0 a2 c0 ee 39 78 0d 1c 3d 79 56 e8 bc 0a 2c 3f bd
       0.0004553842 0.038098782 -0.028361546 -0.04667286

conv_layers.0.lin_query.bias f4 [64]
000000 ca 52 45 3d 3d 05 a3 bd e9 b2 42 bc 19 1d 50 3d
       0.048174657 -0.079599835 -0.011883476 0.050809
000010 b7 f6 00 be f7 1c 56 3d c8 61 15 3e d3 5d 8d 3c
       -0.12594114 0.052273717 0.14588082 0.017256653
000020 18 7c ce 3d 20 43 80 3d 3b 23 3d 3d cd 91 d3 bd
       0.10082263 0.06262803 0.046176177 -0.10330544
000030 4f fd 0b 3e 0e 7f 85 3c d2 84 9a bd d2 00 b7 bd
       0.13670848 0.016295936 -0.07544865 -0.08935703
000040 1c b5 1d bc f3 25 f8 3c 8e 91 c9 bd 0c c2 ca bd
       -0.009625699 0.030291533 -0.098422155 -0.09900293
000050 53 b1 d5 3d 94 dc 25 3e a8 8d 8e bd 66 9c 71 bd
       0.104342125 0.16197425 -0.069606125 -0.058987044
000060 a9 19 04 3e e3 f5 df bd da fc cc 3d 61 e7 e2 3d
       0.12900414 -0.10935571 0.10009165 0.11079288
000070 67 ff 81 3d b7 16 08 3e 31 ca d8 3d a3 3b 08 bd
       0.06347542 0.13289915 0.1058544 -0.03326
000080 a6 9a c2 3d 8a e6 a2 3c 54 e2 e6 bd b9 44 96 bd
       0.09502153 0.01988532 -0.112736374 -0.073373266
000090 01 94 51 bd cd bf 18 be d7 86 c7 3d de 27 1a 3e
       -0.05116654 -0.14916916 0.097425155 0.1505427
0000a0 ed 02 4b 3d f2 05 31 be 0c 51 57 bd 94 4a 37 bd
       0.049563337 -0.17287424 -0.052567527 -0.044748858
0000b0 b8 6c 80 3c a1 14 83 3d 4b 51 25 be 90 17 de bc
       0.015676841 0.06400419 -0.16144292 -0.027110845
0000c0 78 a1 ed bd 9f e2 cd 3d 66 1f e3 bd 1f af 8a bd
       -0.11603063 0.1005299 -0.11089973 -0.06771683
0000d0 04 55 34 3c 94 30 68 bd 53 a4 04 3e 0f 7f 9a bd
       0.011006597 -0.056686953 0.1295331 -0.07543766
0000e0 87 b1 07 bd 29 37 68 bd 47 ef 16 3d 53 10 e5 3d
       -0.033128288 -0.05669323 0.036849286 0.11184754
0000f0 24 3b c4 3c a2 06 a4 3d 35 56 3d bd 91 e5 29 3d
       0.023953982 0.080090776 -0.04622479 0.041478697

conv_layers.0.lin_value.weight f4 [64, 64]
000000 6b 3f d4 bd ce 4d 86 3c d7 56 66 bd 32 7e 23 bc
       -0.103636585 0.016394522 -0.05623516 -0.009978818
000010 10 7e dd bc 5b 7e c3 3d c1 13 88 3d c5 a3 51 3d
       -0.02703765 0.09545585 0.06644393 0.051181573
000020 24 49 96 3d 6b 8d 68 bc fe da 09 3d 95 49 9d 3d
       0.07338169 -0.014193873 0.033656113 0.0768005
000030 39 1d af 3d e9 ce 7d bd ab aa 50 3d af c7 e4 3d
       0.08550496 -0.061964903 0.05094401 0.11170899
000040 e0 36 dd bd f6 78 13 3e 68 3c 0d bb f2 78 20 bd
       -0.10801482 0.14401612 -0.0021550898 -0.039177842
000050 90 89 28 bd 90 81 0f 3c d8 b6 ee 3d de c0 ac 3b
       -0.041146815 0.008758917 0.116559684 0.005272015
000060 92 e9 d5 bc 44 cd d0 3d d6 8c d5 bd 24 ad bd bd
       -0.026112352 0.10195401 -0.10427253 -0.092615396
000070 ce 5d 9b bd 54 df 05 bb 30 54 7e bc e8 fd 06 3d
       -0.07586251 -0.0020427303 -0.015523002 0.032956988
000080 86 0f ee 3c da da e7 bd 83 65 8a 3d b1 c7 8e 3c
       0.029060137 -0.113210395 0.06757643 0.017429205
000090 5c 00 8c bd 3e de df 3d 0f 72 a0 3d bc 2c 05 3d
       -0.06836006 0.10931061 0.07834255 0.032513365
0000a0 08 3a 1f bd 7a 81 f5 3b 0a 83 8a 3d fc 85 7f bb
       -0.038873702 0.0074922414 0.06763275 -0.0038989773
0000b0 b8 77 ca bd 36 72 03 3d 5d aa 92 bd 50 58 5a bd
       -0.09886116 0.032091342 -0.071614005 -0.053306878
0000c0 00 f4 da bd c2 f7 2a 3d 14 e0 c7 3d 7f e6 ff 3b
       -0.106910706 0.041740187 0.097595364 0.0078094597
0000d0 44 42 be 3d 19 56 a2 bd fd f5 b5 3d c4 07 c6 3d
       0.09289983 -0.07926578 0.08884809 0.0966945
0000e0 0f 15 e6 bd ba 19 3c 3c 23 09 71 bd 6b b9 88 3d
       -0.11234485 0.011480743 -0.058846604 0.06675991
0000f0 ff 83 4e bc a3 c0 23 bc db 3e 45 bc 05 e2 12 3c
       -0.0126047125 -0.009994659 -0.012038912 0.00896502
000100 a9 bb 41 3c 20 92 01 3b 83 39 a3 3c e4 32 f4 3b
       0.011824527 0.0019770935 0.019924885 0.0074523557
000110 ce 9b f7 bd 6d 2c b4 bd 9e 58 b3 bc 13 31 a7 3d
       -0.12090264 -0.08797536 -0.021892842 0.08163657
000120 48 bd ba bd e7 75 c5 3d 18 b9 2e bd e1 d8 af bd
       -0.09118134 0.09641629 -0.042656988 -0.08586288
000130 17 2c 93 3d 81 99 be bd 58 21 ae 3d 83 d5 20 bd
       0.07186144 -0.09306622 0.085024536 -0.03926612
000140 89 30 c1 3d a3 09 1c 3d 7e 19 41 bd 45 fc 8c bb
       0.094330855 0.038095128 -0.047143452 -0.004302534
000150 0b 50 97 3d b7 98 cb bb 75 0f 01 3e 03 25 bb bc
       0.07388314 -0.0062132734 0.12603553 -0.022844797
000160 66 6a e3 bc e7 57 6c bd 8a 4b b8 bc ab 69 87 bd
       -0.027760696 -0.057701018 -0.022496957 -0.066119514
000170 91 24 9f bd db bd 8c 3d 28 09 bd bd ba dc 55 3d
       -0.07770646 0.068721496 -0.09230262 0.052212454
000180 b3 ce 8f 3d de 3b 6a bd cc b4 bd 3d 95 f6 c7 bd
       0.070218466 -0.057186 0.09263 -0.09763829
000190 f5 0b b6 3d 43 5d 92 bc ee 7a 45 3d 70 dc 72 bd
       0.088889994 -0.017866736 0.048212938 -0.059292257
0001a0 7e 13 d1 3d c6 25 8b 3d 5b a2 e3 bc da b8 c2 3d
       0.10208796 0.06794314 -0.027787378 0.09507914
0001b0 40 f9 72 bd da 5a af bc 03 41 0a be 19 f5 df b9
       -0.059319735 -0.021405626 -0.13501363 -0.00042716486
0001c0 de dd 05 bd 54 73 de bd e4 99 c6 bd 70 3b 42 bd
       -0.032682292 -0.10861841 -0.09697321 -0.047419965
0001d0 01 21 80 bb e3 5b 05 be 23 61 bd 3d 2d 1b dc bc
       -0.0039101844 -0.13023333 0.09247043 -0.026868427
0001e0 26 f7 d4 bd f3 90 93 3d 24 be c7 bc 4f 92 f5 3d
       -0.10398702 0.07205381 -0.024382658 0.11990797
0001f0 b3 5e bc 3d 2e 25 ea 3d af e5 8b 3d 4a 75 1e bd
       0.0919775 0.11432873 0.06830918 -0.038686074
000200 df 3a e4 3d 37 7e a9 3d bd 3f eb bd 89 cb ce 3d
       0.11144041 0.08276027 -0.114867665 0.10097415
000210 90 f1 94 bd c2 ba cf 3d fa dc 98 bc 5a fa 89 bd
       -0.07272637 0.10143043 -0.018660057 -0.06737204
000220 0d 3f dd 3d 56 b8 8b 3a 02 66 e1 bd 09 f9 e9 3d
       0.108030416 0.0010659795 -0.110057846 0.11424453
000230 52 07 b0 bd fa b4 e0 3d 50 ff 8e bd 28 a6 e9 3d
       -0.08595146 0.109720185 -0.06982291 0.11408645
000240 73 56 fe 3c 3c 82 4d bd c0 e9 88 bd e3 47 5f 3d
       0.031047082 -0.05017303 -0.06685209 0.054511916
000250 84 30 fd bc 1d bf 8d 3d 2f 70 81 3d 8e a6 22 bd
       -0.030906923 0.069212176 0.063202254 -0.03970962
000260 48 74 69 3c 1b 8d 81 bd 46 7f 37 3b a5 ce 08 3d
       0.014248915 -0.06325742 0.0027999445 0.033400197
000270 c9 84 09 3d 24 bb 32 3d 7f 24 2c bd 34 8a 6a bd
       0.0335739 0.043635502 -0.042026993 -0.057260707
000280 05 72 f7 bc a5 e2 da 3d 86 94 5e bd 66 5a 8a 3d
       -0.030205736 0.1068776 -0.05434086 0.067555234
000290 da 48 5f bb fd 8a c0 3c 88 a8 d0 bd 2a 5a d4 bd
       -0.0034070523 0.023503775 -0.10188395 -0.1036876
0002a0 c6 74 b2 3d a2 35 63 3d cf 6a 23 bc cb 66 87 3d
       0.08713679 0.05547107 -0.009974196 0.06611403
0002b0 6f 1f 75 bd d2 aa e1 3d c9 5e cd 3d b8 c7 90 3d
       -0.05984443 0.110189095 0.100278445 0.07069343
0002c0 d4 01 e7 bd 86 7f 15 bd cc 9f e4 bd 04 8a e3 b8
       -0.112796456 -0.03649857 -0.11163291 -0.00010849911
0002d0 b3 68 3b bd b1 c5 58 3d 6f 8a 13 3d ce e2 ae bd
       -0.045754146 0.05292291 0.036020692 -0.08539353
0002e0 d5 f6 82 bd f6 f7 22 bd 88 d4 0a 3e 33 3e 4a 3d
       -0.06394736 -0.039787255 0.13557637 0.049375724
0002f0 72 75 22 3a 08 ae 39 3c d9 b9 43 ba ee df 8f 3d
       0.000619731 0.011332996 -0.0007466353 0.07025133
000300 c8 a3 09 bd 2c 6a d1 3b 43 d6 d8 3d 45 6e c0 bd
       -0.03360346 0.0063908305 0.10587742 -0.09396032
000310 c9 e1 7a bc f7 ab 64 3d 71 4b ce 3d 96 f7 74 3d
       -0.01531262 0.05582806 0.10072983 0.05980643
000320 39 e9 04 be ae a5 b5 bc 30 f6 8a bc 34 2c 9a bd
       -0.12979592 -0.022173729 -0.016963094 -0.07527962
000330 28 16 e2 bd 75 25 aa bd 30 7e ff 3c 96 8f bb bd
       -0.11039382 -0.083079256 0.0311881 -0.09158246
000340 b7 49 cc 3d 9f 4b c1 3d c1 8d 42 3d 23 a9 e2 3d
       0.099749975 0.09438252 0.04749847 0.110674165
000350 8f de e4 bd 6a 7d 04 3d 62 b6 43 bd 3f e7 a9 3d
       -0.11175262 0.032346167 -0.047781356 0.0829606
000360 ad 15 2f bd 85 49 6a bd 17 a9 5e bd 44 21 d6 bc
       -0.04274528 -0.05719902 -0.054360475 -0.02613891
000370 12 36 f3 bd e5 a0 49 3d 7b d8 f6 3c ca 2d 53 bc
       -0.118755475 0.049225707 0.030132523 -0.012889335
000380 95 08 dd bc 20 77 e2 bd e9 81 b4 3d 96 c2 71 bc
       -0.026981631 -0.110578775 0.08813841 -0.014755866
000390 09 ff cc bd 0b 8a 42 bd 18 9c 18 3c 91 6b bb 3d
       -0.100095816 -0.04749493 0.009314559 0.09151376
0003a0 1a c4 f2 3d a5 dd 15 3d dd b3 c8 3c e7 f3 d3 3d
       0.1185381 0.03658833 0.024499828 0.10349255
0003b0 8b c4 9a bd 6a b2 9a 3c 30 46 ff 3b aa 49 c7 bd
       -0.07557019 0.018883903 0.0077903494 -0.09730847
0003c0 25 0d d2 3d cf 64 a0 3c 81 3f d3 bb 20 96 75 3d
       0.10256413 0.01957932 -0.0064467792 0.059957623
0003d0 22 d0 b6 3d d9 84 8b 3d f1 bf 87 3d eb cc d7 bd
       0.08926417 0.06812448 0.06628407 -0.10537132
0003e0 d2 1f 5d 3c 80 f9 a8 bd 9f 84 02 3d 88 15 14 3c
       0.013496356 -0.08250713 0.03186476 0.009038337
0003f0 73 46 0d bd e3 b8 b3 bd 65 e4 41 bd ad 0e 04 bd
       -0.034491014 -0.08775499 -0.047336955 -0.03224056

conv_layers.0.lin_value.bias f4 [64]
000000 8c 96 76 bd 1c 08 b8 3d 9b 8b f0 3b ba 32 e1 bd
       -0.060202166 0.08985922 0.007340861 -0.109960034
000010 dc 56 76 3d 56 37 65 bc c5 35 a9 3d c1 ae 94 bd
       0.06014143 -0.013990244 0.08262209 -0.07259894
000020 43 ac 8a bd ab bd 0a 3c 08 d4 bb 3d 30 19 37 bd
       -0.067711376 0.008468072 0.09171301 -0.044701755
000030 5a af 0b 3d b4 82 e9 3c 0a b5 b6 3d 1d 37 fd 3d
       0.034102775 0.028504707 0.08921249 0.12364028
000040 79 ce 13 bd 5d 0f 97 bd 3d 1d 5d bd ba 0c 4a 3d
       -0.03608558 -0.07375977 -0.053982962 0.049328543
000050 31 b9 82 3d d1 a2 e0 bd 17 a7 04 3e 81 7e f9 3d
       0.06382979 -0.10968555 0.12954365 0.12182332
000060 f5 08 bf bd a9 ae a8 bd 97 97 97 3d 62 02 36 3c
       -0.0932788 -0.08236439 0.0740196 0.011108967
000070 e9 e2 f9 bd 0e 30 09 be b5 fa be 3d a6 84 1a be
       -0.12201483 -0.13397238 0.09325162 -0.15089664
000080 32 6f a9 bc 20 5f 4e bd 28 a2 aa bd bd 5c 87 bd
       -0.020682905 -0.050383687 -0.0833171 -0.06609485
000090 34 b5 63 3d 0b bf c4 bd e8 f4 05 3d c5 40 af bd
       0.05559273 -0.09606751 0.032704264 -0.08557276
0000a0 8b f4 cb 3d e2 48 37 bd 60 a2 1b bd ab 87 aa bd
       0.09958752 -0.04474724 -0.03799665 -0.08326658
0000b0 e3 ec cd bd 2b 11 c3 3d b4 cd 68 bd 99 5c b6 3c
       -0.10054948 0.09524759 -0.0568368 0.02226095
0000c0 b6 27 69 3d 9f 0e f4 3d 9f 8e 23 3d 4c 97 eb bd
       0.056922637 0.11916851 0.039930936 -0.11503467
0000d0 c3 e9 72 3d e0 f0 d4 3d 80 4e 44 3d 1e 9b ec bd
       0.059304964 0.10397506 0.047926426 -0.11553024
0000e0 41 89 cf bd c5 fd c5 bd c6 85 9c 3d 38 98 e4 3c
       -0.10133601 -0.09667543 0.07642703 0.027904615
0000f0 f3 49 99 3d 9b 18 81 3b a4 36 81 bd f1 96 4b 3d
       0.07484808 0.003939701 -0.0630925 0.049704496

conv_layers.0.lin_edge.weight f4 [64, 42]
000000 33 36 ed bd c6 24 90 bd 25 88 09 3d cf 43 8a 3d
       -0.11582603 -0.07038264 0.033577103 0.06751215
000010 91 74 d3 bd 75 64 5d 3b 0a c4 08 3e 81 60 b2 bc
       -0.10324968 0.00337818 0.13356033 -0.021774532
000020 1f cc 17 3e e0 9c 67 bc ea 52 57 3c de 78 ba 3c
       0.1482396 -0.014136523 0.013142327 0.022762712
000030 62 33 84 3d 67 df ae bd b4 6f dc bd 15 6a 59 3d
       0.06455113 -0.08538704 -0.10763493 0.053079683
000040 95 01 fa bd 02 67 b0 3d 57 b7 05 3e 89 6b 2a bd
       -0.12207333 0.08613397 0.1305822 -0.04160646
000050 ad 98 03 bd e6 41 0e 3e 0a 20 da 3d db d8 32 bd
       -0.032128025 0.13892326 0.10650642 -0.04366384
000060 de 1a 26 bd d0 10 14 3e 0f 56 d8 bd 6d 71 03 be
       -0.040552966 0.14459538 -0.105632894 -0.12836237
000070 38 df 9a bd 28 a4 e0 bd 7b 86 b8 bc 39 c9 0a be
       -0.07562107 -0.1096881 -0.022525063 -0.13553323
000080 a7 25 cd 3b 60 70 b8 bc b2 62 04 3e f5 f5 8c 3d
       0.006260592 -0.022514522 0.12928274 0.0688285
000090 96 b8 14 be 29 bd 12 3d 73 c4 8d 3c cd 59 ea bb
       -0.14523539 0.03582493 0.017305588 -0.0071518184
0000a0 c4 8a c3 bd 7b 7e 08 be 9b a8 68 bc 47 e2 53 bd
       -0.09547952 -0.13329498 -0.014200355 -0.051729467
0000b0 c6 99 f1 3d ba 65 97 3d a6 cd 8c bd 91 76 10 be
       0.11796908 0.0739245 -0.06875162 -0.1410773
0000c0 25 57 95 bd 26 5e 60 3d 74 57 19 be 34 ea 19 be
       -0.07292012 0.054777287 -0.14974767 -0.15030748
0000d0 70 03 14 bd ee 0b 64 bd b9 eb 16 3d 99 cb 37 bd
       -0.03613609 -0.05567544 0.036845896 -0.0448719
0000e0 55 31 d5 3c 94 df 1d be 7a 32 0d 3e 4e 24 b4 bb
       0.0260245 -0.1541732 0.13788787 -0.005497492
0000f0 1d 94 55 3d 71 ab d3 3c b3 ee 3b bd c7 f4 ca bd
       0.052143205 0.025838586 -0.04588194 -0.09909969
000100 2f 74 12 bd 51 2a 1a 3d d6 71 d1 3c 08 1b e4 bd
       -0.035755333 0.037638012 0.025566977 -0.11137968
000110 06 aa d8 3d 4f 56 10 bb 29 0a 1f 3d 00 34 f7 bc
       0.105793044 -0.00220241 0.03882805 -0.030176163
000120 ae 92 d4 bc 1a bf e2 3d e4 af 27 bd 1a d3 ec 3a
       -0.025948849 0.11071606 -0.040939227 0.0018068284
000130 ec 3b 94 bd 9d 4b 8c 3d cb c0 1e 3d cf 7e 5a 3d
       -0.07237992 0.068503596 0.03875808 0.05334359
000140 3d 62 94 3c af aa 44 3d f1 82 e3 bd 15 5a b2 3d
       0.01811325 0.04801434 -0.111089595 0.08708588
000150 1e b4 c8 3d 64 1f 4c 3d a1 52 96 3d 70 8d 06 3c
       0.097999796 0.049834624 0.07339979 0.008212432
000160 96 30 5a 3d 7e 88 f2 bd fe 99 c4 bd de 0c 82 3d
       0.05326899 -0.1184244 -0.09599684 0.063501105
000170 45 04 a7 bd b8 f0 82 bd 35 db 16 be a1 d3 90 3c
       -0.08155111 -0.0639357 -0.14732058 0.017679038
000180 0a 1d 00 3e b3 8e f3 3d 23 6f 16 bd 9d f9 12 3e
       0.12511078 0.11892452 -0.036727082 0.14353032
000190 27 64 17 be 64 7f 00 3e 00 b7 cd bd 94 ae 4f 3d
       -0.14784299 0.12548596 -0.1004467 0.0507036
0001a0 b0 9f 80 3c b8 80 ee 3d 07 f1 0b be 7d 1e e4 3b
       0.015701145 0.11645645 -0.13666163 0.0069616423
0001b0 4e 8f 10 3e 7c 91 11 3e 51 05 2e bd f2 4d ad bd
       0.14117166 0.14215654 -0.04248554 -0.084621325
0001c0 58 c0 d2 3c 60 47 c7 bd c4 54 05 be 20 f3 d9 bd
       0.025726482 -0.097304106 -0.13020617 -0.106420755
0001d0 c1 b4 c3 bd 6e ab 81 bd 9e 5c db 3d 67 8a 04 3e
       -0.095559604 -0.06331526 0.10711025 0.12943421
0001e0 64 31 6e 3c 9e 60 13 3d 54 f0 d7 bd 11 a6 87 3d
       0.014538143 0.035980813 -0.10543886 0.066234715
0001f0 38 54 e3 bc e7 a0 17 be b6 50 00 be 5e 66 0b bc
       -0.02775012 -0.14807473 -0.12530789 -0.008508293
000200 43 12 73 3d ad c5 66 3d 6f 58 01 3e 96 ea b9 3c
       0.059343588 0.056340862 0.12631391 0.022694867
000210 7e 04 52 3c a0 95 aa 3d 1d 8b a9 3c 10 b2 33 3d
       0.012818454 0.0832932 0.020696217 0.043870986
000220 2b 20 7c bd 74 f6 93 3d 8a a2 5a bd d5 5f 9f 3d
       -0.061554115 0.072247416 -0.053377666 0.077819504
000230 5f 16 db 3d b6 34 b5 3d 31 30 54 3d 2e 02 ab 39
       0.10697626 0.088479444 0.05180377 0.00032617286
000240 34 1f 5e 3d b7 f5 de 3c b9 90 12 3c be 40 49 3d
       0.054228976 0.027216775 0.008945637 0.04913401
000250 7f b8 f0 3d a5 fd 2e 3c 48 67 83 bd f9 e4 1b 3e
       0.1175394 0.010680591 -0.06416184 0.15224065
000260 5e f1 17 3e c2 fe e9 bd 9e 35 51 bd 79 cb 7e 3d
       0.14838168 -0.11425544 -0.051076524 0.062205765
000270 f8 4d 59 bd 82 44 04 bd b0 d2 c8 bb dd 92 e2 bd
       -0.053052872 -0.032291897 -0.0061286315 -0.11063168
000280 d8 68 8e bd 08 29 29 bd 77 7c d0 3c 32 f0 12 3e
       -0.06953591 -0.041298896 0.025449974 0.1434944
000290 08 31 e2 3c ed 33 16 3d bd 8b bd bd 72 c4 cc bc
       0.02761127 0.036670614 -0.092551686 -0.024996016
0002a0 05 b5 12 bd d5 6a a0 bc 7d 6a 74 3d ce f4 90 bd
       -0.035817165 -0.019582191 0.059671868 -0.07077943
0002b0 d3 1d 8d 3d 08 95 90 bc 67 58 0d bd 80 24 bd 3d
       0.06890454 -0.017649189 -0.034508135 0.092354774
0002c0 91 cf 6a 3c 68 d1 97 bd f6 fc e4 bd 48 93 52 bd
       0.014331714 -0.07412988 -0.11181061 -0.05140999
0002d0 13 62 de bd 0a 48 10 3e fc 26 2c 3d ee 84 cc 3d
       -0.1085855 0.1408998 0.042029366 0.09986292
0002e0 31 93 bd 3d 0f 46 04 3e ad 62 53 bd e7 ec 1b 3d
       0.0925659 0.1291735 -0.051607776 0.038067725
0002f0 f9 87 27 3d b2 83 c2 bb 35 63 3a bc d8 fa 0d 3d
       0.040901158 -0.0059361095 -0.011376192 0.03466305
000300 8d 70 ba 3d 5b 73 c1 3d 61 cc a7 bd 82 2f 0c 3e
       0.091034986 0.094458304 -0.08193279 0.13689998
000310 a6 6e d9 3d 22 10 ae bd b9 91 eb 3d 3b ac f4 3d
       0.10616808 -0.08499171 0.11502404 0.11946913
000320 b3 68 ba 3d 4c 0c cf 3d 1c db 84 bc f2 d1 48 3d
       0.09102001 0.10109767 -0.01621776 0.049028344
000330 ac e9 97 3d 15 bb 33 3b 47 6f 94 3d d3 fe a6 3b
       0.07417616 0.0027424742 0.07247787 0.0050962954
000340 9c 98 83 3d 8e 6b f1 bd 41 3c 0e be 89 a0 88 3d
       0.06425592 -0.117880926 -0.13890173 0.06671245
000350 09 4f a4 bd d7 65 d3 3d cf a1 f7 3d db 5f bf 3d
       -0.08022887 0.10322159 0.120914094 0.09344455
000360 2b ff ab 3b cb fa c5 bd 5c 1a 87 bd f7 36 5b bd
       0.0052489243 -0.096669756 -0.065968245 -0.053519215
000370 c7 be ec bd 49 9b ad bd 8a 59 98 3c cf b0 02 3e
       -0.115598254 -0.08476884 0.018597383 0.1276276
000380 85 ea 47 3d 4f b7 0f 3d 16 0c ba bd 48 31 96 3d
       0.04880764 0.035086926 -0.090843365 0.073336184
000390 10 0d 33 3d dd 8f 05 be 41 2c 05 bd 9a 1b c0 bd
       0.04371363 -0.1304316 -0.032512907 -0.093802646
0003a0 6d c8 0d be 39 28 12 be b3 4f 1b 3e a0 10 1b be
       -0.13845988 -0.14273156 0.15167122 -0.1514306
0003b0 e2 f1 a7 bd 67 46 aa 3d 39 34 b7 bc bb 75 b8 bd
       -0.08200432 0.083142094 -0.022363769 -0.0900683
0003c0 e7 66 a1 3d 71 f5 ee bd 6d 11 0e 3e 27 d3 b8 3d
       0.07880955 -0.11667908 0.13873835 0.09024649
0003d0 c6 6f ee 3c 5b d0 70 bd 60 af 06 be 80 9e c5 bc
       0.029106032 -0.058792453 -0.13152838 -0.02412343
0003e0 84 ee 0d bd 6c ac 0d be d6 7f d3 bc d6 ac 03 be
       -0.034651294 -0.13835305 -0.025817793 -0.128589
0003f0 04 31 ab bd 6a 01 1a 3e af 23 46 3d 98 4d a0 3c
       -0.08358958 0.15039602 0.048373874 0.01956825

conv_layers.0.lin_skip.weight f4 [64, 64]
000000 9a c8 10 bd 53 61 9c bd c4 5a 95 bd b3 50 0b 3d
       -0.03534756 -0.076357506 -0.07292703 0.034012508
000010 d6 a4 bf bd a7 89 d7 3d f7 aa e8 bd ea a9 de ba
       -0.09357612 0.10524302 -0.11360734 -0.0016987894
000020 8a 1d ba 3c 2c 77 b8 3d b3 3c c0 bd 94 02 38 3d
       0.022719163 0.09007105 -0.093865775 0.044924334
000030 0b d9 f9 bd 39 df 19 bd f7 9d d0 bd 56 47 c9 3d
       -0.12199601 -0.037566397 -0.101863794 0.098280594
000040 e3 13 b5 3c 1d 0b ad 3d a4 89 db 3d c6 d6 c2 3d
       0.02210421 0.08449385 0.10719612 0.09513621
000050 39 fe bd 3d d4 29 ec 3d 1b d8 4b bb 7c 89 61 bd
       0.09277005 0.115314156 -0.003110415 -0.055062756
000060 09 de 9d 3d cf 9a fb 3c 2f 40 69 3d 10 44 b4 3d
       0.077083655 0.030713467 0.056945976 0.088020444
000070 1a c7 2a 3d 7e 4a 2d 3c 62 05 bc 3d d3 dc 2f 3c
       0.041693784 0.010576842 0.09180714 0.010733801
000080 e6 09 12 bd 4a 85 c5 bd c6 72 37 3d a4 5e f3 bc
       -0.03565397 -0.096445635 0.04478719 -0.029708214
000090 08 45 93 bd 72 c4 93 bd d9 a9 ce 3d 8d 7e ca bd
       -0.07190901 -0.07215203 0.100909896 -0.09887419
0000a0 2c 0a db bd 92 75 e9 3d 8e 8e 4c 3d 93 41 d5 bc
       -0.106952995 0.11399378 0.04994064 -0.026032245
0000b0 48 82 8a bc 7e 48 dd bb 08 f3 e9 bc d1 57 99 3d
       -0.016907826 -0.0067530265 -0.02855827 0.07487453
0000c0 57 ce ae 3d 10 e0 cb bd 27 39 d7 b9 c1 72 1b bd
       0.0853545 -0.09954846 -0.00041050577 -0.037951235
0000d0 ae 75 db bb 76 77 69 bd 45 24 c3 bd e9 8d a0 3c
       -0.006697378 -0.056998692 -0.09528402 0.019598918
0000e0 0f ee c4 bd a3 2a 98 3d 9c f8 1d bc e5 0b 2b bb
       -0.096157186 0.07430007 -0.009641793 -0.002609962
0000f0 27 db fc bd 10 37 e4 bd f9 b6 28 3d 88 00 e1 3d
       -0.123464875 -0.11143315 0.04119012 0.109864295
000100 4d 4c 06 bd 43 0a e6 3d 48 52 22 3c 07 95 c2 3d
       -0.03278761 0.11232426 0.009907313 0.09501081
000110 a8 46 88 3d ab 45 0d bd 3e 56 7c 3d 47 49 cb 3d
       0.066541016 -0.03449027 0.061605684 0.09926086
000120 b5 fe 71 3d 7e 44 c3 bd 4a 6b c1 3d 7a 2f 8f bc
       0.0590808 -0.09534548 0.09444292 -0.017478693
000130 80 65 17 3d ba da f8 3d ba bd 7d 3c 24 99 30 bc
       0.036962032 0.12151094 0.015487129 -0.010778699
000140 bc 11 a9 bd f5 ec 65 3c 1a c3 75 3d ac 19 a8 bc
       -0.08255336 0.014033546 0.060000516 -0.020520054
000150 80 60 c6 3d b4 94 80 3d c4 42 cb 3d 0d 0e ff bb
       0.09686375 0.06278363 0.09924844 -0.0077836574
000160 fd 5a 80 bd 8e ab 5c 3c 25 b9 8c 3d 40 5d b7 bd
       -0.06267355 0.013468636 0.06871251 -0.08953333
000170 4c 6a 82 3d 4c 3d 07 3e 19 49 a0 3d ad 14 81 3d
       0.06367931 0.13206977 0.07826442 0.06302772
000180 66 b7 15 3e 5c f2 60 3d 7e 95 0f bc ad b5 7d bd
       0.14620742 0.054918632 -0.008763669 -0.061940838
000190 78 b4 0a be 6e a4 55 3d 87 a1 ae bd 59 7a ca bd
       -0.13545406 0.052158765 -0.08526903 -0.09886617
0001a0 32 fc 83 3d 74 d2 13 3d e6 f1 05 bd 96 1c 99 bd
       0.06444587 0.036089376 -0.032701395 -0.074761555
0001b0 31 81 95 bd a7 55 e2 3d 23 21 bf bc 84 5f c0 3d
       -0.07300032 0.11051493 -0.02333123 0.09393218
0001c0 4f 0b 87 bc 91 94 a9 bc 09 a3 f3 3d 3c 2a d7 bd
       -0.016484885 -0.020700725 0.11896331 -0.105061024
0001d0 b4 85 db 3c 76 8c 10 3b 6e 80 47 bd 4e e7 55 bd
       0.026797153 0.0022056377 -0.048706464 -0.052222542
0001e0 17 ac 2e bd 2d d7 15 3d b8 9a 4e bd eb 7f b4 bd
       -0.042644586 0.03658216 -0.05044052 -0.08813461
0001f0 66 1e fe 3d 5a 97 5e 3d a3 13 28 bc 16 a7 5c bc
       0.12408142 0.05434356 -0.010258588 -0.013467571
000200 6c 0e 87 bd a2 6c 4f 3d e1 dd 04 bd f6 7a 8e 3b
       -0.06594548 0.05064071 -0.032438163 0.004348154
000210 d5 ea 7f 3d ce ef 28 3d 80 65 7e bd 92 1c 36 bd
       0.062479813 0.04124432 -0.062108517 -0.04446084
000220 7a a9 e2 bc db f0 e9 bd d6 bb 22 bc e2 d0 12 bc
       -0.027668703 -0.11422893 -0.009932479 -0.008960934
000230 c5 a3 00 3e 52 f2 82 bd 94 b2 d2 3d c0 57 20 3c
       0.12562473 -0.06393875 0.10287967 0.009786546
000240 e1 fd 48 bd 07 d1 08 bd 05 ca dd 3d 04 4e b4 bd
       -0.049070243 -0.03340247 0.10829548 -0.08803943
000250 b3 22 bb bc b5 c4 ed bd a1 99 10 3e 61 57 c4 3b
       -0.022843694 -0.116097845 0.14121105 0.0059918617
000260 b3 bc e2 bd e1 9c 08 3c 9b a4 c0 bd 38 20 8e bc
       -0.11071148 0.008338184 -0.09406396 -0.017349347
000270 f7 f7 21 3d 2b 0b ee 3d ae bf ad bd 0e 85 d3 3d
       0.03954312 0.11623224 -0.084838256 0.103281125
000280 ee 3f b9 3c 0b e7 7a 3d 97 5f 32 3d f5 a0 f4 bc
       0.022613492 0.061255496 0.043548193 -0.029861907
000290 30 1d 80 3d 38 e5 95 3c 4d e8 98 3d 38 89 33 3d
       0.06255567 0.018297777 0.07466183 0.043832034
0002a0 b8 33 2e bd 7b 60 d0 bd 8b 69 12 be 8d c0 d5 3d
       -0.04252979 -0.10174652 -0.14298074 0.10437117
0002b0 78 05 b3 bd cb b6 d7 bd ed 57 6b bd 0b 32 1e bd
       -0.087412775 -0.10532912 -0.0574569 -0.038621943
0002c0 c4 83 8a 3d d9 35 2f 3d 51 3a a2 bd 42 78 db bd
       0.067634135 0.042775963 -0.07921279 -0.10716297
0002d0 13 bb 60 3a 1d 60 06 be ec b4 bd bc 2a 1a cf 3d
       0.0008572798 -0.13122602 -0.02315756 0.10112412
0002e0 c9 58 e5 3c 0c fc 1f bd 41 30 a4 bd 6c 5f ec bd
       0.027996438 -0.03905873 -0.08017016 -0.11541638
0002f0 ee 8a 07 be b4 6e 57 bd ce ae 09 be 19 13 7b 3d
       -0.13236591 -0.05259581 -0.13445589 0.06129751
000300 9d 65 2b bc 6f 64 e2 bd 35 5a bf 3d ea 0e a6 bd
       -0.010461238 -0.110543124 0.093433775 -0.081083134
000310 67 2f b3 bc 68 c4 3b 3d fe 16 65 3d 9a 0c 2f 3c
       -0.02187319 0.045841604 0.05593013 0.010684157
000320 06 82 b9 bc 17 6c 67 3c 12 88 89 3b 48 79 bc bc
       -0.022645008 0.014124892 0.004197129 -0.02300705
000330 5a b0 84 3d 5e b2 ec 3d 45 61 9f bc 7e dd db bb
       0.06478949 0.11557458 -0.019455561 -0.0067097535
000340 7a 97 20 3d 5b 1e d9 3d 0c 5e 8f bd b6 2a 60 3d
       0.03920696 0.10601493 -0.0700036 0.054728232
000350 cd 18 f9 3d 29 66 1f 3d 65 0d 0b bd a0 00 1b bd
       0.121629335 0.038915787 -0.03394832 -0.037842393
000360 aa 16 26 3d f1 d5 80 3d d1 71 b8 3c 38 7a d5 3d
       0.040548958 0.06290806 0.02251521 0.10423702
000370 8a 8e df bc 18 0c cf 3d c5 de b8 bd 2f 93 97 3a
       -0.027289648 0.101097286 -0.09026865 0.001156425
000380 d7 e7 98 3c e8 3f ed 3d b2 e3 8d 3d f2 3f 8b 3d
       0.018665237 0.11584455 0.06928195 0.06799306
000390 3e 60 b4 bd 9c b4 ba 3c 00 21 b3 bd b6 61 f2 bd
       -0.08807419 0.0227912 -0.087465286 -0.11835043
0003a0 2a ef b3 bd ac 0b d5 3d e7 e0 df ba b3 41 4f bd
       -0.08785851 0.10402617 -0.0017080576 -0.050599765
0003b0 af 2e 95 bd fb 8a 31 bd c6 ac 5b bd 76 92 d6 3d
       -0.07284295 -0.043345433 -0.053631566 0.10477154
0003c0 13 98 7b 3c 05 c9 90 bd 6b 3a d5 3d 74 1d e0 3d
       0.015356082 -0.070695914 0.10411533 0.10943118
0003d0 17 ea 07 be ce 6d f9 3c b1 d9 ad 3b 7b 08 c1 bc
       -0.13272892 0.030447867 0.005305492 -0.023563614
0003e0 0b 4c f2 3d 5c 33 87 bd 47 e1 c0 3d 29 09 c5 3d
       0.1183091 -0.06601593 0.09417968 0.09620888
0003f0 15 9a c7 bd a8 0e de bb 2f 2f b4 bc e9 02 d2 bd
       -0.09746186 -0.0067766495 -0.021995155 -0.10254461

conv_layers.0.lin_skip.bias f4 [64]
000000 80 a6 16 3d 5e b1 52 3b f1 39 b1 bd 56 81 de bd
       0.03677988 0.0032149176 -0.086536296 -0.108645126
000010 f9 8f 3b 3d 80 53 45 bd 81 8b 8e 3d cb 77 b3 3c
       0.0457916 -0.048175335 0.06960202 0.021907708
000020 ff 36 fb 3d d3 23 e1 3c 9f 71 80 3c f1 a8 33 3c
       0.12266349 0.027482903 0.015679179 0.010965572
000030 db 19 be bd 2b 0f b5 bd be 6a ba 3b ae 01 bd bd
       -0.09282275 -0.08840784 0.005688994 -0.09228836
000040 62 d4 b3 3d ca 8a 04 be a6 58 a6 3d de 22 06 3d
       0.08780743 -0.12943569 0.08122377 0.032748096
000050 88 53 a3 3d 15 1e a4 3c 84 4b 35 3d c7 2f 1c 3e
       0.07974917 0.020033875 0.04426147 0.152526
000060 42 d6 37 3d 5f 1e 99 bc 40 6d a7 3d bf 84 f3 bd
       0.044882067 -0.01869124 0.08175135 -0.11890554
000070 6a ad 19 3d d1 50 04 bb 13 bb 11 bc 67 a6 7f bd
       0.037518896 -0.0020189772 -0.0088947 -0.062414553
000080 46 90 e3 b8 b5 60 4f 3b 25 9a d4 bb 38 9b 84 3c
       -0.000108510765 0.0031643335 -0.006488102 0.016187295
000090 f2 28 0a be 31 d4 90 3d a2 0e b7 bb f6 a3 a3 bd
       -0.13492182 0.07071722 -0.005586461 -0.079902574
0000a0 ba 88 bf 3d 8e c3 94 bd 1e 39 ae 3d 4c 9a a5 3d
       0.093522504 -0.072638616 0.08506988 0.080860704
0000b0 12 d2 49 3d ee 73 ea bd 18 33 0c bd 96 80 f1 bd
       0.049272604 -0.11447893 -0.034228414 -0.11792104
0000c0 78 df d6 3d db 74 b6 3d 3c f2 c1 bd c1 d6 99 3d
       0.10491842 0.08909007 -0.09470031 0.07511664
0000d0 2b 39 9f 3b 27 ce 8a 3d 54 b6 b6 3d 01 1b d0 bd
       0.00485911 0.06777602 0.08921495 -0.101614006
0000e0 35 58 e4 bd 3e 8c c8 bd 38 f9 8f bd 8b 46 e0 3d
       -0.11149637 -0.09792374 -0.070299566 0.10950955
0000f0 c6 34 83 bd 33 c9 91 bc 99 f9 d9 bd 2b f5 8b bb
       -0.0640655 -0.017796135 -0.1064331 -0.0042711697

conv_layers.0.lin_beta.weight f4 [1, 192]
000000 2d 4f f1 3c 0a 34 51 bd 4b f8 14 bd e7 c3 96 bb
       0.0294567 -0.05107502 -0.036369603 -0.00460099
000010 87 db 68 3d 19 a6 10 3d 2e c1 4e bd 53 80 ce 3d
       0.056849983 0.035314653 -0.0504772 0.1008307
000020 a9 0d a7 3b 1b c6 89 3c 85 9a 4e bd 22 6e 9b bd
       0.005098064 0.016818097 -0.05044033 -0.075893655
000030 20 34 01 3d 43 5f 72 bc 26 38 cf bd 5c 50 a0 bd
       0.03154385 -0.01479322 -0.10118131 -0.07827827
000040 2f 40 db bd c5 53 d6 3c 7e ac 2d 3d 30 32 15 be
       -0.107056014 0.026162991 0.04240083 -0.14569926
000050 c8 52 01 bb 4a 05 27 3b e3 ef c1 3c 6f 6b 03 bd
       -0.001973318 0.002548533 0.023673957 -0.03208488
000060 67 01 01 bb 2a 3b 2c 3d 5e 2e 8d bc 67 e4 6c 3d
       -0.0019684674 0.04204861 -0.017234024 0.05783501
000070 90 60 ed bb 62 8d 9f bd 77 1b 23 3d 46 b7 b1 bd
       -0.007244177 -0.077906385 0.039821114 -0.08677535
000080 49 e7 18 3d a8 31 01 bc 96 be bf bd da a8 e6 bd
       0.037329946 -0.007885374 -0.09362523 -0.11262675
000090 99 2f 19 bd 5c 63 b6 bc ba c6 2a 3b 77 73 9d bc
       -0.03739891 -0.022264175 0.0026058392 -0.019220097
0000a0 10 77 d3 bd 98 0f d3 3c 53 3d c9 bd 01 7d 9b 3c
       -0.10325444 0.025764272 -0.0982615 0.018980505
0000b0 f3 0c 1d 3e 7d 14 a2 bd 94 6b 85 3c e8 be 2e bc
       0.15336971 -0.07914064 0.016286649 -0.010665633
0000c0 d2 b6 c8 bd d9 82 ff 3c ef 66 b4 bc f0 0f ae 3c
       -0.09800495 0.031190323 -0.022021739 0.021247834
0000d0 36 9a 57 bd a6 2a 36 3d ab 02 02 3e 33 bf 1f bc
       -0.0526373 0.044474266 0.1269633 -0.009750175
0000e0 05 59 52 3d d1 75 51 3d 5c b0 93 3d d9 f3 c5 bc
       0.051354427 0.05113775 0.07211372 -0.024164127
0000f0 99 87 4b bd 5c 84 6f b9 da 4f d9 3c 49 89 3e bd
       -0.049689863 -0.00022842124 0.026527334 -0.046517644
000100 85 08 bd bc b3 55 d1 bc 19 15 94 3d 2a ba af bb
       -0.023075351 -0.02555356 0.072305866 -0.0053627687
000110 ae db a5 3c c2 28 08 3d 84 68 5a 3c 8d c7 16 3d
       0.020246353 0.033241995 0.0133305825 0.0368114
000120 6d 7d 99 bd 8c 5d bf bc 60 f1 e5 bc 4e 2f 31 3d
       -0.07494626 -0.023360036 -0.028069198 0.043258004
000130 7e 25 22 bd a2 c3 1f bd 0f 65 3e bc 83 df 03 3d
       -0.039586537 -0.03900493 -0.011620774 0.03219558
000140 7b ca cc bc a5 7d e2 3d 8f c5 66 3d 2b af 8a bd
       -0.024998894 0.11059121 0.05634075 -0.06771692
000150 dc 47 05 3d 34 14 9a 3d ca e7 40 bc 96 41 3e 3d
       0.032539234 0.07523385 -0.011774013 0.046449266
000160 59 ea 42 3c 7f 55 47 3d d3 1d 5b 3d f4 4b 18 3c
       0.011896693 0.04866552 0.05349524 0.009295452
000170 46 7a a1 3a a9 6e 63 3d d3 fb c9 bd c4 f2 53 3d
       0.0012319766 0.055525456 -0.09862485 0.05174519
000180 94 eb dc 3d 78 db 01 bd f3 3e 9f 3c 5c 83 8a bc
       0.107871205 -0.031703442 0.019439196 -0.01690834
000190 6e 12 29 3c 07 76 8c 3b 44 7d 92 bc 47 a0 ac bd
       0.010319335 0.004286531 -0.017881997 -0.08429008
0001a0 a6 19 57 3d 10 5c 3e bd c3 cd bd 3d b8 a4 52 3b
       0.052514695 -0.046474516 0.092677616 0.0032141637
0001b0 d5 5d 5e bd 13 e1 a8 bc 4f 8a 49 bd fc a4 cb 3d
       -0.054288704 -0.020615136 -0.049204167 0.09943578
0001c0 d8 79 f2 3c 32 fb b5 3c 8e 16 b0 3c ac e2 28 bd
       0.029599115 0.022214506 0.02149513 -0.041231796
0001d0 63 e8 61 bd 60 b9 80 3c d9 84 a5 3c fd 65 96 3d
       -0.055153262 0.015713394 0.020204948 0.073436715
0001e0 41 65 74 3d 4a 07 77 bd ff d1 23 3d 85 e6 1b bb
       0.059666876 -0.060309686 0.03999519 -0.0023788523
0001f0 3b c3 8d bd cb b1 ff bc e0 fc 90 bc c0 dc 1a bd
       -0.06922003 -0.031212708 -0.017698705 -0.03780818
000200 44 a2 42 3d 78 f1 fc bc ca 90 d2 bd e5 ea 20 ba
       0.04751803 -0.03087686 -0.102815226 -0.00061385176
000210 66 cd 01 3d e3 19 64 3d 8e e2 a3 ba c7 62 79 3d
       0.031690024 0.05568875 -0.0012503432 0.060885217
000220 f1 b6 a8 3d bb c3 36 3b 92 e1 a3 bd 5a 37 ce 3b
       0.08238018 0.002788766 -0.080020085 0.0062932195
000230 61 57 96 bd 84 b5 60 bb ba ae 2c bc 81 6f 1b bb
       -0.07340885 -0.003428788 -0.010539705 -0.0023717585
000240 ed 87 f5 3c 85 ac e8 bc 68 bd 93 3b 96 ce 04 be
       0.029972041 -0.028402576 0.004508663 -0.12969431
000250 af 54 a1 bd c9 90 37 bd 00 e6 a6 3c 05 7d ce 3b
       -0.0787748 -0.044815812 0.020373344 0.0063015246
000260 42 7f 1f 3d 9f a2 a4 3c 06 4d 94 bd 22 4f 81 bd
       0.038939722 0.020097075 -0.072412536 -0.063139215
000270 45 98 4f bc eb fd fa bd d4 05 fb 3c 84 59 cb bd
       -0.012670581 -0.12255462 0.030642428 -0.09929183
000280 e6 66 0f 3d 7f 0a 41 bd 13 11 2d bd b1 9f 59 bd
       0.03501024 -0.04712915 -0.04225261 -0.05313081
000290 47 22 d4 bd 87 f6 b4 bd 87 8c 8c 3b 0a 4f 84 3d
       -0.103581004 -0.08836084 0.004289213 0.06460388
0002a0 48 58 41 be a5 c5 86 3d 22 06 f5 bd b9 0c 81 bd
       -0.18881333 0.065806665 -0.1196406 -0.06301255
0002b0 de 06 7b 3d 74 0c 0a 3d 43 32 21 bd de 30 67 3d
       0.061285846 0.033703282 -0.039354574 0.056443088
0002c0 e5 a2 66 bd 26 7c 71 bd 98 21 03 3d 93 0a 48 bd
       -0.056307692 -0.058956288 0.03201446 -0.04883821
0002d0 a9 57 32 bc ea 5b 3d 3d 55 87 c0 3d 27 aa 70 3d
       -0.010885158 0.046230234 0.094008125 0.05875602
0002e0 04 09 09 3c 04 fe 98 3d c8 0b cb 3d eb aa 9e bb
       0.008363966 0.07470325 0.099143565 -0.0048421524
0002f0 f8 cd 72 3d 5a a1 94 3d 5e 76 f8 3b 41 ab 42 3d
       0.05927846 0.07257338 0.00758247 0.0475266
